guardai/models/info_gathering/info_gathering_generator.pt (torch, 185081 bytes, 8 tensors)

model.0.weight f4 [64, 32]
-0.0028022323 -0.072538674 0.13121627 0.08721351 0.039049663 0.15450163 0.010707705 -0.24388506
-0.08086489 -0.21108648 0.17328231 0.078447305 -0.020802682 -0.05624309 -0.06892683 0.37896907
0.16711539 0.41592023 -0.08185083 0.3071056 -0.06347279 -0.101111114 0.05850058 -0.29871923
-0.015420073 -0.16728632 -0.22204362 -0.2142186 -0.28666267 0.057367217 0.32785952 -0.05993127
0.00585334 -0.06666798 0.051016953 0.04414602 -0.05836164 0.07564043 0.043854058 0.063768834
0.03614671 -0.020673044 -0.12620819 -0.1368268 -0.03551087 0.17408393 -0.24389781 0.17290306
0.05817124 -0.015686508 0.050663643 0.14983544 -0.105313875 -0.022721255 0.21474576 -0.025064204
0.16532443 -0.081763566 -0.016474279 0.1545299 0.14857319 -0.08706747 -0.120373785 0.043109763
-0.020811357 0.0695666 0.1658645 0.021831295 -0.0325665 0.11070321 -0.009749003 0.06415367
0.19474265 -0.10744454 -0.25476894 -0.21406586 -0.19720599 0.34376323 -0.23928492 -0.012622648
-0.030941408 0.058377087 0.007971811 0.17513192 -0.33530402 -0.20798355 0.23292221 -0.09784349
0.20144548 -0.03190919 -0.020034483 0.25252962 0.16305918 -0.07848419 -0.28496557 -0.06623384
-0.022105107 -0.0327773 0.098616995 0.065779924 0.0635013 0.07015274 0.0023620941 -0.2493227
-0.14720309 -0.11027602 0.06876916 0.03394694 -0.03643856 0.06311102 -0.16902268 0.3811461
0.028907973 0.3261423 0.08622543 0.18319975 0.032455426 -0.1499697 0.10052409 -0.18742959
-0.006575666 -0.21553852 0.021758594 -0.0997581 -0.1729248 -0.015410524 0.209668 -0.0097986255
0.11131041 0.14912866 -0.12303491 0.3125794 -0.037405834 0.060394958 0.10876545 -0.124681495
-0.04511394 -0.17773232 -0.08567845 0.03740999 -0.055477217 -0.101467505 -0.106120944 -0.16670801
0.029881114 0.047259096 0.14751646 -0.023715029 -0.13970865 0.038056895 0.03741385 0.0695992
0.14617656 -0.029902648 -0.005724928 -0.2308064 -0.030052613 0.11266061 -0.26051882 -0.15811138
-0.101492666 0.10684134 0.019205885 0.14526287 -0.12244513 0.18743092 0.07291038 -0.17052473
-0.042868868 -0.090355836 0.07022116 0.10244744 -0.06750712 0.06582093 -0.076767564 0.19885904
0.01792486 0.2533819 0.05726743 0.07643619 -0.05115936 -0.09620352 0.09271226 -0.27087143
0.043142393 -0.014221472 -0.14116684 -0.041359477 -0.15418446 0.033942558 0.16282733 -0.22387277
0.055560656 0.030062351 0.053338893 0.07766008 0.02943608 0.30154777 -0.0712059 0.23618798
0.056817744 0.0915971 -0.035618898 0.083916284 -0.15645269 0.0099001555 0.0135106025 -0.024214985
0.15860525 0.13807932 0.0767456 0.1078728 -0.049865603 0.10990803 0.2711451 -0.16448082
0.15810134 0.011936062 0.0129149575 0.16721545 -0.03970339 -0.019503219 0.0036209205 -0.1270262
0.1514835 0.17916857 -0.25193274 0.28985348 -0.054147594 0.07264518 0.12848264 -0.08112357
0.29076737 -0.24994177 -0.047493394 0.058044944 -0.06353377 -0.14686798 0.052440375 -0.5401941
0.07699258 -0.04602255 0.16236615 0.040838715 -0.2731933 0.18093935 -0.15613021 0.12586199
0.2577907 -0.16575265 -0.099114336 -0.3140819 -0.08580552 -0.09480693 -0.31090716 -0.15786056
00000000: a8a5 37bb 288f 94bd 8f5d 063e ff9c b23d
00000010: 8af2 1f3d ad35 1e3e 5f6f 2f3c 01bd 79be
00000020: 7e9c a5bd 0e27 58be eb70 313e fba8 a03d
00000030: 636a aabc 285f 66bd 8329 8dbd 3c08 c23e
00000040: 4c20 2b3e 7ff3 d43e 68a1 a7bd f23c 9d3e
00000050: 06fe 81bd 5813 cfbd 4e9e 6f3d baf1 98be
00000060: 79a4 7cbc 1b4d 2bbe 675f 63be 1f5c 5bbe
00000070: 73c5 92be e3f9 6a3d 34dd a73e 7e7a 75bd
00000080: 60cd bf3b 3989 88bd 27f7 503d 75d2 343d
00000090: 9d0c 6fbd 5fe9 9a3d 50a0 333d 3c99 823d
000000a0: 930e 143d 845a a9bc b83c 01be 531c 0cbe
000000b0: d973 11bd 0f43 323e 59c0 79be 800d 313e
000000c0: f744 6e3d fe80 80bc ae84 4f3d 766e 193e
000000d0: cdae d7bd ed21 babc 50e6 5b3e 7253 cdbc
000000e0: cf4a 293e a873 a7bd 11f5 86bc 163d 1e3e
000000f0: 9223 183e 6e50 b2bd 8886 f6bd dd93 303d
00000100: 947c aabc ef78 8e3d 62d8 293e 8bd7 b23c
00000110: 7364 05bd 5db8 e23d 48ba 1fbc 0063 833d
00000120: 9e6a 473e e20b dcbd 1371 82be 1534 5bbe
00000130: 5ef0 49be bc01 b03e 1b07 75be 39cf 4ebc
00000140: d678 fdbc d01c 6f3d 339c 023c c855 333e
00000150: f8ac abbe a4f9 54be 2983 6e3e 2b62 c8bd
00000160: b947 4e3e 36b3 02bd 5b1f a4bc 904b 813e
00000170: fcf8 263e 52bc a0bd 02e7 91be 9ca5 87bd
00000180: c515 b5bc 7d41 06bd b5f7 c93d a0b7 863d
00000190: f80c 823d 3dac 8f3d 5dcd 1a3b 734e 7fbe
000001a0: 68bc 16be 65d8 e1bd d8d6 8c3d f20b 0b3d
000001b0: 9940 15bd 5a40 813d 4814 2dbe 9525 c33e
000001c0: 6ad0 ec3c 20fc a63e f596 b03d b798 3b3e
000001d0: fbef 043d a891 19be 93df cd3d 8bed 3fbe
000001e0: af78 d7bb 21b6 5cbe 143f b23c fa4d ccbd
000001f0: 3313 31be 6c7c 7cbc 35b3 563e 6a8a 20bc
00000200: b6f6 e33d 2fb5 183e baf9 fbbd 680a a03e
00000210: dc36 19bd b460 773d 6cc0 de3d 0359 ffbd
00000220: 65c9 38bd 76ff 35be 2f78 afbd 383b 193d
00000230: 143c 63bd 32ce cfbd f055 d9bd 81b5 2abe
00000240: 3dc9 f43c c192 413d 8e0e 173e 0546 c2bc
00000250: c90f 0fbe 8ce1 1b3d 443f 193d 068a 8e3d
00000260: 4faf 153e 66f6 f4bc 2d98 bbbb 8358 6cbe
00000270: e630 f6bc 9bba e63d b962 85be f3e7 21be
00000280: 63db cfbd a2cf da3d a955 9d3c cabf 143e
00000290: 83c4 fabd e4ed 3f3e 0a52 953d 099e 2ebe
000002a0: 4497 2fbd 7b0c b9bd 1dd0 8f3d f7cf d13d
000002b0: 2c41 8abd 20cd 863d 5038 9dbd b4a1 4b3e
000002c0: 28d7 923c 46bb 813e 4191 6a3d 948a 9c3d
000002d0: 7a8c 51bd 5a06 c5bd eddf bd3d a9af 8abe
000002e0: 14b6 303d 2d01 69bc 0a8e 10be 8e68 29bd
000002f0: 88e2 1dbe 5a07 0b3d 35bc 263e e73e 65be
00000300: 9293 633d 5245 f63c e279 5a3d 3f0c 9f3d
00000310: ef23 f13c 7864 9a3e 66d4 91bd 43db 713e
00000320: b9b9 683d 4397 bb3d 1fe5 11bd 4ddc ab3d
00000330: 2235 20be 4334 223c 935b 5d3c 815e c6bc
00000340: 6a69 223e aa64 0d3e cc2c 9d3d 6aec dc3d
00000350: e03f 4cbd 7617 e13d 88d3 8a3e a96d 28be
00000360: 51e5 213e 798f 433c 4299 533c 873a 2b3e
00000370: 06a0 22bd 37c5 9fbc f74c 6d3b 2813 02be
00000380: 7e1e 1b3e f777 373e 54fd 80be ad67 943e
00000390: dec9 5dbd ffc6 943d f490 033e 1d24 a6bd
000003a0: 76df 943e bcf0 7fbe 6f88 42bd 89c0 6d3d
000003b0: fe1d 82bd 8f64 16be b8cb 563d 294a 0abf
000003c0: 49ae 9d3d 2482 3cbd 5043 263e 7f46 273d
000003d0: fedf 8bbe 2a48 393e 99e0 1fbe f7e1 003e
000003e0: 25fd 833e 10bb 29be 75fc cabd 58cf a0be
000003f0: ceba afbd 232a c2bd 392f 9fbe 33a6 21be

model.0.bias f4 [64]
-0.52843606 -0.7440692 -0.86069167 -0.6492016 0.26322252 -0.33079615 -0.22284411 0.020278502
-0.008128552 -0.06350112 -0.94621295 -0.7660824 -0.5693849 -0.7870128 -0.44486845 -0.23451237
-0.90411025 -0.85841787 -0.3694078 -0.8785521 -0.06275202 -0.78510267 -0.7783014 0.07970848
-0.54816794 -0.8385509 -0.6015273 -0.021541307 -0.81318295 -0.8553937 -0.78924865 -0.76069593
-0.85114336 -0.884997 -0.03727755 -0.50436324 -0.020931141 -0.6734134 -0.6991573 -0.77459955
-0.60916317 -0.72765034 -0.5198742 -0.94410443 -0.36145124 -0.07384186 -0.79831254 -0.37607762
-0.6322191 -0.9648464 -0.8551836 -0.65741116 0.4741918 -0.033582695 -0.8170631 -0.42701685
-0.86744475 -0.08960756 -0.089786656 -0.7496931 -0.8559851 -0.7423205 -0.8535816 -0.091364495
00000000: 9647 07bf 527b 3ebf 4a56 5cbf 1332 26bf
00000010: 1ac5 863e 1d5e a9be 3f31 64be 1a1f a63c
00000020: 9e2d 05bc e00c 82bd 033b 72bf fa1d 44bf
00000030: 35c3 11bf ac79 49bf ccc5 e3be 0324 70be
00000040: c573 67bf 46c1 5bbf 0523 bdbe cae8 60bf
00000050: 2284 80bd 7dfc 48bf c33e 47bf 333e a33d
00000060: bc54 0cbf 46ab 56bf b1fd 19bf 6577 b0bc
00000070: c22c 50bf 15fb 5abf 330c 4abf f8bc 42bf
00000080: 88e4 59bf 2a8f 62bf 58b0 18bd f31d 01bf
00000090: c977 abbc d264 2cbf f9fb 32bf 284c 46bf
000000a0: 1ef2 1bbf 4b47 3abf 7a16 05bf d4b0 71bf
000000b0: 2310 b9be 673a 97bd 365e 4cbf 3f8d c0be
000000c0: 1cd9 21bf 2c00 77bf 50ed 5abf 194c 28bf
000000d0: 45c9 f23e 028e 09bd 0c2b 51bf f4a1 dabe
000000e0: dc10 5ebf 2b84 b7bd 11e2 b7bd e3eb 3fbf
000000f0: d721 5bbf b708 3ebf 5384 5abf 4f1d bbbd

model.2.weight f4 [128, 64]
-0.880481 0.040304855 0.21688452 -0.6177884 -0.08605838 -0.5794815 -0.051509775 0.2549852
-0.527861 -0.08240746 -0.08414539 0.14473088 -0.031047108 0.2639785 -0.09154912 0.083220646
-0.08150381 0.06482981 0.2577761 -0.3438878 0.28063172 0.3066305 -0.47919714 -0.07374128
-0.117416106 0.27822882 0.14853942 -0.03331873 0.05116534 -0.039881893 -0.17544763 0.034920704
0.31739974 -0.15441127 0.24844866 0.2137501 -0.05517595 0.111603774 -0.1061194 -0.026974872
0.10206358 0.026912391 0.0788227 -0.0684437 -0.08883386 -0.88138616 0.26125532 -0.12857415
0.23548697 0.09176673 0.17625861 -0.12791468 -0.29868096 -0.6150735 0.0648119 -0.10244646
0.2684457 -0.81369305 -0.0048365663 0.073891245 0.20702606 0.17630272 0.3619392 0.050802205
-0.42535943 0.2705842 0.14730115 -0.065421686 0.16606842 -0.06924737 0.08240893 0.20995486
0.13087028 0.27472296 0.0005551912 -0.13885394 0.090837434 -0.25546172 0.030001977 -0.17279685
0.033626743 -0.0122916 0.21818197 -0.10707038 -0.19190788 -0.10472909 -0.019312171 -0.25736833
0.15305121 -0.003995962 0.20303732 -0.00071552326 0.07716818 -0.10187709 0.10801731 -0.14739347
-0.035126615 -0.059737213 0.23654254 0.03473121 -0.4618309 0.17548968 -0.1771107 -0.18813585
-0.05797529 -0.22901638 0.13256134 -0.19556323 -0.45258445 -0.3420488 0.038769867 -0.48944995
-0.1141616 -0.13577005 0.25066635 0.09508012 0.15423915 -0.33083674 0.24768965 -0.3869251
0.22189218 -0.2058766 0.247702 0.05639209 0.05262023 0.053887032 0.19155362 -0.34986416
-0.32142228 -0.082402624 -0.08974662 -0.3422096 -0.009271852 -0.05395319 -0.08489864 0.15986696
-0.33689958 0.035222694 0.34852153 0.042564336 -0.08834771 -0.0019201643 -0.07899463 -0.063503794
-0.017311066 -0.1104406 0.13008879 -0.021828704 0.08037126 -0.10821219 -0.23395057 -0.05886072
-0.03465615 -0.23118901 -0.1695548 0.060192578 -0.37344557 0.027419066 0.4397267 -0.24368997
-0.28103027 0.04622439 0.06510358 0.1558989 0.075296484 0.010551295 -0.048811898 0.11486721
0.22546734 -0.111349836 0.055061344 -0.11418095 0.0072423997 -0.05231262 -0.07906765 0.05688923
0.10655194 -0.16621035 0.08165007 0.2237381 -0.122352846 0.130709 -0.10707309 0.13180614
-0.18237828 0.0040835305 0.20299825 -0.2642593 -0.1132289 0.017625596 -0.24192806 0.021764446
0.17773321 0.082354926 0.09671295 0.13742398 -0.15440331 0.20387414 0.011153255 0.18387024
0.3542183 0.1403499 0.13519265 0.14454715 -0.15334171 0.19338277 -0.043859895 -0.1875926
0.027897896 0.054445893 0.30675712 0.19769797 -0.07533674 0.015306888 0.0830444 0.15135987
0.0012515468 0.16562459 0.04254642 0.11959388 0.23384643 0.10022409 0.20503522 0.13018714
0.09194052 0.11441878 0.00869869 0.17117317 0.08214424 0.11691799 -0.09632279 -0.024978988
0.3112217 0.023930345 0.11318526 0.15998375 -0.100216545 -0.51101613 -0.06092657 -0.21026221
0.39373577 -0.1093247 0.2328462 0.29694968 0.1273356 -0.5093021 0.035054795 -0.22010139
0.17867465 -0.57559735 0.114070475 0.19057499 0.024574988 0.3674123 -0.057063792 0.062217575
00000000: 3467 61bf b416 253d fa16 5e3e 6127 1ebf
00000010: 603f b0bd e658 14bf eafb 52bd 6c8d 823e
00000020: e621 07bf 3ec5 a8bd 6b54 acbd 5534 143e
00000030: 8156 febc 3128 873e 1b7e bbbd 966f aa3d
00000040: 78eb a6bd 7ec5 843d 3bfb 833e 1012 b0be
00000050: f6ae 8f3e acfe 9c3e 5459 f5be ab05 97bd
00000060: db77 f0bd 0274 8e3e b81a 183e 3879 08bd
00000070: bf92 513d 325b 23bd 8ba8 33be 0309 0f3d
00000080: 3882 a23e fd1d 1ebe 5369 7e3e 4ee1 5a3e
00000090: 2d00 62bd 8590 e43d 2155 d9bd 68fa dcbc
000000a0: b606 d13d 6077 dc3c cc6d a13d 362c 8cbd
000000b0: 87ee b5bd 86a2 61bf 42c3 853e f1a8 03be
000000c0: 7f23 713e 32f0 bb3d 237d 343e 11fc 02be
000000d0: b6ec 98be 7575 1dbf 1abc 843d 73cf d1bd
000000e0: b771 893e 304e 50bf 0f7c 9ebb 4b54 973d
000000f0: a4fe 533e b388 343e 1850 b93e f915 503d
00000100: b6c8 d9be 038a 8a3e 1dd6 163e cefb 85bd
00000110: d70d 2a3e 91d1 8dbd 03c6 a83d 68fe 563e
00000120: dc02 063e 7da8 8c3e 408a 113a ba2f 0ebe
00000130: fa08 ba3d e1cb 82be b5c6 f53c a8f1 30be
00000140: 32bc 093d b562 49bc 186b 5f3e b747 dbbd
00000150: 8083 44be 357c d6bd 8f34 9ebc c8c5 83be
00000160: 75b9 1c3e 8ff0 82bb 04e9 4f3e f491 3bba
00000170: 5a0a 9e3d f0a4 d0bd 2e38 dd3d 50ee 16be
00000180: ede0 0fbd 02af 74bd 3538 723e 5042 0e3d
00000190: 1a75 ecbe 91b3 333e 825c 35be afa6 40be
000001a0: 7f77 6dbd 4583 6abe 29be 073e ba41 48be
000001b0: 26b9 e7be 0521 afbe 27cd 1e3d 2f99 fabe
000001c0: 8fcd e9bd 4e07 0bbe 5757 803e 5eb9 c23d
000001d0: def0 1d3e 6f63 a9be 5ba2 7d3e 0c1b c6be
000001e0: b437 633e 51d1 52be 98a5 7d3e 64fb 663d
000001f0: 4f88 573d a6b8 5c3d a226 443e 6521 b3be
00000200: 7691 a4be b5c2 a8bd 13cd b7bd 1936 afbe
00000210: f7e8 17bc 05fe 5cbd 57df adbd 2ab4 233e
00000220: 1a7e acbe ac45 103d 6a71 b23e f157 2e3d
00000230: a5ef b4bd 06ae fbba f0c7 a1bd 470e 82bd
00000240: f0cf 8dbc ae2e e2bd ff35 053e 1cd2 b2bc
00000250: b099 a43d 5a9e ddbd bd90 6fbe f017 71bd
00000260: 9bf3 0dbd d0bc 6cbe c69f 2dbe 7e8c 763d
00000270: 4234 bfbe f39d e03c dc23 e13e dd89 79be
00000280: 33e3 8fbe c955 3d3d 0755 853d f6a3 1f3e
00000290: 0b35 9a3d 57df 2c3c fcee 47bd 803f eb3d
000002a0: e9e0 663e 620b e4bd 0188 613d b4d7 e9bd
000002b0: a751 ed3b c245 56bd 38ee a1bd ae04 693d
000002c0: e737 da3d 0c33 2abe 2738 a73d 9a1b 653e
000002d0: 2194 fabd 95d8 053e 2349 dbbd 30f8 063e
000002e0: 5fc1 3abe 23cf 853b c6de 4f3e ff4c 87be
000002f0: 8ee4 e7bd 8e63 903c fdbb 77be 5a4b b23c
00000300: b2ff 353e b3a9 a83d 7011 c63d dfb8 0c3e
00000310: e71b 1ebe 62c4 503e 24bc 363c 7b48 3c3e
00000320: 1a5c b53e e2b7 0f3e f16f 0a3e 2b04 143e
00000330: 9c05 1dbe 2206 463e 6fa6 33bd 4618 40be
00000340: 218a e43c a802 5f3d 450f 9d3e 5671 4a3e
00000350: 264a 9abd bec9 7a3c 2f13 aa3d 15fe 1a3e
00000360: f10a a43a 7e99 293e 2845 2e3d a3ed f43d
00000370: 7075 6f3e 4a42 cd3d c1f4 513e c74f 053e
00000380: 504b bc3d 6554 ea3d f384 0e3c 0548 2f3e
00000390: 3d3b a83d b372 ef3d e244 c5bd bca0 ccbc
000003a0: 7358 9f3e 9209 c43c accd e73d c8d2 233e
000003b0: 553e cdbd f4d1 02bf 248e 79bd fa4e 57be
000003c0: bc97 c93e a1e5 dfbd 3c6f 6e3e ca09 983e
000003d0: 4364 023e 9f61 02bf 9e95 0f3d 4262 61be
000003e0: 7df6 363e 595a 13bf c89d e93d 1726 433e
000003f0: 7c51 c93c 771d bc3e b9bb 69bd dbd7 7e3d

model.2.bias f4 [128]
-0.026607621 0.0726315 0.19825694 -0.5449221 0.116470344 -0.19213758 -0.3798667 -0.58173597
0.34607235 0.2476813 -0.3863802 -0.005708313 -0.14970335 -0.57872164 0.04090908 0.08452114
-0.35008508 0.39066648 -0.21769412 -0.366508 -0.023138348 -0.04818197 0.110419326 0.024525616
0.30089438 0.28010216 0.3543698 -0.06830439 0.39457914 0.068859115 -0.3069818 -0.17377451
0.237726 -0.18845735 -0.012850725 0.5897703 0.4291875 0.677635 -0.045656096 0.03312251
-1.127999 0.06644196 0.100470185 -0.18062198 0.31017864 -0.331524 0.3431925 0.14452216
-0.25442058 0.3265506 0.57022494 -0.13936046 0.40768892 -0.50133044 0.11237728 -0.30630702
0.015279764 0.071454555 0.12689357 -0.48588312 -0.1064003 0.5471879 0.30187958 -0.2478628
-0.008277509 -0.32472387 -0.71023935 0.14206183 -0.23595878 -0.48136348 -0.066445276 0.50478
0.19389674 0.15356071 0.25328445 0.386764 0.25687703 -0.03299751 -0.23474836 0.34170216
0.41043094 0.32203335 0.33153847 0.28290603 0.22712371 -0.123188 0.22622716 -0.33980122
-0.07641691 0.5063238 -0.17382517 0.20076269 -0.22811848 -0.48459756 -0.16028124 0.015168933
0.001146413 -0.39460847 0.22078447 -0.21286789 0.55559325 -0.026320536 0.41820073 -0.57711583
0.69405234 0.6072544 -0.4406502 0.3590636 -0.17797221 0.016953945 -0.08293808 -0.18599543
0.26362118 0.30333126 0.3077785 -0.48605874 -0.1364711 0.21087745 0.62842476 0.24020946
0.21523026 0.40089107 -0.33455378 0.16907671 0.51886266 0.15607215 -0.64473224 0.37330136
00000000: 3af8 d9bc d3bf 943d de03 4b3e 0480 0bbf
00000010: 0188 ee3d b7bf 44be e37d c2be a6ec 14bf
00000020: 6530 b13e 2ba0 7d3e a0d3 c5be cd0c bbbb
00000030: d64b 19be 1a27 14bf 4890 273d 6b19 ad3d
00000040: 5a3e b3be 7005 c83e 35eb 5ebe f0a6 bbbe
00000050: a28c bdbc 755a 45bd 8723 e23d f2e9 c83c
00000060: d40e 9a3e 8d69 8f3e f56f b53e 2ce3 8bbd
00000070: 4706 ca3e 0206 8d3d b82c 9dbe f2f1 31be
00000080: 726e 733e f7fa 40be d98b 52bc 30fb 163f
00000090: 77be db3e 7d79 2d3f e301 3bbd 78ab 073d
000000a0: 4562 90bf b912 883d 50c3 cd3d f8f4 38be
000000b0: bccf 9e3e 84bd a9be edb6 af3e 9efd 133e
000000c0: 6a43 82be a431 a73e 43fa 113f 82b4 0ebe
000000d0: 9abc d03e 3157 00bf 0f26 e63d 46d4 9cbe
000000e0: fa57 7a3c c456 923d 63f0 013e acc5 f8be
000000f0: 67e8 d9bd 8214 0c3f f68f 9a3e bfcf 7dbe
00000100: 649e 07bc 3542 a6be 3fd2 35bf a878 113e
00000110: 2e9f 71be 4675 f6be 7614 88bd 4339 013f
00000120: de8c 463e 053f 1d3e 80ae 813e ee05 c63e
00000130: 6385 833e 6628 07bd e061 70be 96f3 ae3e
00000140: 0124 d23e 8ee1 a43e 69bf a93e 0fd9 903e
00000150: 1e93 683e fd49 fcbd 18a8 673e 6dfa adbe
00000160: 7880 9cbd 709e 013f 3aff 31be bc94 4d3e
00000170: e497 69be 2c1d f8be c420 24be 1e87 783c
00000180: 3d43 963a 1f0a cabe 5315 623e 0afa 59be
00000190: 5c3b 0e3f 2a9e d7bc 681e d63e ddbd 13bf
000001a0: 6aad 313f 0675 1b3f e79c e1be 2fd7 b73e
000001b0: 593e 36be 00e3 8a3c 71db a9bd 9675 3ebe
000001c0: 5bf9 863e 3c4e 9b3e 2595 9d3e b1dc f8be
000001d0: 14bf 0bbe 42f0 573e 72e0 203f 78f9 753e
000001e0: 5265 5c3e 9841 cd3e a24a abbe 7222 2d3e
000001f0: 2fd4 043f 61d1 1f3e 2c0d 25bf 5b21 bf3e

model.4.weight f4 [256, 128]
-0.22211957 0.18276872 -0.11273289 -0.036785834 -0.107279405 0.007929143 -0.095021166 0.16934633
-0.14051484 -0.21139583 -0.048786957 -0.12159042 -0.19521183 0.10319982 -0.21003212 -0.2373181
-0.15437822 -0.09779506 -0.047278512 0.09330345 -0.17309476 -0.15585828 -0.1025812 0.050787922
-0.17813331 -0.31144184 -0.20552051 0.21589445 -0.14925408 -0.21002169 -0.28817835 0.036001403
-0.0667111 -0.20515554 -0.32896477 -0.085471615 0.13570754 0.0811462 -0.3745195 -0.118329346
-0.18634067 -0.13357648 -0.044272646 -0.04522559 0.0014850844 -0.12975806 -0.17607759 -0.07960026
-0.24617332 -0.20577373 -0.15503722 -0.06959734 -0.2603453 -0.19800778 -0.28510606 0.098907426
-0.5899535 -0.03245614 0.013894536 -0.20506072 -0.28365746 0.15862823 0.06265188 0.24248715
-0.09988258 -0.15060215 -0.04526467 -0.074963704 -0.11493511 -0.111998 0.0042584394 -0.10278761
0.04616872 -0.05253921 -0.18799806 -0.107612096 -0.20269404 -0.026234759 -0.020405984 0.00290671
-0.23851496 -0.06563592 -0.040718067 0.073155954 -0.12185831 0.008885621 0.03211362 0.026621964
-0.004152077 0.089127 0.10304161 0.1666795 -0.19787364 -0.2700351 0.019971453 -0.20741642
0.0406339 -0.41146922 0.026911484 -0.18976554 -0.33860996 -0.44131193 0.044452075 -0.039512467
-0.40407816 -0.18629052 -0.06845454 -0.087134965 0.21710207 -0.32698482 -0.026614705 -0.32352465
-0.35401702 -0.22961518 -0.29477596 0.100850604 -0.12273967 -0.15386741 -0.0009403572 -0.07500411
-0.3973812 -0.036295447 0.042455714 -0.16867338 0.12030214 -0.070669845 -0.0068213344 -0.24974604
-0.15978284 -0.14597686 0.07389031 0.033126708 0.104175396 0.03244701 -0.2730796 -0.120625935
-0.32115248 -0.21719687 -0.64762783 -0.18129084 -0.11072618 -0.022871355 -0.18288675 -0.6877253
0.24857277 -0.42825714 -0.11685851 0.09055884 -0.3707816 -0.20223661 0.14997369 0.31438094
-0.29222348 -0.09639592 0.1740303 0.08123807 -0.23752017 -0.6211472 0.013464502 -0.21977451
0.33829343 0.0816303 -0.26142967 -0.4920552 -0.24943511 -0.6141172 -0.16961324 0.16459735
-0.01287134 0.06974092 -0.40925834 0.22275992 -0.0011131179 -0.5393598 -0.23628086 0.07686748
0.21711498 0.066688016 -0.71148413 0.08187028 -0.31570724 0.5281075 -0.12177772 -0.3379322
-0.11836942 0.17239267 -0.43968192 -0.07072235 -0.086317964 -0.16751193 0.2713499 0.119699664
0.100412175 0.2529076 0.06742613 -0.6157774 -0.12584561 0.20457517 0.19589576 -0.69653654
0.17430463 0.50027764 -0.31101865 -0.15192933 -0.2056155 0.27187887 0.0029835084 -0.20835458
-0.19011039 -0.14329924 -0.40931588 -0.21420154 -0.4351949 0.026139192 0.15980022 0.034924977
0.09831888 -0.17839581 0.23024003 -0.02119204 -0.35841653 0.0014573674 -0.021566845 -0.10802335
-0.008700378 -0.16866982 -0.013047523 -0.38942868 -0.6733905 -0.031740367 -0.57304245 0.06640357
-0.4811674 -0.32113522 -0.07686846 -0.13620856 0.0016981767 0.4484449 -0.26813504 0.30395588
0.003387021 -0.14663598 -0.3928966 0.45717955 -0.05348139 -0.066620454 -0.025163049 -0.08112101
-0.016932689 0.08844265 -0.13712159 -0.39064857 -0.1850187 -0.21867011 -0.1070363 0.2410803
00000000: 5073 63be b927 3b3e 80e0 e6bd beac 16bd
00000010: 4eb5 dbbd 3ce9 013c 759a c2bd 2069 2d3e
00000020: 1fe3 0fbe 2678 58be d5d4 47bd 6604 f9bd
00000030: 9ce5 47be 6d5a d33d a912 57be 8403 73be
00000040: 5315 1ebe c748 c8bd 1da7 41bd e115 bf3d
00000050: c13f 31be 5099 1fbe 1816 d2bd ff06 503d
00000060: 9468 36be 4e75 9fbe f873 52be 6f13 5d3e
00000070: 10d6 18be ed0f 57be 1d8c 93be 3576 133d
00000080: d49f 88bd 4b14 52be 126e a8be be0b afbd
00000090: ebf6 0a3e fb2f a63d 05c1 bfbe a856 f2bd
000000a0: 17d0 3ebe 46c8 08be 3c57 35bd 783e 39bd
000000b0: 2aa7 c23a 4cdf 04be af4d 34be 7605 a3bd
000000c0: dc14 7cbe 59b6 52be 14c2 1ebe 0d89 8ebd
000000d0: fb4b 85be 8dc2 4abe 6cf9 91be fa8f ca3d
000000e0: 3107 17bf bbf0 04bd e8a5 633c 70fb 51be
000000f0: 8d3b 91be 706f 223e a14f 803d 8d4e 783e
00000100: 3d8f ccbd 7337 1abe 7267 39bd 9286 99bd
00000110: 1963 ebbd 355f e5bd 618a 8b3b 4f82 d2bd
00000120: 691b 3d3d 5b33 57bd 9082 40be bb63 dcbd
00000130: 078f 4fbe 47ea d6bc 732a a7bc 807e 3e3b
00000140: 443d 74be 206c 86bd fdc7 26bd cad2 953d
00000150: da90 f9bd ff94 113c 9289 033d 4e16 da3c
00000160: 250e 88bb 3788 b63d 7b07 d33d 08ae 2a3e
00000170: 639f 4abe 0a42 8abe 2c9b a33c f864 54be
00000180: bb6f 263d 18ac d2be 7975 dc3c e651 42be
00000190: 495e adbe a3f3 e1be 6113 363d d3d7 21bd
000001a0: 55e3 cebe f1c2 3ebe e531 8cbd d173 b2bd
000001b0: 0150 5e3e 8e6a a7be 1507 dabc 06a5 a5be
000001c0: b841 b5be 3e20 6bbe e0ec 96be c38a ce3d
000001d0: f05e fbbd 6b8f 1dbe 4e82 76ba c19b 99bd
000001e0: 8c75 cbbe 89aa 14bd 0be6 2d3d b7b8 2cbe
000001f0: f860 f63d 5abb 90bd 8085 dfbb 6dbd 7fbe
00000200: 1d9e 23be f57a 15be ce53 973d dfaf 073d
00000210: e959 d53d 28e7 043d 17d1 8bbe bb0a f7bd
00000220: 196e a4be db68 5ebe f0ca 25bf 4ea4 39be
00000230: 68c4 e2bd b55c bbbc aa46 3bbe c40e 30bf
00000240: dc89 7e3e 8544 dbbe 8453 efbd ea76 b93d
00000250: 16d7 bdbe 1d17 4fbe b492 193e 8af6 a03e
00000260: 519e 95be 396b c5bd 0035 323e 2560 a63d
00000270: 7d38 73be 8103 1fbf 379a 5c3c 920c 61be
00000280: cc34 ad3e c92d a73d 1cda 85be a9ee fbbe
00000290: eb6b 7fbe c936 1dbf 18af 2dbe 358c 283e
000002a0: 50e2 52bc 54d4 8e3d 4f8a d1be 2d1b 643e
000002b0: 0ae6 91ba 7c13 0abf 9cf3 71be b36c 9d3d
000002c0: 6453 5e3e ba93 883d d323 36bf 9bab a73d
000002d0: 61a4 a1be 0e32 073f 9966 f9bd 7305 adbe
000002e0: ab6b f2bd b487 303e fd1d e1be e1d6 90bd
000002f0: 79c7 b0bd 3f88 2bbe 60ee 8a3e 1925 f53d
00000300: e6a4 cd3d 1b7d 813e b616 8a3d 96a3 1dbf
00000310: acdd 00be 277c 513e e698 483e 3850 32bf
00000320: ea7c 323e 3212 003f d63d 9fbe 5d93 1bbe
00000330: df8c 52be b533 8b3e f786 433b e75a 55be
00000340: 4cac 42be 09bd 12be da91 d1be a657 5bbe
00000350: ded1 debe dc21 d63c aba2 233e 7e0d 0f3d
00000360: 695b c93d 64ad 36be 0bc4 6b3e ee9a adbc
00000370: 5f82 b7be 2305 bf3a f4ac b0bc 593b ddbd
00000380: 088c 0ebc c8b7 2cbe 47c5 55bc 3263 c7be
00000390: 5263 2cbf 3002 02bd e9b2 12bf 98fe 873d
000003a0: 935b f6be d66b a4be 366d 9dbd 427a 0bbe
000003b0: 5b95 de3a 929a e53e ff48 89be 1ba0 9b3e
000003c0: c8f8 5d3b be27 16be be29 c9be 7013 ea3e
000003d0: 4d0f 5bbd 4e70 88bd bd22 cebc c622 a6bd
000003e0: 6cb6 8abc 6c21 b53d 9a69 0cbe 1703 c8be
000003f0: 8b75 3dbe 0feb 5fbe d935 dbbd c1dd 763e

model.4.bias f4 [256]
-0.21071339 -0.33970192 -0.2082411 0.03741175 -0.31730732 0.016797483 -0.056029502 0.11930256
-0.19706301 -0.11783348 0.32426044 -0.33317995 0.38159296 -0.10515145 0.022510853 -0.079835206
0.16319185 -0.21684423 0.20193858 -0.3151714 -0.07651919 0.058315992 -0.2593412 0.09394327
-0.21491016 0.040645644 -0.23053028 -0.11385145 0.23910826 -0.25512406 -0.2716639 -0.22914661
-0.45198676 -0.076311015 0.009958769 0.2310438 -0.22169429 0.021616505 -0.14933561 0.04849912
-0.13797128 -0.19900796 -0.14996766 0.06783608 -0.19338538 0.062517606 -0.3574243 0.2692926
0.01573106 -0.0071838745 0.11177558 -0.036687985 0.15392043 -0.2257138 -0.35942942 0.045318246
0.14001551 0.12012523 0.011680623 -0.060900215 0.30682078 0.11800116 0.29671085 0.1942254
0.14627571 -0.19411537 -0.0022726362 0.10976486 -0.21684624 -0.28861937 -0.092066765 0.35158017
0.27713186 -0.0011667013 0.16258538 -0.080388084 -0.37804544 -0.057971854 0.07238675 -0.09641353
-0.2195326 0.006602466 -0.1512917 0.027838657 -0.45336217 0.09030093 -0.12303661 0.23245119
-0.1693062 -0.053871542 0.046158947 -0.008172782 0.3332627 -0.29975232 0.20079318 0.36956015
0.1809709 -0.09243252 0.052958645 0.08055296 -0.37400502 0.4323547 -0.060670353 -0.5832119
-0.3233228 0.23421216 -0.15165445 -0.09463964 -0.13145806 0.010817482 0.2745487 -0.10022705
-0.08442485 0.03798886 0.20355253 -0.28645837 -0.012633839 0.24421462 -0.007246565 0.059331927
-0.13637646 -0.042275093 -0.45576853 -0.54981714 0.043175697 -0.18710606 -0.101662464 -0.25883064
0.046292428 0.006440931 -0.17120844 0.1779379 -0.18456042 -0.05320519 0.19645092 -0.106343046
-0.26704136 -0.14830558 -0.24191023 0.2855154 -0.3300114 0.31757012 -0.2599746 0.02860434
0.05324353 0.18335731 0.44460806 -0.29007772 0.2694935 -0.0820181 -0.14875165 0.24556522
0.12657256 -0.31714973 0.14677508 -0.044639777 0.04352591 -0.06678459 0.056096904 -0.08708487
-0.29572466 -0.006618946 0.24513729 -0.40202022 -0.23961319 0.01237849 -0.30697206 -0.5894149
-0.030041274 -0.35162494 0.19884834 0.17368428 0.1378512 -0.14462717 -0.066763 0.19939724
-0.21877638 0.2060617 -0.57732624 0.22936381 -0.23522489 -0.25856373 -0.23403186 -0.118774645
-0.42510048 -0.16926084 -0.12339008 -0.12676893 0.2887349 0.2114782 -0.082907625 0.052273955
-0.10430825 0.11568143 -0.31251803 -0.22995345 -0.1588767 -0.040945753 -0.14309879 -0.31697825
-0.26017886 0.070558056 0.11314192 0.12480535 0.28603297 -0.3373628 -0.37765524 -0.3366642
-0.14950556 -0.39230147 0.050672 0.15864287 -0.2922536 0.28859282 -0.28713587 0.20405832
-0.49468222 0.26101947 -0.28599268 0.33221737 -0.48299503 -0.62258345 0.08408036 -0.2922164
-0.316507 0.01154356 -0.24340945 -0.5168249 -0.18207896 -0.06807648 -0.25345066 -0.11851093
-0.16145667 -0.07467061 -0.036235966 0.08977712 -0.13712025 0.25085428 -0.1450865 -0.053673554
-0.11016 -0.07160267 -0.02190064 -0.26152942 0.4179941 -0.10520014 -0.21244887 -0.26685804
-0.6724545 -0.14056058 -0.110503435 -0.043998424 0.08186907 0.059989937 -6.388795e-05 -0.22740005
00000000: 40c5 57be 69ed adbe 283d 55be 103d 193d
00000010: 1b76 a2be e09a 893c 317f 65bd e754 f43d
00000020: e3ca 49be ae52 f1bd 7705 a63e 9096 aabe
00000030: 2760 c33e a559 d7bd ae68 b83c a480 a3bd
00000040: c41b 273e 6a0c 5ebe fdc8 4e3e 255e a1be
00000050: 18b6 9cbd c0dc 6e3d 5fc8 84be 5465 c03d
00000060: 6911 5cbe 0c7c 263d 2110 6cbe f32a e9bd
00000070: ccd8 743e 9f9f 82be 8817 8bbe 69a5 6abe
00000080: cf6a e7be f348 9cbd 1b2a 233c bf96 6c3e
00000090: d403 63be 1915 b13c 6feb 18be 03a7 463d
000000a0: 5848 0dbe bec8 4bbe 1f91 19be a5ed 8a3d
000000b0: d106 46be 3b09 803d 5100 b7be b8e0 893e
000000c0: 6dde 803c b566 ebbb 98ea e43d 2446 16bd
000000d0: 519d 1d3e 8521 67be 2207 b8be a09f 393d
000000e0: 3a60 0f3e 3704 f63d 1560 3f3c 8172 79bd
000000f0: 9d17 9d3e 98aa f13d 7cea 973e 06e3 463e
00000100: 4dc9 153e 2ec6 46be 82f0 14bb 66cc e03d
00000110: f10c 5ebe ebc5 93be 808d bcbd 5102 b43e
00000120: 3ae4 8d3e 00ec 98ba c87c 263e 82a2 a4bd
00000130: 2c8f c1be e573 6dbd 813f 943d 7574 c5bd
00000140: 27cd 60be 8059 d83b 36ec 1abe e50d e43c
00000150: 161f e8be b2ef b83d 9efa fbbd af07 6e3e
00000160: 9b5e 2dbe 68a8 5cbd 2a11 3d3d 22e7 05bc
00000170: 69a1 aa3e 2379 99be ba9c 4d3e fd36 bd3e
00000180: 7050 393e 434d bdbd 2aeb 583d f3f8 a43d
00000190: 967d bfbe 985d dd3e 7a81 78bd 604d 15bf
000001a0: 918a a5be 50d5 6f3e 4e4b 1bbe 6dd2 c1bd
000001b0: f19c 06be cf3b 313c a691 8c3e d743 cdbd
000001c0: f0e6 acbd 359a 1b3d 1370 503e acaa 92be
000001d0: 29fe 4ebc 6613 7a3e 9874 edbb 0906 733d
000001e0: 45a6 0bbe a628 2dbd 7e5a e9be d1c0 0cbf
000001f0: 00d9 303d bb98 3fbe 6934 d0bd 7385 84be
00000200: 219d 3d3d 720e d33b 4451 2fbe 5a35 363e
00000210: 68fd 3cbe afed 59bd 6e2a 493e 62ca d9bd
00000220: a5b9 88be 6bdd 17be 51b7 77be 132f 923e
00000230: 41f7 a8be 8d98 a23e 641b 85be a653 ea3c
00000240: e315 5a3d 05c2 3b3e aba3 e33e 1185 94be
00000250: 0dfb 893e 1bf9 a7bd 5a52 18be 7375 7b3e
00000260: 3d9c 013e 7361 a2be 354c 163e 33d8 36bd
00000270: 3948 323d 5cc6 88bd dec5 653d 8d59 b2bd
00000280: 3969 97be bee3 d8bb 4505 7b3e 98d5 cdbe
00000290: 295d 75be 26cf 4a3c 712b 9dbe e5e3 16bf
000002a0: 1e19 f6bc 2f08 b4be e69e 4b3e 4bda 313e
000002b0: dd28 0d3e 2519 14be 0abb 88bd ca2e 4c3e
000002c0: ea06 60be d701 533e a7cb 13bf 59de 6a3e
000002d0: cbde 70be 7762 84be 0ca6 6fbe 1f40 f3bd
000002e0: c5a6 d9be b752 2dbe f0b3 fcbd b7cf 01be
000002f0: 10d5 933e be8d 583e 79cb a9bd 371d 563d
00000300: 909f d5bd 63ea ec3d 5d02 a0be eb78 6bbe
00000310: 93b0 22be bcb6 27bd 7d88 12be f94a a2be
00000320: 2a36 85be be80 903d f3b6 e73d f399 ff3d
00000330: ea72 923e d1ba acbe 075c c1be 405f acbe
00000340: fc17 19be bddb c8be 718d 4f3d 4773 223e
00000350: 44a2 95be 70c2 933e 7903 93be aaf4 503e
00000360: fd46 fdbe 58a4 853e a26d 92be 6518 aa3e
00000370: 204b f7be a161 1fbf 5332 ac3d 639d 95be
00000380: 350d a2be 3321 3d3c 5440 79be a34e 04bf
00000390: e872 3abe ae6b 8bbd 49c4 81be dcb5 f2bd
000003a0: e654 25be e8ec 98bd 2a6c 14bd 11dd b73d
000003b0: 4069 0cbe f96f 803e 8e91 14be cdd8 5bbd
000003c0: 919b e1bd 6ca4 92bd f968 b3bc 2fe7 85be
000003d0: 5303 d63e 2c73 d7bd 328c 59be 9ea1 88be
000003e0: fa25 2cbf 1def 0fbe a04f e2bd b137 34bd
000003f0: f9aa a73d 02b8 753d 95fb 85b8 8fdb 68be

model.6.weight f4 [8, 256]
-0.18369982 -0.50253123 0.07912007 0.17940766 -0.32590902 -0.047090467 -0.22640207 -0.006936762
0.1965589 -0.2248559 -0.2852078 0.095450014 -0.0077695833 -0.040215246 0.029083157 0.03775101
0.3429931 -0.2996104 -0.12023139 -0.1114081 -0.15723985 0.46222785 -0.029421426 -0.25745243
0.064140715 -0.235595 -0.2918724 0.15632495 -0.05943299 0.16678104 0.03409863 0.080456346
0.089606516 0.4339297 0.10160742 0.31949148 0.06471632 0.2203874 0.21857797 0.22851133
0.04784807 -0.004892489 0.49803963 -0.052583784 -0.009643271 0.24825136 -0.14602312 -0.021968517
0.7263066 0.13999137 -0.6158065 -0.036361147 -0.07519754 0.03623071 -0.06426638 -0.07858547
-0.38958272 -0.09516472 0.14965628 0.21165724 -0.29247558 -0.47430983 -0.1729567 -0.099554844
-0.18626341 -0.054950226 0.07500637 -0.06743779 -0.03876998 -0.008095879 -0.0008158648 -0.1876209
0.1192359 -0.42060044 0.10560099 0.27757898 0.059853405 0.10590694 0.057509344 -0.05777847
-0.1745609 -0.31521827 0.03144859 0.14411701 6.9175086 -0.30313882 0.1752752 -0.36404118
-0.115132116 0.1408774 -0.049962547 -0.13000296 -0.3832113 -0.01430447 0.012604357 -0.06747241
-0.3627508 0.18536244 0.07213889 0.90178084 0.92258 -0.31124687 -0.07864847 0.116788164
6.5125995 0.19779104 0.004168596 0.15082319 0.0076403096 -0.22234236 0.41488743 -0.20025072
0.033631854 0.010865196 0.18992162 -0.24223533 0.023238858 0.68818516 -0.05233142 0.07256283
-0.005378389 0.107744925 0.01656699 -0.45237213 0.059403192 -0.4646068 -0.047368273 0.23608598
-0.123118736 0.18893284 0.0055905865 -0.4677899 -0.34239316 -0.14763513 -0.41207245 -0.48436084
0.2693794 -0.17580597 -0.0023166183 0.15519644 0.15112899 -0.07300694 -0.10922302 -0.6127118
-0.08293741 0.001412131 -0.18218665 0.3723896 0.07063431 0.02722434 -0.07718184 0.49766564
-0.23926184 0.44771767 0.29533428 0.13628413 0.30874595 0.05053724 -0.06741848 0.21939257
-0.31909242 -0.22491899 0.38616705 -0.14646393 -0.43590832 -0.4854101 0.15163621 0.11705575
0.2103638 -0.3267081 -0.14145462 -0.12974265 0.037177302 0.06487377 0.034234527 -0.12661327
-0.046113312 0.10443471 0.04351179 0.37332696 -0.21331492 0.28570804 0.03839059 0.21182035
0.36267728 -0.021007556 0.055367507 0.11743873 0.002634378 0.28506538 -0.19952027 -0.101623766
-0.0054480904 -0.054268092 -0.07841314 -0.33555952 0.05118977 -0.15608858 -0.10641569 0.4759959
-0.19613403 0.653531 0.010927919 0.37536582 -0.48231566 -7.7450423 -0.26093474 0.22020248
-0.018327443 -0.5118982 -0.15194377 0.15935045 -0.20660801 -0.13958926 -0.22505282 0.34006736
-0.4443483 -0.25042155 -0.12323115 0.19837078 0.10662116 -0.0147830695 -0.09489655 -0.17214179
0.14890829 -0.6271722 0.015846757 0.08958784 -0.22166367 0.22607955 0.3092749 0.028616738
-1.1928486 -0.027950164 -0.13061078 0.17272606 -0.038836777 0.12774624 -0.19044235 0.13496812
-0.07675084 -0.41005528 -0.002012725 -0.06195803 -0.7259121 0.3165921 -0.014952888 -0.3992897
0.014668721 0.34943905 -0.10733962 -0.16803372 -0.073506035 0.27741835 -0.1387501 0.07109107
00000000: ce1b 3cbe e3a5 00bf b409 a23d a4b6 373e
00000010: 8cdd a6be efe1 40bd f2d5 67be c74d e3bb
00000020: bc46 493e a040 66be c206 92be 4c7b c33d
00000030: fd97 febb beb8 24bd cd3f ee3c cea0 1a3d
00000040: cb9c af3e 8966 99be e03b f6bd ee29 e4bd
00000050: 7c03 21be 21a9 ec3e 3405 f1bc ced0 83be
00000060: 355c 833d d13f 71be 4d70 95be a613 203e
00000070: 0270 73bd a6c8 2a3e 01ab 0b3d 4cc6 a43d
00000080: 9f83 b73d 092c de3e 8d17 d03d 6394 a33e
00000090: fd89 843d 3cad 613e e7d2 5f3e e0fe 693e
000000a0: 56fc 433d 2c51 a0bb 0dff fe3e 1862 57bd
000000b0: cffe 1dbc 9b35 7e3e 1687 15be 52f7 b3bc
000000c0: 3bef 393f e659 0f3e 7fa5 1dbf 6def 14bd
000000d0: 2b01 9abd a766 143d 189e 83bd 6bf1 a0bd
000000e0: 6377 c7be b9e5 c2bd 7f3f 193e adbc 583e
000000f0: 5cbf 95be bdd8 f2be 901b 31be 69e3 cbbd
00000100: d6bb 3ebe 7d13 61bd f19c 993d d31c 8abd
00000110: 45cd 1ebd 94a4 04bc c3df 55ba b11f 40be
00000120: f431 f43d f158 d7be 5545 d83d d51e 8e3e
00000130: d828 753d bde5 d83d eb8e 6b3d 1ea9 6cbd
00000140: 18c0 32be 4a64 a1be 3dd0 003d 6993 133e
00000150: 3b5c dd40 0335 9bbe 587b 333e 9b63 babe
00000160: 63ca ebbd 2a42 103e 87a5 4cbd 7f1f 05be
00000170: 4634 c4be 4c5d 6abc 8182 4e3c fa2e 8abd
00000180: 79ba b9be a7cf 3d3e 8ebd 933d 1cdb 663f
00000190: 342e 6c3f c05b 9fbe 7312 a1bd a22e ef3d
000001a0: 3767 d040 bc89 4a3e b898 883b 6571 1a3e
000001b0: 905b fa3b b7ad 63be 206c d43e 860e 4dbe
000001c0: 8ec1 093d ef03 323c d07a 423e 8a0c 78be
000001d0: 6b5f be3c e72c 303f 7959 56bd d29b 943d
000001e0: 323d b0bb 5fa9 dc3d 7fb7 873c 529d e7be
000001f0: c350 733d f1e0 edbe 3c05 42bd 86c0 713e
00000200: ad25 fcbd 9c77 413e 3d31 b73b 2882 efbe
00000210: 284e afbe aa2d 17be 29fb d2be 25fe f7be
00000220: 19ec 893e 7b06 34be 68d2 17bb d1eb 1e3e
00000230: 8fc1 1a3e aa84 95bd 52b0 dfbd aeda 1cbf
00000240: 17db a9bd 4117 b93a 238f 3abe daa9 be3e
00000250: b9a8 903d 9405 df3c 8311 9ebd 08ce fe3e
00000260: 0e01 75be 403b e53e 0e36 973e 118e 0b3e
00000270: f313 9e3e 2300 4f3d b312 8abd 72a8 603e
00000280: 1560 a3be 2a51 66be b0b7 c53e a4fa 15be
00000290: 602f dfbe ac87 f8be 8646 1b3e edba ef3d
000002a0: 9c69 573e 4946 a7be 7bd9 10be 42db 04be
000002b0: 3a47 183d 8adc 843d 8139 0c3d e9a6 01be
000002c0: 50e1 3cbd dee1 d53d 6b39 323d b624 bf3e
000002d0: 3a6f 5abe 5348 923e 743f 1d3d 6fe7 583e
000002e0: d6b0 b93e 0a18 acbc 0ac9 623d b883 f03d
000002f0: 87a5 2c3b 17f4 913e 0b4f 4cbe 1f20 d0bd
00000300: e585 b2bb 3848 5ebd 1197 a0bd 75ce abbe
00000310: 5dac 513d afd5 1fbe 78f0 d9bd bcb5 f33e
00000320: 5cd7 48be cf4d 273f 040b 333c f32f c03e
00000330: 14f2 f6be 63d7 f7c0 3d99 85be c27c 613e
00000340: 6f23 96bc c30b 03bf 2697 1bbe c42c 233e
00000350: 0d91 53be 7df0 0ebe 3f74 66be 4f1d ae3e
00000360: 9f81 e3be 4137 80be 9d60 fcbd b621 4b3e
00000370: 325c da3d b034 72bc 1f59 c2bd f045 30be
00000380: 6a7b 183e 5b8e 20bf 0fd1 813c d479 b73d
00000390: cdfb 62be 6681 673e 4859 9e3e a66d ea3c
000003a0: 43af 98bf bef7 e4bc d5be 05be 1adf 303e
000003b0: 5013 1fbd e9cf 023e 5203 43be 1535 0a3e
000003c0: 8b2f 9dbd c4f2 d1be ece7 03bb b4c7 7dbd
000003d0: 60d5 39bf 5c18 a23e f5fc 74bc b36f ccbe
000003e0: 1355 703c ade9 b23e e0d4 dbbd 0811 2cbe
000003f0: 558a 96bd c709 8e3e 8214 0ebe 3298 913d

model.6.bias f4 [8]
0.10133056 -0.45426378 -0.17154457 -0.19579759 -0.010465317 0.065891184 -0.117397 0.030932518
00000000: 6686 cf3d 4395 e8be 61a9 2fbe 2a7f 48be
00000010: b976 2bbc f5f1 863d d76d f0bd 3166 fd3c
