models/info_gathering/info_gathering_discriminator.pt (torch, 177185 bytes, 7 tensors)

model.0.weight f4 [256, 8]
0	0xbed735ed	-0.4203333
1	0xbe3da98d	-0.1852171
2	0xbe3d31a2	-0.18475965
3	0xbe85025f	-0.25978372
4	0x3c5bebb5	0.013422896
5	0xbd2a2628	-0.041540295
6	0x3da86ee2	0.08224274
7	0xbcbff18d	-0.02343061
8	0xbf1edb5f	-0.62053484
9	0x3c7c2f35	0.015392114
10	0xbbe62ce4	-0.0070243943
11	0x3c18d780	0.009328723
12	0xba2b7ece	-0.00065420277
13	0xbabe5231	-0.0014520345
14	0xbbbdd9d1	-0.005793788
15	0x3aab6618	0.0013076691
16	0x3e5422b7	0.20716368
17	0xbe813606	-0.2523653
18	0x3ea059d6	0.3131854
19	0x3d78c9dc	0.060739383
20	0xbe39c10d	-0.1814005
21	0x3e52c631	0.20583417
22	0x3df12ad6	0.117757484
23	0x3d6f2a53	0.058389973
24	0xbe837190	-0.2567258
25	0xbea52afe	-0.32259363
26	0x3e2b70de	0.16742274
27	0xbe964dbe	-0.29356188
28	0x3eb530b3	0.35388717
29	0xbb38836b	-0.0028154503
30	0x3b2683f3	0.0025408238
31	0x3d3274f7	0.043568578
32	0x3eb01ed3	0.34398517
33	0x3ead5b47	0.33858702
34	0x3ed7a2ff	0.42116544
35	0xbebb0a8f	-0.36531493
36	0xbe0b0da4	-0.13579422
37	0x3deafd80	0.114741325
38	0xbaa12c13	-0.001229646
39	0x3d80271c	0.062574595
40	0x3e03443c	0.12818998
41	0x3e2a2152	0.16614273
42	0xbefd1c1a	-0.49435502
43	0xbdd617b7	-0.10453742
44	0x3d0db2e9	0.03459445
45	0x3dc122b1	0.09430445
46	0x3e102036	0.14074787
47	0xbca4be2c	-0.020110212
48	0x3db56dd5	0.088588394
49	0xbbe2d255	-0.006922046
50	0x3f0a756a	0.5408541
51	0x3ef3526f	0.4752383
52	0x3df68658	0.12037343
53	0x3e52f8a3	0.2060266
54	0xbc15fa7d	-0.009153959
55	0xbd952506	-0.07282452
56	0x3ee5eb24	0.4490596
57	0x3debe40d	0.115181066
58	0x3e82afcc	0.25524747
59	0xbda22961	-0.07918049
60	0x3d305d14	0.043057516
61	0x3e580410	0.210953
62	0xbd80cbca	-0.0628887
63	0xbd3eda2c	-0.046594784
64	0x3d725859	0.059166286
65	0xbf28b4c5	-0.6590083
66	0xbd4e5fa4	-0.05038418
67	0xbe0454cf	-0.12922977
68	0xbd34caa9	-0.044138584
69	0xbde7af3c	-0.1131272
70	0xbd9ec840	-0.077530384
71	0xbd99e026	-0.07513456
72	0x3f1f4975	0.6222146
73	0xbe8251ef	-0.25453135
74	0xbda7e0ae	-0.08197151
75	0x3d9371ce	0.07199441
76	0x3dc6164e	0.09672223
77	0xbe4dfabb	-0.20115177
78	0x3cce76fc	0.02520322
79	0xbe11b3f9	-0.1422881
80	0x3d531e75	0.051542718
81	0xbeadabef	-0.33920237
82	0xbee0d477	-0.43912098
83	0x3e6b441e	0.22975203
84	0x3e46a8b5	0.19400294
85	0xbdb1ba9a	-0.086781695
86	0xbc25c4ca	-0.010117719
87	0xbd8e70d3	-0.06955113
88	0x3bea9136	0.007158424
89	0x3dda0dc5	0.106471576
90	0x3f4fe985	0.812157
91	0x3d279b57	0.040919628
92	0xbd8c1a39	-0.06840939
93	0xbbd5d9db	-0.0065262145
94	0x3ca175c1	0.01970947
95	0xbc33d39c	-0.010975745
96	0xbeb0d486	-0.34537143
97	0x3d65e514	0.05612667
98	0x3e23d3aa	0.15998712
99	0xbe5b15f9	-0.213951
100	0xbe8e1a02	-0.27754217
101	0xbe38a86e	-0.18033001
102	0x3dd55d9d	0.10418246
103	0xbd88ddb0	-0.066829085
104	0xbe99b47c	-0.3002051
105	0xbebe3a05	-0.3715364
106	0xbe8e92d7	-0.27846405
107	0x3e8c5881	0.27411273
108	0xbe6379e8	-0.22214472
109	0xbde91e06	-0.1138268
110	0x3d800334	0.06250611
111	0xbc6c5d51	-0.014426545
112	0x3f46ed80	0.77706146
113	0x3d2014dd	0.039082397
114	0xbda8ca24	-0.0824168
115	0x3d7c2aa6	0.06156411
116	0x3d814a9b	0.06313058
117	0xbd84dc49	-0.064873286
118	0xbd82944d	-0.063759424
119	0xbd887ea6	-0.06664781
120	0xbc1f8917	-0.009737275
121	0x3f26cf6b	0.65160245
122	0x3deac1a8	0.11462718
123	0xbdab88ac	-0.083756775
124	0xbe0737e8	-0.1320492
125	0x3d4d271f	0.050086137
126	0x3e5c9244	0.21540171
127	0xbd825024	-0.06362942
128	0xbe4af8c6	-0.19821462
129	0xbf20337f	-0.62578577
130	0xbd516ccc	-0.051129147
131	0x3e425667	0.18978272
132	0xbe56b349	-0.2096683
133	0x3dfd9b93	0.12383189
134	0x3d21622e	0.039400272
135	0xbdcfa307	-0.10138517
136	0x3eabf960	0.33588696
137	0xbea27d03	-0.31736
138	0xbe95958f	-0.29215667
139	0x3e9570ec	0.29187715
140	0x3da94a6d	0.08266149
141	0x3cd2fafd	0.025754446
142	0xbc5220e5	-0.0128252255
143	0xbd7f88b6	-0.062386237
144	0x3e983cfc	0.29734027
145	0x3cdd357d	0.027003044
146	0xbd48b7f0	-0.04900354
147	0xbdb151fb	-0.08658215
148	0xbc10dcfc	-0.008841749
149	0x3e7eb26d	0.24872752
150	0x3d9c01b0	0.07617509
151	0x3d095508	0.033528358
152	0x3cd3b6d5	0.025844017
153	0xbdf29a6c	-0.1184586
154	0xbec8c7e3	-0.39215
155	0x3d54c1f7	0.05194279
156	0xbeb6ffee	-0.35742134
157	0x3d373323	0.044726502
158	0x3d86ee9e	0.06588481
159	0xbd5add88	-0.053433925
160	0xbe531f8e	-0.20617506
161	0xbed36708	-0.41289544
162	0x3e9e3ca7	0.3090565
163	0x3e3f277b	0.18667404
164	0x3e6c9c6d	0.23106547
165	0x3c2ed5ae	0.010671062
166	0x3dd77406	0.105201766
167	0x3d7231f8	0.059129685
168	0x3e2e561f	0.1702504
169	0xbe1c9567	-0.15291367
170	0x3eecf4f3	0.4628063
171	0xbe088daf	-0.13335298
172	0x3eed5c85	0.4635965
173	0x3df34645	0.11878637
174	0xbc90a2ba	-0.01765572
175	0xbe012119	-0.12610282
176	0x3d8cb986	0.06871323
177	0xbebea144	-0.3723241
178	0xbe8e2191	-0.27759984
179	0xbe827134	-0.25476992
180	0xbdb38cb0	-0.087670684
181	0x3d969e6b	0.073544346
182	0x3e800605	0.25004593
183	0xbcbf9cee	-0.02339026
184	0x3f0faca5	0.5612281
185	0x3e5c109a	0.21490708
186	0xbcce42f6	-0.025178414
187	0xbe271394	-0.16316062
188	0x3da22c39	0.07918591
189	0x3bacdcd4	0.005275348
190	0x3e30d06b	0.17267005
191	0xbe4a3aa4	-0.19748932
192	0xbeac6623	-0.33671674
193	0x3eb22d20	0.34800053
194	0x3e09c04e	0.13452265
195	0x3ec94fd4	0.39318717
196	0xbe01da47	-0.12680922
197	0xbd949c19	-0.07256336
198	0x3da44267	0.08020478
199	0xbc491bdd	-0.0122747095
200	0x3e22d8eb	0.1590306
201	0x3da2cbd4	0.079490334
202	0x3e7e2a52	0.24820831
203	0xbb896b1e	-0.0041936776
204	0x3dda874e	0.106703386
205	0xbe3c5ee2	-0.1839557
206	0x3e22684c	0.15860099
207	0x3dbe93cd	0.093055345
208	0xbe2b886e	-0.16751263
209	0x3e9338d9	0.2875431
210	0xbe6dc8e5	-0.23221166
211	0xbee34a42	-0.44392592
212	0xbe388732	-0.18020323
213	0x3dd061fe	0.101749405
214	0xbd37d15e	-0.044877402
215	0x3c08b80d	0.008344662
216	0x3dcf5264	0.10123137
217	0x3e8f3110	0.2796712
218	0xbed95508	-0.42447686
219	0xbd2e6a4c	-0.04258184
220	0xbe204155	-0.15649922
221	0x3e2dcd06	0.16972741
222	0x3bd33e10	0.0064466074
223	0xbcf8f28b	-0.030389091
224	0x3ef34955	0.47516885
225	0x3ea533a0	0.3226595
226	0xbed1f11b	-0.4100426
227	0x3ebfd134	0.37464297
228	0xbe972856	-0.2952296
229	0x3e36a58c	0.17836589
230	0xbd62e84a	-0.05539731
231	0x3ccc36e6	0.024928521
232	0xbe14547e	-0.14485356
233	0xbe57bf89	-0.21069159
234	0xbea57a29	-0.32319763
235	0x3d46bd20	0.048520207
236	0xbe119ed3	-0.14220743
237	0xbe2aaad9	-0.16666736
238	0xbcbd7987	-0.023129238
239	0xbdd0fe9d	-0.10204814
240	0xbebaa8fd	-0.36457053
241	0x3e89dc92	0.26926094
242	0x3e3fed85	0.1874295
243	0x3bf48abc	0.0074628275
244	0x3efd1c2d	0.4943556
245	0xbdb3daa4	-0.08781937
246	0x3d28d26a	0.04121629
247	0xbd64b906	-0.055840515
248	0xbf03c985	-0.5147937
249	0x3d725943	0.059167158
250	0x3dd8d8d5	0.105882324
251	0x3f081051	0.53149897
252	0xbe264cba	-0.16240206
253	0xbeaee5e5	-0.3415977
254	0x3d2c930b	0.04213242
255	0x3daa91ce	0.08328591

model.0.bias f4 [256]
0	0x3ed397e7	0.4132683
1	0xbf161020	-0.58618355
2	0x3ecf41ae	0.40479797
3	0xb9beda03	-0.00036402055
4	0x3bcfc08d	0.0063400925
5	0xbe3a2de9	-0.18181576
6	0xbd6200cf	-0.055176552
7	0xbe353567	-0.17696153
8	0xbee58306	-0.44826525
9	0xbee8e360	-0.45485973
10	0xbe290b6d	-0.16508265
11	0xbdf17bd0	-0.117911935
12	0x3e3a1489	0.18171896
13	0x3e03c21f	0.1286702
14	0xbed03816	-0.4066779
15	0xbe9ea53b	-0.30985436
16	0xbea711b7	-0.32630703
17	0x3ec563ee	0.38552803
18	0x3c979266	0.018502425
19	0xbe6abbac	-0.22923154
20	0xbd6dd323	-0.058062684
21	0xbebd8085	-0.37012115
22	0x3e5fc120	0.21851015
23	0xbd8de0d5	-0.06927649
24	0x3e7c310c	0.24628085
25	0x3f309389	0.6897512
26	0xbe35b80a	-0.17745987
27	0x3eb41a83	0.35176477
28	0xbe28d2e2	-0.16486695
29	0x3e7a582f	0.24447702
30	0xbdbf0260	-0.09326625
31	0xbdd1365b	-0.102154456
32	0xbe837bea	-0.25680476
33	0xbe81ea73	-0.25374183
34	0xbed2774a	-0.41106635
35	0x3e4c8b2e	0.19974968
36	0x3edf844c	0.43655622
37	0xbe94c124	-0.29053605
38	0xbd85d49f	-0.06534695
39	0xbea0e80f	-0.31427047
40	0x3ec7bcd6	0.39011258
41	0xbe822094	-0.2541548
42	0xbde4b043	-0.11166432
43	0xbcd19f23	-0.025588578
44	0xbe5aa727	-0.21352826
45	0x3d7eeec7	0.062239435
46	0x3f0894a9	0.5335184
47	0x3f2c1c6d	0.67230874
48	0x3c0b67e3	0.008508655
49	0xbe5f17e2	-0.21786454
50	0x3eec4e37	0.46153423
51	0xbec8b363	-0.3919936
52	0xbe45078b	-0.19241159
53	0x3f017a13	0.50576895
54	0xbcb6cced	-0.022314513
55	0xbee64096	-0.4497115
56	0x3f13b8cf	0.5770387
57	0x3de79b0d	0.113088705
58	0x3f2c6388	0.6733937
59	0xbd973910	-0.07383931
60	0x3edd8f67	0.4327347
61	0x3e76efc0	0.24114895
62	0xbe1b8bec	-0.15190095
63	0x3d8f1f0e	0.06988345
64	0xbdcb9f96	-0.09942548
65	0xbd696c7f	-0.056988236
66	0x3f14bd9d	0.58101827
67	0x3f2dc533	0.6787903
68	0xbde530f2	-0.11190976
69	0xbe152a75	-0.14566977
70	0x3e2f70d6	0.17132887
71	0xbe52458f	-0.20534347
72	0xbd00ae33	-0.03141613
73	0xbe90461a	-0.28178483
74	0x3e325c65	0.17418058
75	0xbd18f880	-0.037346363
76	0xbe8ac31e	-0.27101988
77	0x3edc6395	0.43044725
78	0xbe915ef4	-0.28392756
79	0xbe64d968	-0.22348559
80	0xbc954248	-0.018220082
81	0x3f0a69f0	0.540679
82	0x3f10d2e6	0.56571805
83	0xbed8de3d	-0.42357054
84	0x3e43c0a4	0.19116455
85	0x3ee5f44f	0.44912955
86	0xbe94a26b	-0.29030165
87	0x3f017bb1	0.50579363
88	0xbe31f87a	-0.17379943
89	0x3edb7f3e	0.42870516
90	0xbdc08502	-0.09400369
91	0xbd94a9c0	-0.0725894
92	0xbe6b86e0	-0.2300067
93	0x3e6f258e	0.2335417
94	0x3f47ee0a	0.78097594
95	0xbe0bd963	-0.13657145
96	0xbe95b646	-0.29240626
97	0x3f17d01f	0.5930194
98	0xbe0fd250	-0.14045072
99	0xbd7ac32a	-0.06122128
100	0xbe1de310	-0.15418649
101	0x3ee5ae8a	0.44859725
102	0xbdf4d3fa	-0.11954494
103	0xbdc1d002	-0.094635025
104	0xbd124ffa	-0.035720803
105	0xbedc6f30	-0.4305358
106	0x3e0278ea	0.12741438
107	0xbe8eae34	-0.2786728
108	0x3cc24dd3	0.02371875
109	0x3f192651	0.5982409
110	0xbd8d935b	-0.069128715
111	0xbe99688f	-0.29962584
112	0x3f23ecd9	0.64033276
113	0xbe7e55ae	-0.24837372
114	0x3f21b661	0.63168913
115	0xbe10e61c	-0.1415028
116	0xbe87c9d2	-0.26521164
117	0x3e68a4b4	0.2271908
118	0x3f05283e	0.5201453
119	0xbe3afc89	-0.18260397
120	0x3f03f82e	0.5155057
121	0xbe08d63b	-0.13362972
122	0x3f168b8e	0.58806694
123	0xbede7c30	-0.43454123
124	0xbe9e0ffd	-0.30871573
125	0xbde18adf	-0.11012816
126	0xbee5bfa1	-0.44872764
127	0xbdb4ee8e	-0.08834563
128	0x3f05e212	0.5229808
129	0xbec6ef01	-0.3885422
130	0x3f0dc32b	0.5537593
131	0x3e988c4a	0.29794532
132	0xbe09f7a6	-0.13473377
133	0x3f359016	0.7092298
134	0xbe46a9db	-0.19400732
135	0x3dfbdbb5	0.12297765
136	0xbce63332	-0.028100584
137	0xbed63ed7	-0.41844818
138	0xbe43ce38	-0.19121635
139	0xbe791c6e	-0.24327251
140	0x3e2095c4	0.15682131
141	0x3f390bd4	0.72283673
142	0x3e601046	0.21881208
143	0xbe0c1fa4	-0.13683945
144	0xbda52fdb	-0.08065768
145	0xbee0a5f6	-0.43876618
146	0x3e6b54ba	0.2298154
147	0xbe670f1f	-0.22564362
148	0x3ea706b8	0.32622313
149	0xbdea00c7	-0.114259295
150	0xbe36f219	-0.1786579
151	0xbe696d3e	-0.22795579
152	0x3f06ab60	0.5260525
153	0x3f0d10b7	0.5510363
154	0xbdf62e32	-0.1202053
155	0x3ea57103	0.32312784
156	0x3e0f959b	0.14021914
157	0x3e371617	0.1787952
158	0xbe5fb7b0	-0.21847415
159	0x3efec9d9	0.49763373
160	0xbe80adf1	-0.25132707
161	0x3eb8554e	0.36002582
162	0x3e2f2e81	0.17107584
163	0xbeb70ddb	-0.35752758
164	0x3e826ab7	0.25472042
165	0x3ec8605b	0.39136013
166	0xbe23a216	-0.159798
167	0x3e98be53	0.29832706
168	0x3e2c8890	0.1684897
169	0xbd007b29	-0.031367455
170	0xbe4894f9	-0.19588079
171	0x3f2b11c4	0.66823983
172	0x3e98d999	0.29853514
173	0x3efb8e1d	0.4913186
174	0x3daca365	0.084296025
175	0xbe9c88a4	-0.30573
176	0xbe7a4784	-0.24441344
177	0x3eec3bec	0.46139467
178	0xbe94a6cc	-0.29033506
179	0xbe69549f	-0.22786187
180	0x3f079697	0.52964157
181	0xbe41487f	-0.18875311
182	0xbec4aca7	-0.38412973
183	0x3d2d115d	0.042252887
184	0xbe4fa08f	-0.20276092
185	0xbed5e625	-0.4177715
186	0xbe106557	-0.14101158
187	0xbf04b3e5	-0.51837
188	0x3f2700b7	0.65235466
189	0x3e815946	0.25263423
190	0xbeb02e08	-0.3441012
191	0xbe21444e	-0.15748712
192	0x3ea44af6	0.3208844
193	0xbedda46e	-0.43289512
194	0x3e5cf771	0.21578766
195	0xbee7bd45	-0.4526159
196	0x3efa0ee7	0.48839495
197	0x3f19255f	0.5982265
198	0xbed15481	-0.40884784
199	0x3da8b48b	0.08237561
200	0xbe47b52c	-0.19502705
201	0x3d22a995	0.039712507
202	0x3e67f3dc	0.22651619
203	0x3d839a37	0.064258985
204	0x3ed0c97d	0.40778723
205	0x3f0937bd	0.53600675
206	0x3da487bc	0.08033702
207	0xbeb60063	-0.3554717
208	0xbec5ab9c	-0.3860749
209	0x3f25dc08	0.64788866
210	0x3e697fd3	0.22802667
211	0xbdb7bdc6	-0.08971743
212	0xbd5d0102	-0.05395604
213	0x3efea454	0.49734747
214	0xbe56404c	-0.20922965
215	0xbd7c88e7	-0.061653998
216	0x3ef877bd	0.48528853
217	0x3e68e716	0.22744402
218	0x3ec95589	0.3932307
219	0xbde0b90a	-0.109727934
220	0x3ee60c97	0.4493148
221	0x3e176bac	0.14787167
222	0xbda51b02	-0.08061792
223	0xbdbe36e3	-0.092878126
224	0x3eb51ae7	0.35372087
225	0xbeaf6bc6	-0.34261912
226	0x3dc5aef5	0.09652511
227	0xbf0599f9	-0.5218807
228	0x3f034627	0.5127892
229	0xbe668ac9	-0.2251388
230	0x3d87e869	0.066361256
231	0x3e934d7f	0.28770062
232	0xbe9d51b6	-0.30726403
233	0xbdcdfe2e	-0.100582466
234	0xbe77a1f4	-0.24182874
235	0xbe879288	-0.26478982
236	0x3f1544ee	0.58308303
237	0x3e687507	0.22700892
238	0x3ea54dd7	0.3228595
239	0x3dc1cc39	0.094627805
240	0x3f190608	0.5977483
241	0xbe920d66	-0.28525847
242	0x3ea6e0c9	0.32593372
243	0x3eccd52e	0.40006393
244	0x3eecb62f	0.46232745
245	0xbebd3e4d	-0.36961594
246	0xbde609c8	-0.112323344
247	0x3d9f5d11	0.07781423
248	0x3e2bb2f0	0.16767478
249	0xbd8470aa	-0.064668015
250	0xbe6e50d9	-0.23273028
251	0x3f035a2b	0.5130946
252	0xbec0d206	-0.37660235
253	0xbe229547	-0.15877257
254	0x3f0f8847	0.5606732
255	0xbe66bcf5	-0.22533019

model.2.weight f4 [128, 256]
0	0x3d82a6f4	0.063795
1	0x3d7822bd	0.060580004
2	0x3e08c839	0.13357629
3	0xbd5337e0	-0.05156696
4	0x3d8d4b51	0.06899131
5	0xb90aa6b3	-0.00013222806
6	0xbd788e70	-0.060682714
7	0xbca5faab	-0.02026113
8	0xbc9f6e1f	-0.01946169
9	0xbd083496	-0.033253275
10	0xbd5ca283	-0.05386592
11	0x3d584b79	0.05280635
12	0x3cc9b853	0.024624025
13	0xbcad5d27	-0.021162583
14	0xbd48f564	-0.049062148
15	0x3cb2e504	0.021837719
16	0x3c0048d6	0.007829865
17	0x3d907056	0.070526764
18	0x3cdd5e66	0.027022552
19	0x3cb4c0b4	0.022064544
20	0x3c9fdbea	0.019514043
21	0xbe1717a9	-0.1475512
22	0x3d2190c6	0.039444707
23	0xbd67d3eb	-0.056598585
24	0x3db3f68e	0.08787261
25	0xbc247808	-0.010038383
26	0x3d3e1913	0.04641063
27	0xbb8e9ceb	-0.004352202
28	0x3dcb8645	0.09937719
29	0xbcfd76e9	-0.03094049
30	0xbe07665f	-0.13222645
31	0x3db426f0	0.08796489
32	0x3d2873e2	0.04112614
33	0xbd2cb39c	-0.042163476
34	0xbd1b10ae	-0.037857704
35	0xbdab4375	-0.08362476
36	0x3c6598ac	0.014013451
37	0x3d3724a1	0.044712666
38	0xbcece799	-0.028919028
39	0xbd764417	-0.06012353
40	0x3d7f3f7c	0.062316403
41	0x3d34499d	0.044015516
42	0x3ce23945	0.027615199
43	0xbdb5e367	-0.08881264
44	0xbcb8b299	-0.0225461
45	0x3b90b9ef	0.0044166963
46	0x3dc85d14	0.09783378
47	0x3d02fb91	0.031978194
48	0x3d9cd105	0.07657055
49	0x3d2d7e45	0.042356748
50	0x3d832527	0.064035706
51	0xbce172b4	-0.027520515
52	0x3c85c48a	0.016329069
53	0x3d2b9294	0.041887835
54	0xbd312e43	-0.04325701
55	0xbe726651	-0.23671843
56	0x3de40d8f	0.111353986
57	0x3ddfca38	0.10927242
58	0x3c7c913d	0.015415487
59	0xbdbb023f	-0.09131288
60	0x3d057465	0.032581706
61	0xbda9c7f7	-0.082900934
62	0xbda17261	-0.07883144
63	0x3c2d9db4	0.010596681
64	0xbb099b4f	-0.0020997112
65	0xbe24296b	-0.16031425
66	0x3de9e94c	0.11421451
67	0x3dcc4210	0.09973538
68	0x3d0e4b46	0.034739755
69	0xbda4f8fe	-0.08055304
70	0xbc67c2a2	-0.014145525
71	0x3a8ff989	0.0010984401
72	0xbcaa32e7	-0.020776225
73	0x3d1a324a	0.037645616
74	0x3c3409b6	0.010988643
75	0x3db9066e	0.090344295
76	0x3d4c1c9d	0.049831975
77	0x3dab1d08	0.08355147
78	0x3d2a4604	0.04157068
79	0xbd250cd2	-0.04029543
80	0xbc823d69	-0.015898423
81	0x3d9b447b	0.07581421
82	0x3daed6d8	0.08537072
83	0xbdbc3204	-0.09189227
84	0xbde53a43	-0.11192753
85	0x3dde2a52	0.10847916
86	0x3bd234b6	0.006414975
87	0xbcc6bd6c	-0.024260245
88	0xbd7d61b1	-0.061860744
89	0x3d234e62	0.039869674
90	0x3db5ee01	0.08883286
91	0xbb339f54	-0.00274082
92	0xbde44962	-0.11146809
93	0x3a552ae8	0.00081316987
94	0xbc259b8d	-0.010107887
95	0xbcd788ba	-0.026310313
96	0xbd03409f	-0.03204405
97	0x3dcce259	0.1000411
98	0x3d0c0c7e	0.0341916
99	0x3dc8ac81	0.097985275
100	0xbd399098	-0.04530391
101	0x3babd5ed	0.005244008
102	0xbd84e57f	-0.064890854
103	0x3ce0294e	0.027363446
104	0x3dbdb862	0.09263684
105	0xbe8d2206	-0.2756502
106	0x3d32b65f	0.043630954
107	0xbd049d8f	-0.032376822
108	0xbc0ab56b	-0.008466105
109	0x3dd27c33	0.10277595
110	0xbcc89619	-0.024485635
111	0xbe6c61e6	-0.2308422
112	0x3dcf619c	0.101260394
113	0x3c8581c4	0.016297229
114	0x3dab6826	0.08369474
115	0x3d4c8ae5	0.049937148
116	0xbc0a17ff	-0.008428573
117	0x3d9068f8	0.07051271
118	0x3d9c1b75	0.076224245
119	0xbb802e89	-0.0039117974
120	0xbc4f36a4	-0.012647305
121	0x3cd25605	0.025675783
122	0x3d51bd01	0.05120564
123	0x3da72c85	0.08162788
124	0xbc13dd51	-0.009024934
125	0xbe801b7b	-0.25020966
126	0x3cce3167	0.025170041
127	0x3cd9edaa	0.026602585
128	0x3d114226	0.035463475
129	0x3cb2ae59	0.021811651
130	0x3cd8c570	0.026461333
131	0x3d8db6af	0.0691961
132	0xbe72ee66	-0.23723754
133	0xbd737ab0	-0.059443176
134	0x3ca77d27	0.02044542
135	0xbd199683	-0.037497055
136	0xbd0c9776	-0.034324132
137	0x3da51df4	0.08062354
138	0x3ca969b9	0.020680295
139	0x3cf2aa7b	0.029622307
140	0x3c8c0144	0.017090447
141	0x3d5f0c14	0.054454878
142	0x3d9d81a6	0.07690744
143	0x3da41784	0.08012298
144	0x3d9993ac	0.07498869
145	0xbe117eb7	-0.14208494
146	0x3d4cab4a	0.04996804
147	0xbd84172b	-0.064497314
148	0x3b1b2fd4	0.002367963
149	0x3d459f46	0.048247598
150	0xbd21e128	-0.039521366
151	0xbe82fc48	-0.255831
152	0xbd99dc5d	-0.07512734
153	0x3d268bcb	0.04066066
154	0x3d88b595	0.06675259
155	0x3d8d86d9	0.06910486
156	0xbc281eec	-0.010261279
157	0x3d2048f9	0.039132092
158	0xbd57fe97	-0.05273303
159	0x3de34688	0.11097437
160	0xbd2fa37b	-0.042880516
161	0x3d1cdfe5	0.03829946
162	0x3d1c3683	0.038137924
163	0xbdb0db62	-0.08635594
164	0x3de1de38	0.11028713
165	0x3cf1a3af	0.029496996
166	0xbdc529b0	-0.09627092
167	0xbd0ab468	-0.033863455
168	0x3ccdbae0	0.025113523
169	0xbe320132	-0.17383268
170	0x3d91d5b0	0.07120836
171	0x3d700b8d	0.058604766
172	0x3d1bbf58	0.038024276
173	0x3d77f5f5	0.060537297
174	0xbd9bd89e	-0.07609676
175	0xbd08881b	-0.033332925
176	0x3d883ebc	0.06652591
177	0x3c65514c	0.0139964335
178	0xbd9c4561	-0.076304205
179	0xbd4cebec	-0.05002968
180	0x3d83f008	0.06442267
181	0x3ca804a7	0.02051003
182	0x3c5e693d	0.013574895
183	0xbb2e140e	-0.0026562246
184	0xbcb2de44	-0.0218345
185	0x3d992430	0.07477605
186	0x3d971d6d	0.073786594
187	0xbd61fbbc	-0.055171713
188	0x3df51d0c	0.11968431
189	0x3e0bc645	0.13649853
190	0x3c5a2ad5	0.013315876
191	0x3dacf76d	0.0844563
192	0x3e05dbe3	0.13072161
193	0xbcb49af1	-0.022046538
194	0x3bd163d4	0.0063900743
195	0xbca65676	-0.0203049
196	0xbce11b32	-0.027478788
197	0x3e039647	0.12850295
198	0xbb0be9c3	-0.002134905
199	0x3dd36119	0.10321254
200	0x3d879f0d	0.066221334
201	0x3dd94cf5	0.106103815
202	0x3c649d91	0.013953582
203	0xbceb6ab0	-0.028737396
204	0x3dbc0fa7	0.09182673
205	0x3d4915e7	0.049093153
206	0xbb9e97d6	-0.0048398776
207	0xbd93bc7b	-0.07213684
208	0xbd7bc371	-0.061465684
209	0x3dc4bbf8	0.09606165
210	0xbcc83e16	-0.024443667
211	0xbd3bfc57	-0.045894947
212	0xbd7a5077	-0.061111894
213	0x3a6e0a4b	0.0009080513
214	0xbda61c7f	-0.08110904
215	0xbc4bef92	-0.012447255
216	0x3d3da64f	0.046301182
217	0xbd0a8de1	-0.033826713
218	0xbc982ebe	-0.018576976
219	0x3dd5b7af	0.104354255
220	0x3d680179	0.05664203
221	0x3d9a556a	0.07535823
222	0x3d2697e4	0.040672198
223	0xbe0d504c	-0.13800162
224	0x3d184ff8	0.03718564
225	0xbcfc077b	-0.030765286
226	0xbe1a9e6b	-0.15099494
227	0x3dabb2aa	0.08383687
228	0xbd05f700	-0.03270626
229	0x3d6d672d	0.057959724
230	0x3bcbfdb3	0.0062253117
231	0xbd61c481	-0.05511904
232	0xbd2c96d8	-0.042136043
233	0xbd586cc9	-0.05283812
234	0xbda53132	-0.08066024
235	0xbd1be15b	-0.038056713
236	0x3d74a1b1	0.059724513
237	0x3d2bdc14	0.04195793
238	0x3e0415c0	0.12898922
239	0x3dd5b2fe	0.10434531
240	0x3da9eef8	0.08297533
241	0x3d0273cd	0.031848717
242	0x3cd96466	0.026537132
243	0x3ca5fb0d	0.020261312
244	0x3caa36a8	0.020778015
245	0x3d5fd576	0.05464693
246	0x3b7fe92a	0.0039048889
247	0x3c69c871	0.01426898
248	0x3d0c5225	0.034258027
249	0x3d1ca30a	0.038241424
250	0xbdaba811	-0.083816655
251	0x3d8aa6ab	0.06770071
252	0xbd5152bc	-0.051104292
253	0x3d90a119	0.07061977
254	0xbd9a2359	-0.07526273
255	0xbd33ef46	-0.04392936

model.2.bias f4 [128]
0	0x3d11cdeb	0.03559677
1	0x3d3acd96	0.04560622
2	0xbc5d2489	-0.01349748
3	0x3d05ffe1	0.03271473
4	0xbd9b5ed2	-0.07586445
5	0x3cd9eb7c	0.026601546
6	0x3c0537f7	0.008131019
7	0x3cb6f02a	0.022331316
8	0x3c3e436f	0.011612757
9	0x3dd83c4a	0.10558374
10	0x3df0d818	0.117599666
11	0xbe0cc41f	-0.1374669
12	0x3dc2b88c	0.09507856
13	0x3c02fb5d	0.0079945
14	0x3daa901c	0.08328268
15	0x3d269b1a	0.04067526
16	0x3ad9a7f0	0.0016605835
17	0xbc4aacb8	-0.012370281
18	0x3e7ba4d9	0.24574603
19	0xbd8de021	-0.06927515
20	0xbdf626a7	-0.12019091
21	0x3c73f32c	0.01488952
22	0xbda972d2	-0.08273853
23	0xbd5ac138	-0.053406924
24	0xbdc7d303	-0.09757044
25	0xbe07e1e8	-0.1326977
26	0x3e2ef0f4	0.17084104
27	0x3da1bf98	0.07897872
28	0xbdc3289a	-0.095292285
29	0x3d17d88a	0.037071742
30	0x3d0db44f	0.034595784
31	0x3cdd9e39	0.027052986
32	0x3c90f52d	0.017695034
33	0xbc8ebc6b	-0.017423829
34	0xbd2f742e	-0.042835407
35	0x3cb1758f	0.021662502
36	0x3dc1aa99	0.09456367
37	0xbe162102	-0.14661029
38	0x3d04db74	0.03243585
39	0xba71dc62	-0.000922626
40	0xbcd30067	-0.025757028
41	0xbce19044	-0.027534612
42	0x3de0964a	0.10966165
43	0x3da69b1b	0.08135053
44	0xbd7df6db	-0.062002998
45	0xbcd53341	-0.026025416
46	0xbc389648	-0.011266299
47	0xbc1dda89	-0.009634622
48	0x3dde23db	0.10846683
49	0xbd6de075	-0.058075387
50	0x3d06545f	0.032795306
51	0x3cbfc25b	0.023408106
52	0x3d0adc5c	0.033901557
53	0xbd712ce7	-0.058880713
54	0xbc54fd62	-0.012999864
55	0xbd2d3898	-0.0422903
56	0xbd2e00be	-0.042481177
57	0xbd722728	-0.059119374
58	0xbe134225	-0.14380701
59	0x3d881a41	0.066456325
60	0xbdb8d2c0	-0.09024572
61	0xbbb1cb59	-0.0054258523
62	0x3d993c06	0.07482152
63	0xbbb4e710	-0.005520709
64	0xbd186ab5	-0.03721114
65	0xbe392db7	-0.18083845
66	0xbe22b2dc	-0.15888542
67	0xbde2e3ea	-0.110786274
68	0xbdb00587	-0.08594804
69	0x3bf67588	0.007521335
70	0x3d9d1e1c	0.076717585
71	0x3c40bc95	0.011763711
72	0xbc3f7dd6	-0.0116877165
73	0x3d09fabc	0.033686385
74	0xbde7abca	-0.11312063
75	0x3d7d8623	0.0618955
76	0xbdf5bb0c	-0.11998567
77	0x3d97afa1	0.074065454
78	0x3cbf5734	0.023357011
79	0x3c08ce9b	0.00835004
80	0xbc92af81	-0.017905952
81	0xbdd3c891	-0.103409894
82	0x3df3e532	0.1190895
83	0x3d92d828	0.07170135
84	0xbdf268a8	-0.11836368
85	0xbdbf6bf2	-0.09346761
86	0x3dc98776	0.0984029
87	0xbd0d7e43	-0.03454424
88	0x3de40ceb	0.111352764
89	0x3c40aa09	0.01175929
90	0x3dfe880e	0.12428294
91	0x3db2462b	0.0870479
92	0xbd10fb61	-0.035395984
93	0x3dd88eea	0.10574134
94	0xbc2455f2	-0.010030257
95	0x3d6f6756	0.05844816
96	0xbd8fc6de	-0.07020353
97	0xbda3a76f	-0.0799092
98	0xbd44d412	-0.04805381
99	0xbcc2bbe7	-0.02377124
100	0x3d9b5ecd	0.07586441
101	0x3d982d8f	0.074305646
102	0x3d06feab	0.032957714
103	0xbe547c50	-0.20750546
104	0x3cf87ceb	0.030333003
105	0xbce75501	-0.028238775
106	0xbdc4ec6d	-0.09615407
107	0xbc55eea3	-0.013057384
108	0xbc0fa77f	-0.0087679615
109	0xbe3669be	-0.17813775
110	0x3d7abc65	0.061214823
111	0x3d3093c1	0.04310966
112	0x3d724740	0.05914998
113	0xbdf58ecb	-0.11990126
114	0xbd80eb81	-0.06294919
115	0x3cc63ba8	0.024198368
116	0xbd795728	-0.060874134
117	0x3d6dd3a2	0.058063157
118	0x3c530c1d	0.012881306
119	0xbe1ce2e3	-0.15320925
120	0xb98dc9ff	-0.00027044115
121	0xbdb42936	-0.08796923
122	0xbe21418b	-0.15747659
123	0x3ce102ae	0.027467098
124	0x3cdd258c	0.026995443
125	0x3c51c615	0.012803574
126	0xbc2d3834	-0.010572482
127	0x3c8a2b9a	0.016866494

model.4.weight f4 [64, 128]
0	0xbb7693ec	-0.003762479
1	0xbca591ee	-0.020211186
2	0x3d913b1f	0.070913546
3	0x3c488228	0.012238063
4	0x3e8d8999	0.2764404
5	0x3cbde7e6	0.023181867
6	0xbd935341	-0.07193614
7	0x3c2fad3f	0.010722457
8	0x3d45bc5b	0.048275333
9	0xbb166c67	-0.0022952796
10	0xbd6eeef9	-0.05833337
11	0xbe683cfb	-0.22679512
12	0xbaba093b	-0.0014193425
13	0x3dcd8892	0.10035814
14	0xbd8e99d3	-0.069629334
15	0xbd40be1b	-0.0470563
16	0x3d1e94b6	0.03871604
17	0xbdaf07b2	-0.0854639
18	0xbdc4abc3	-0.096030734
19	0xbd730fc7	-0.05934122
20	0xbeaceddd	-0.33775225
21	0xbd9e0859	-0.07716436
22	0xbc42a47b	-0.0118800355
23	0xbe137642	-0.1440058
24	0xbc58ad1a	-0.013224864
25	0xbac86168	-0.0015287818
26	0x3b5d1bcd	0.0033738494
27	0xbe4be398	-0.19911039
28	0x3e417c57	0.18895088
29	0x3d30b03a	0.043136813
30	0xbde5038b	-0.111823164
31	0x3d8c9521	0.068643816
32	0xbd0199fd	-0.031640995
33	0x3b370e75	0.00279322
34	0xbe310598	-0.1728729
35	0xbd8dd893	-0.06926074
36	0x3de258f8	0.11052126
37	0x3d5c16da	0.05373273
38	0x3dab2d51	0.08358253
39	0xbbfdff99	-0.007751417
40	0x3c192375	0.0093468325
41	0xbdd3ad99	-0.103358455
42	0xbcd31332	-0.025765989
43	0x3d643b52	0.055720635
44	0x3d2f2ebc	0.04276918
45	0xbbb6c0c8	-0.0055771805
46	0xbbe61262	-0.0070212344
47	0x3dc0e04f	0.094177835
48	0x3cfbba4f	0.030728487
49	0xbcb99054	-0.022651829
50	0x3d759317	0.05995473
51	0x3d5447f2	0.051826425
52	0x3b65c4a4	0.0035059834
53	0xbc5299b3	-0.012854028
54	0x39c3b1f6	0.0003732589
55	0x3dfa6bac	0.12227568
56	0x3d248b1e	0.040171735
57	0x3d88a0d4	0.066713005
58	0x3deb31ef	0.114841335
59	0x3e0a1e04	0.13488013
60	0xbe1301ca	-0.14356151
61	0xbd9ce1c8	-0.07660252
62	0x3d80f7e0	0.062972784
63	0xbd857833	-0.06517067
64	0xbe92e32b	-0.2868894
65	0xbf4f85c2	-0.81063473
66	0xbf472196	-0.77785623
67	0xbdfde699	-0.12397499
68	0x3d8dbcd0	0.06920779
69	0x3d2ec3ef	0.042667326
70	0xbe169c01	-0.14707948
71	0xbbe3fc25	-0.006957548
72	0xbde4b464	-0.11167219
73	0xba857184	-0.0010180925
74	0xbe2fdc13	-0.17173795
75	0xbd839717	-0.064253025
76	0xbe235b2d	-0.1595275
77	0xbe9204d8	-0.2851932
78	0xbd49607a	-0.049164273
79	0x3d10a1dc	0.03531061
80	0xbb87dfa1	-0.0041465317
81	0x3e0db74d	0.13839455
82	0xbc29ddd7	-0.010367832
83	0xbcc70d56	-0.024298351
84	0xbce1c566	-0.027559947
85	0xbda7fb93	-0.08202281
86	0xbe136888	-0.14395344
87	0xbe0dd2c7	-0.13849936
88	0xbdccd56d	-0.10001645
89	0xbd34c5e4	-0.044134036
90	0xbc8f7865	-0.017513463
91	0xbdf49d0b	-0.11944016
92	0xbddbce98	-0.10732764
93	0xbda8e7a5	-0.08247308
94	0xb9e98903	-0.00044543305
95	0x3d587d2d	0.052853752
96	0x3e1143f2	0.14186075
97	0x3d82fa86	0.0639544
98	0x3e2b0430	0.16700816
99	0x3da6d850	0.08146727
100	0x3dd39559	0.1033122
101	0x3d3eccf3	0.046582174
102	0xbb986995	-0.0046512582
103	0x3dd1466b	0.10218509
104	0xbbf8f06f	-0.0075970213
105	0x3d1de2c7	0.03854635
106	0x3de96b5d	0.11397431
107	0x3d00523e	0.031328432
108	0xbd378788	-0.044806987
109	0xbe0ca2ae	-0.13733932
110	0xbc6651b5	-0.014057566
111	0x3d032e15	0.03202637
112	0x3b20dfe3	0.002454751
113	0x3dba94c6	0.091104075
114	0x3d6e1c76	0.05813261
115	0x3ca9be91	0.020720752
116	0x3cd54e18	0.026038215
117	0xbe8290f9	-0.2550123
118	0x3db18b91	0.08669198
119	0xbe629e11	-0.2213061
120	0xbcdcd08a	-0.026954908
121	0xbe099da8	-0.13439047
122	0x3d898fca	0.06716879
123	0xbdcac233	-0.09900322
124	0xbd12dfb9	-0.03585789
125	0x3dca588f	0.098801725
126	0xbb9fae03	-0.0048730387
127	0xbd355254	-0.044267967
128	0xbd38e62e	-0.04514139
129	0xbcce4353	-0.025178587
130	0xbd8e02ed	-0.06934152
131	0x3dddceb8	0.10830444
132	0xbe1a6f6c	-0.15081567
133	0xbe2370fa	-0.15961066
134	0x3d9d9664	0.076947
135	0x3bba9656	0.005694191
136	0xbe16f6e6	-0.14742622
137	0xbb31df97	-0.0027141327
138	0x3da140f8	0.0787372
139	0x3d0ae848	0.033912927
140	0xbc9171f5	-0.017754534
141	0x3e3891ba	0.1802434
142	0x3d724230	0.059145153
143	0xbd901400	-0.07035065
144	0xbda5db73	-0.08098497
145	0x3cdc3919	0.026882695
146	0x3d1a388e	0.03765159
147	0xbc8630cc	-0.01638069
148	0x3e88fdd2	0.2675615
149	0x3cf54879	0.029941784
150	0xbe878cb6	-0.2647454
151	0xbcb33b7c	-0.02187895
152	0x3a9efa40	0.0012129024
153	0xbe0dad9f	-0.13835762
154	0x3d9926db	0.07478114
155	0xbd6f2474	-0.058384374
156	0xbe67c16b	-0.22632377
157	0x3d4f2e94	0.05058153
158	0x3d8aaa30	0.06770742
159	0x3d216333	0.039401244
160	0x3d4aa7db	0.049476486
161	0x3d6c5f0e	0.05770784
162	0x3de4b145	0.11166624
163	0x3e1f19dd	0.1553721
164	0x3db3350b	0.087503515
165	0xbe849f4c	-0.25902784
166	0xbc86744a	-0.016412873
167	0x3db43acd	0.08800278
168	0x3cd459ef	0.02592179
169	0x3dfe1dc6	0.124080226
170	0xbd648ab5	-0.055796344
171	0x3c090f53	0.00836547
172	0xbe001ef0	-0.12511802
173	0x3d942d0d	0.07235155
174	0x3d03e509	0.032200847
175	0x3c8dcee0	0.01731056
176	0x3e0043ab	0.12525813
177	0xbc9a6109	-0.018845098
178	0xbdc54302	-0.09631921
179	0x3c9cf2f7	0.019158823
180	0x3da44471	0.08020867
181	0xbd78a5c8	-0.060704976
182	0xbbfdaef6	-0.0077418042
183	0xbd94bd57	-0.07262676
184	0xbdcf0d9f	-0.1011002
185	0xbd451815	-0.04811867
186	0xbd621c99	-0.055203054
187	0xbe205472	-0.15657213
188	0x3e078eee	0.13238117
189	0x3d9e5123	0.07730319
190	0xbd8c98b3	-0.068650626
191	0xbccc4bc1	-0.024938466
192	0x3c937907	0.018002046
193	0xbc8b35e4	-0.01699347
194	0x3b938996	0.0045024855
195	0xbe31a445	-0.1734782
196	0xbe86b10b	-0.26306948
197	0xbd044396	-0.032291017
198	0x3d8b4bd4	0.068015724
199	0x3e439ab4	0.19101983
200	0x3dd5870b	0.10426148
201	0xbd0470e9	-0.032334242
202	0x3e49dfa6	0.19714221
203	0x3db75c6d	0.08953176
204	0xbd8685e3	-0.065685056
205	0x3c39e51c	0.011346128
206	0xbdc03b28	-0.09386283
207	0xbd3bb4fc	-0.045826897
208	0x3dbd04a4	0.09229401
209	0xbe11ab50	-0.14225507
210	0x3d311a31	0.04323787
211	0x3db8acbe	0.09017323
212	0xbd017890	-0.031609118
213	0xbd2015e8	-0.03908339
214	0x3ca8103b	0.020515552
215	0x3ce8274f	0.028339056
216	0x3d53d38f	0.05171543
217	0x3ca17e85	0.01971365
218	0x3d4cbb73	0.049983453
219	0x3db4fd13	0.088373326
220	0x3d1ee378	0.03879115
221	0x3db0b2e3	0.0862787
222	0x3dba470e	0.09095584
223	0xbe2abef1	-0.16674401
224	0xbd78a86e	-0.060707502
225	0xbc92acc8	-0.017904654
226	0xbd273513	-0.0408221
227	0xbe25886a	-0.16165319
228	0xbcf22273	-0.029557442
229	0xbda00858	-0.078140914
230	0x3df917e5	0.12162761
231	0xbe381e76	-0.1798037
232	0x3d8be1c9	0.068301745
233	0x3e1479f0	0.1449964
234	0xbdfca8e7	-0.12336903
235	0x3df2f675	0.11863414
236	0x3de63935	0.1124138
237	0xbd53cfe2	-0.051711924
238	0xbce6e49e	-0.028185185
239	0xbd089f85	-0.033355255
240	0x3d8608cc	0.065446466
241	0xbe427a12	-0.18991879
242	0x3e18448e	0.14869902
243	0xba42b712	-0.00074277923
244	0xbdecb16f	-0.1155728
245	0xbcebd48e	-0.028787877
246	0x3ce04295	0.027375499
247	0xbbbf046f	-0.005829386
248	0x3dc19f63	0.09454229
249	0xbd290ed4	-0.041273907
250	0xbdbbf02e	-0.0917667
251	0xbc8da3ec	-0.017290078
252	0xbcd21336	-0.025643926
253	0xbdb6accf	-0.089196794
254	0xbe87fb6f	-0.26559016
255	0xbda3a681	-0.079907425

model.4.bias f4 [64]
0	0x3d85794a	0.06517275
1	0x3df560ea	0.119813755
2	0x3db4f4f1	0.08835781
3	0x3d93c1a7	0.07214671
4	0x3d0f3723	0.03496469
5	0x3d210f0e	0.039320998
6	0x3cb727a6	0.022357773
7	0x3d0c7ef8	0.034300774
8	0xbd9c7dc1	-0.07641173
9	0x3d292b3b	0.041300993
10	0x3d58578c	0.052817866
11	0x3d63c715	0.05560978
12	0x3d3b2245	0.04568698
13	0xbd061a4d	-0.032739926
14	0x3d15e99e	0.036599748
15	0xbd1bc924	-0.03803362
16	0x3dda20e1	0.106508024
17	0x3d817d01	0.06322671
18	0xbd07a222	-0.033113606
19	0x3cafba88	0.02145125
20	0x3d87fdef	0.06640231
21	0xbc96733a	-0.018365491
22	0x3d484783	0.048896324
23	0x3c1e11b4	0.009647775
24	0xbd248988	-0.040170223
25	0xbbc3075e	-0.005951806
26	0x3da8437a	0.08215995
27	0x3dddb5c1	0.108256824
28	0x3d636771	0.05551857
29	0x3e08fac8	0.13376915
30	0xbca10338	-0.019654855
31	0x3b5eae8d	0.0033978552
32	0x3d2329df	0.039834853
33	0x3c7a7e97	0.01528897
34	0x3dcc89fd	0.09987257
35	0x3dd29c5e	0.10283731
36	0xbcef4aed	-0.029210532
37	0x3dd07ff6	0.101806566
38	0xbd34d530	-0.044148624
39	0x3e1202dd	0.14258905
40	0xbd49bf30	-0.049254596
41	0xbd6404fb	-0.055668812
42	0xbcfc8c78	-0.0308287
43	0x3dc8511f	0.097810976
44	0xbbe73cb7	-0.0070567983
45	0xbd7ab58f	-0.061208304
46	0xbcaf850e	-0.02142575
47	0x3de095e9	0.10966093
48	0xbc126a12	-0.008936422
49	0xbcb7df10	-0.022445232
50	0x3c7f185e	0.015569774
51	0xbd8c2416	-0.0684282
52	0x3d36d4c4	0.044636503
53	0x3da51280	0.08060169
54	0x3c30bcad	0.010787171
55	0x3a3c6e54	0.0007188071
56	0x3bea28ae	0.0071459627
57	0x3db3fe99	0.08788795
58	0xbc429925	-0.011877333
59	0xbd6dc35d	-0.05804764
60	0xbcb0e51c	-0.021593623
61	0xbd1bae06	-0.03800776
62	0xbd050439	-0.03247473
63	0x3cd5fd96	0.026121896

model.6.weight f4 [1, 64]
0	0xbf31d8dd	-0.6947153
1	0x3df4ffe1	0.119628675
2	0xbf7cd1a9	-0.98757416
3	0x3e0517ca	0.12997356
4	0x3e0eba43	0.1393824
5	0xbefbc883	-0.49176416
6	0x3e529110	0.2056315
7	0x3e71f3d1	0.23628165
8	0xbf641300	-0.8909149
9	0xbf347bf8	-0.7050166
10	0x3e1d05e8	0.15334284
11	0x3e89af47	0.26891539
12	0x3e684bf3	0.22685222
13	0xbf49d0f7	-0.7883448
14	0xbf4f931c	-0.81083846
15	0x3f04fb6d	0.51946145
16	0x3e1bdac7	0.15220176
17	0x3e2604be	0.16212747
18	0x3e83a064	0.25708306
19	0x3e2ba044	0.16760355
20	0x3e8b9e22	0.27269083
21	0xbf50069e	-0.812601
22	0xbf6dbb96	-0.9286436
23	0x3e78bbb8	0.24290359
24	0xbf27d6fa	-0.65562403
25	0xbf2e088d	-0.679818
26	0x3e76263d	0.24038024
27	0xbf3e2a89	-0.74283653
28	0xbf53ee9b	-0.8278596
29	0x3e6e860b	0.23293321
30	0xbf0c7214	-0.5486157
31	0x3e532160	0.206182
32	0x3e09509c	0.13409656
33	0x3e7bfded	0.24608584
34	0xbf50caa6	-0.81559217
35	0xbf4c03cb	-0.7969329
36	0xbed43d6d	-0.41453114
37	0xbf339834	-0.7015412
38	0x3e3ffa9b	0.18747942
39	0xbf322379	-0.69585377
40	0xbf1f9faf	-0.6235303
41	0x3e1b9f43	0.15197472
42	0x3e65d369	0.22443928
43	0xbe8541c0	-0.26026726
44	0x3e9051c4	0.28187382
45	0xbf038c39	-0.5138584
46	0xbf20d3f0	-0.6282339
47	0xbf570b9d	-0.84002095
48	0xbf388a14	-0.7208569
49	0xbeecf671	-0.4628177
50	0xbf564342	-0.8369638
51	0xbf8b6076	-1.0888813
52	0x3dbc54d7	0.091958694
53	0x3e9a4032	0.30127102
54	0xbf8afbe1	-1.0858117
55	0xbf421530	-0.7581358
56	0x3e8061aa	0.25074512
57	0x3e1a9a1a	0.15097848
58	0x3e26ac2e	0.16276619
59	0x3e56e22c	0.20984715
60	0xbebe046f	-0.37112758
61	0xbf1d9761	-0.6155911
62	0x3e75a1a5	0.23987444
63	0x3e200411	0.15626551
