models/manipulated_content/manipulated_content_discriminator.pt (torch, 177363 bytes, 7 tensors)

model.0.weight f4 [256, 8]
00000000: 4762 423e cb29 8dbc b9ec 1dbd fee5 87bc
00000010: bc5c c83c ea97 ff3b 6d20 e0bc b3e7 63bc
00000020: 6a65 b0bb 2c67 9c3b 6d55 303b 202b ccbc
00000030: 60cf df3a 0714 863c e932 32bd e280 07bc
00000040: 4d5e fabb 795f c3be 0401 883c a3ba a7bc
00000050: ca61 d2bc e6da 8fbc 59d2 fcbb 40b8 e93c
00000060: bf68 143f 92cf 1b3f 0bff 2cbc 57a2 2abd
00000070: 3d49 0cbd 7ded 893c 32a4 0a3c fe3d 243c
00000080: 9a17 96bc 22ce c23b 0b21 5a3c 5932 af3b
00000090: 4d0d f8bb 2143 a83a eac3 6cbc 6312 ec3c
000000a0: 00d0 14bc 2443 4dba 7360 973c 1786 45bc
000000b0: d4f3 dfbc de0d 04be 8d97 ccbb 20f3 0c3d
000000c0: f820 813d 0e3b 1e3e fb7b 0abd 85f6 2d3d
000000d0: 655b c53a 41d7 de3d 65d9 efbc e1ce 85bb
000000e0: 2261 55bf 1127 2ebb 5523 b2bb 3a72 ca3b
000000f0: 2fcc ec3a a90b 19bb 7c7f b8bb b111 b43a
00000100: 5520 573b a19a 8c3a f30b 433f cb95 703e
00000110: 2d58 dbba da75 ddba 93c2 e0b9 b526 6d3b
00000120: 0272 05bd b826 673e 0e92 17bd 39f1 d8bd
00000130: 1554 94bc 2086 16bb 32fa 75bc 7fa3 caba
00000140: ee67 9b3c 0fe7 0b3c 5f57 63bc fdca c7bb
00000150: bcb2 79bc 1227 90bc 31cc 41be eb70 f0bd
00000160: 7aa2 163f 3cd8 073e d48d 053e ac0c 193c
00000170: 884b b7bc 238e bc3c 5e90 c6bb 3a28 a73c
00000180: b73c 2ebd 5779 4e3e a18a 9f3a 5d79 95bc
00000190: d4e8 e5bc 6a3c ab3c d5f2 adbc 7823 a73c
000001a0: 6740 3ebb bf00 6b3d a608 9c3c 3255 42bc
000001b0: d1eb a6bc 2b75 483a 8e41 1dbb 3b94 853c
000001c0: be50 f2bc 32ed f5be b357 6b3d d50d c93a
000001d0: b650 09bd 77ed 1bbc 9784 923c e937 943c
000001e0: d2e4 533b 80b9 40bc 85f8 aebc 29b0 a33b
000001f0: e18c 8e3c d0db d93b 38f8 513a 5887 ba3b
00000200: d534 9cb8 83ca 4539 a924 8eb8 4eaf b1b9
00000210: b32d 193f 06c5 2d3a e01e 7fb9 4e1b 15b9
00000220: 6df0 fcbc 7a4d 663e c0d6 1bb9 7fbb 043c
00000230: 2851 023b f41f 813d 33e3 eabc 2808 043b
00000240: 7301 83bc 4f45 9d3e 9dc7 9d3d 418e b23c
00000250: 3ba2 0b3c f504 ff3c 6699 d23b 1b3b 00bd
00000260: 8c9c 1dbe f350 d33e 4d3d c63c af55 fbbc
00000270: 30d4 9ebd 4f4a 1ebc 639c 7dbc a7c9 4cbc
00000280: 188e 17ba d4ac fa3b 0962 f4bd 1243 d6be
00000290: 1d18 d43a faed d0bb 0c1a b739 6c84 edba
000002a0: 887f 94bc ce99 81be fed6 af3b 7208 febb
000002b0: c9c1 df3b cbc2 5c3b 8892 053a 3ea1 693d
000002c0: d9a4 a6bc be6d 39bf 000a 5c3d ca58 0bbd
000002d0: 34eb aabb 823d a93a 151d d6bb 2855 0c3d
000002e0: 2fc6 d6bc 03aa af3e e723 1dbd 792d 68be
000002f0: 7f78 0bbd ac08 ac3b 3d7f a23b c604 963c
00000300: af80 b4bb 9f22 bebe 7f02 64bd e192 a0bd
00000310: 4a97 2bbc c4a1 50bc 5fae 08bb 99d5 e5ba
00000320: 4626 1dbe dcdb de3d b7be 913e 326e 3ebf
00000330: 90f6 71bc d408 9c3d 0407 553c 1033 b3bd
00000340: 6f41 b13c f843 433d 6cc0 3e3d 7baa eabc
00000350: 6674 03bd b1c3 323c 8546 0bbb e4c1 d4bc
00000360: 3c6a cfbd 23bf 2cbf 78cb 0f3e 7181 1a3c
00000370: 4ab5 08bd 3455 0a3c 53b4 de3c f322 8abc
00000380: 74c3 e13b 4650 f5be 8ffd 243b b338 823c
00000390: d5dc 95bc 87eb a1bc b9ca 6e3a 9f39 f4ba
000003a0: f990 993c e903 05bf 5bda 5d3d b79c acbb
000003b0: 5e8d 803c 43c8 c93c 84c4 3ebc d9b2 f539
000003c0: f6ee abbc c1ff 023d d561 263c 687f d4bc
000003d0: 00b2 923e 9e6b 5fbb 7df8 83bc e129 fa3c
000003e0: 81ae 80bb a6b6 503d 6c71 b438 1fbd dd3b
000003f0: e93f 903e 7a12 963a bc42 993c b5fe c93c
0.18982802 -0.017231843 -0.038555834 -0.016589161 0.024458282 0.007800092 -0.027359212 -0.013910222
-0.0053831832 0.0047730412 0.0026906386 -0.024922907 0.0017075352 0.016366972 -0.043505583 -0.008270474
-0.007640636 -0.38158777 0.016602047 -0.020474738 -0.025681395 -0.017560434 -0.007715505 0.02853024
0.5797233 0.608636 -0.010558854 -0.041658726 -0.034249533 0.016836876 0.008461999 0.010024546
-0.018321801 0.005944983 0.013313542 0.005346578 -0.007569945 0.0012837389 -0.014451006 0.028817361
-0.009082794 -0.0007830134 0.018478608 -0.012055895 -0.027337946 -0.12895915 -0.006243652 0.03441155
0.063051164 0.15452215 -0.033809643 0.042471427 0.0015057145 0.108809 -0.029278466 -0.0040835
-0.8335134 -0.0026573578 -0.005436341 0.0061781676 0.0018066223 -0.0023352897 -0.0056304317 0.0013738183
0.0032825668 0.0010727235 0.7619011 0.23494641 -0.0016734652 -0.0016896084 -0.00042869578 0.0036186401
-0.03257943 0.22573364 -0.037004523 -0.105928846 -0.0181065 -0.0022968128 -0.0150132645 -0.0015460103
0.018970456 0.008538975 -0.013875811 -0.006097196 -0.0152403675 -0.017596755 -0.18925549 -0.117402874
0.5884167 0.1326608 0.13042384 0.0093414 -0.022374883 0.023016995 -0.0060596904 0.020404924
-0.04253837 0.20163475 0.0012172052 -0.018246347 -0.028065123 0.020902831 -0.021233955 0.020402655
-0.0029030086 0.05737376 0.019047093 -0.011861132 -0.020376118 0.0007646854 -0.0023995372 0.016306033
-0.029579517 -0.48032528 0.057456683 0.0015339205 -0.033524238 -0.009517065 0.01788549 0.018093066
0.0032332432 -0.011762977 -0.021358738 0.004995365 0.01740116 0.006648518 0.0008009705 0.0056924038
-7.4485004e-05 0.00018862826 -6.777916e-05 -0.00033890683 0.59835356 0.0006628785 -0.00024330197 -0.00014219919
-0.030876363 0.22490492 -0.00014861953 0.008101343 0.0019884799 0.06304923 -0.02867279 0.0020146463
-0.015991902 0.3071694 0.07704089 0.021796348 0.0085225655 0.031130293 0.006426978 -0.031306367
-0.15391749 0.41272697 0.024199152 -0.030680506 -0.07755315 -0.009661271 -0.01547918 -0.01249925
-0.00057813665 0.0076499972 -0.11932761 -0.41848046 0.0016181503 -0.0063760253 0.00034923886 -0.001812113
-0.018127218 -0.25312656 0.0053662052 -0.0077524716 0.006828521 0.0033685442 0.0005095382 0.05703854
-0.020342277 -0.7243308 0.053720474 -0.034020223 -0.0052160267 0.0012912008 -0.0065342286 0.0342609
-0.026217548 0.34309396 -0.038364317 -0.22673596 -0.03405046 0.005250057 0.0049590156 0.018312823
-0.0055085043 -0.3713579 -0.055666443 -0.07840515 -0.010473082 -0.01273388 -0.0020855886 -0.001753497
-0.15346631 0.108817786 0.28465816 -0.74386895 -0.014768258 0.07618871 0.013002161 -0.08749974
0.021637646 0.047672242 0.046570227 -0.028645745 -0.032093428 0.010910914 -0.002125175 -0.02597136
-0.101276845 -0.6747915 0.14042461 0.009430275 -0.033376016 0.008443166 0.027185595 -0.016862368
0.006889755 -0.47912806 0.0025175547 0.015896177 -0.018293777 -0.019765629 0.00091091875 -0.0018632895
0.018745886 -0.5195909 0.054163318 -0.0052677053 0.01569241 0.024631625 -0.011643533 0.00046863293
-0.020987969 0.031982187 0.010155161 -0.025939658 0.28651428 -0.0034091244 -0.0161097 0.030537548
-0.0039270525 0.050955437 8.604195e-05 0.0067669298 0.2817376 0.0011449598 0.01870858 0.024657587

model.0.bias f4 [256]
00000000: e305 24be 2e34 6cbc e2d5 a7be 478a b2bc
00000010: 7f7f c6bc 2c35 d5bd 4c74 b93d 6f11 4fbf
00000020: 6aa0 07bf cbbb 333e 36ac b9bd ac40 cdbe
00000030: a32a 413e c2be b9bc e90e cabe 4d3a 10bd
00000040: fa37 19bf 67fe babd e3bd c83e ffb2 0e3f
00000050: 1c4e 94be 97e1 57be b2c2 21bf 66fc afbd
00000060: b500 b8be e198 83be 6f41 2abc bffa 05bf
00000070: 9ea6 e1be bc77 e3be 8347 5fbe bcda f5bd
00000080: b7f9 48bf fff6 bfbe 90ce e2be 104f 2b3f
00000090: ef8b 393d 9206 b3be f1d4 03bd b1b6 2abd
000000a0: 474e 22bf de1a f9be 72fc 23bf 6478 1fbe
000000b0: db45 00bf 31e7 89be 129d c2bd 0631 60bd
000000c0: 080c ecbe df5e f7be 82c9 76be 84f9 41bd
000000d0: 4158 f2bb 7e22 f33e c5cd e1be 8e89 823d
000000e0: fdf2 73bf a2fb 0abf a51a 33be 99ce 6f3e
000000f0: aea4 36bf e544 3abd cf62 af3e 3702 0f3f
00000100: 8496 a9bc 7c77 d53e 2ffa 18be 05e6 903e
00000110: f214 20be 8afd 25bd 488a 96bd 644a c4bc
00000120: 4388 d03d 597a 1cbf f54b cdbe d139 81bc
00000130: eb8d 3ebf 314e 51be 58ce 8abd 7a14 08bf
00000140: d61c a3be f858 32bb db80 aebe 63bb 5f3d
00000150: 614a 17bf e07b 7bbe 95bc a23e 5c6c 36bf
00000160: 99ba 02bf 3028 08bf 05e4 9dbe d563 c03e
00000170: cc87 a4bc 85fa 0b3e a080 ce3e 9d23 80be
00000180: b080 dabc dcec 29bf 9021 e43e f7ff 0bbe
00000190: 9300 463e 1f93 31be 7573 2dbf cfd4 4f3e
000001a0: 7f1b 213e f8c9 dc3d 59db 72be ac0b ccbe
000001b0: bc98 b4be 57d3 ca3e fa6d 0bbf 443c 013f
000001c0: 7748 8cbd 4b7b 08be 6028 a1be 8b6b 95be
000001d0: 6be9 e3be 6eb1 fdbc 7ac0 f1be 2fbd 06bf
000001e0: b843 113d 16b2 c4bc a9c8 1fbf 1fef 61be
000001f0: eb87 a9be 972a 81be c06d 88be d995 20bf
00000200: 8d30 453e 3ace b93e 5de3 27bf f80a 94bd
00000210: 7968 aebe 533f 40be dc1f 74be 2350 503e
00000220: 7a42 b8bd 0c8b c9be 2734 34be 82c7 083f
00000230: b14f 1abd 26b8 05bd 41bd e1be a9f7 0a3f
00000240: 8bc3 a2bd cb1c de3a 7cf8 2e3d 0b05 a7bd
00000250: 83bf dc3e 3bdc 6abe e503 c1be f3fc 643e
00000260: 090d 29bf c0f9 f0be 300b 0ebe 0b44 e9be
00000270: f970 c9bb ac62 dbbe d4c9 9d3e d88b a5be
00000280: 6fb3 3f3e cc3a d73e 3e58 99be 31e0 f0be
00000290: b977 1b3f e3c6 d23e 1f96 6bbf 9665 61be
000002a0: 733a 7d3e 1ba1 11bf 952b 12bf b205 ddbc
000002b0: f622 dbbe a3f8 aa3e b849 8e3e 4bae b93c
000002c0: 2b89 af3e 6cca 52be 468c 82be 954a 35bf
000002d0: a78d 11bd d2eb f3be 3961 0cbf 62fa b8be
000002e0: f1d9 10be 2402 703d 9ef8 fa3d 2871 3cbd
000002f0: 7371 38be 663c f53c c901 eebd 575d ad3e
00000300: ed4f 01bf 368d 9bbe 447c 143f 93b1 4dbf
00000310: c328 f6be eec5 8abe 6f55 6fbe fb1c afbe
00000320: 2eb7 50be f342 11bd 6c8b 5ebd 1da8 08bf
00000330: e093 03bf 470e 3fbf 1c3c 66be e4a2 50bf
00000340: 4c39 35bd 713e 7e3b a499 01be 0290 f83e
00000350: e090 81bc ad56 0bbf e68c 673e db24 4ebd
00000360: 00c1 053f 1991 a5be 2914 52bd a284 26be
00000370: 8c6f 75bf 667d 11bf 1465 1fbe 84cb 023e
00000380: 0f98 1fbf 81cf 02be 7f36 0dbf e732 ecbb
00000390: 6588 2fbf 9a02 e7be fab3 aebd 13f2 a7be
000003a0: 86b1 d43e dd0e f1be bc5e eabe 771f 41bd
000003b0: d00d cdbc d782 40bf c0de b5be bf16 c2bd
000003c0: 3078 b7bc c703 993e de0b 07be b9c8 8bbe
000003d0: 14dc 80bd d7fc 27bf 8c13 37bf 846d a93e
000003e0: 33e0 49be ac23 efbe f538 7cbe 5211 c2bd
000003f0: 59c5 eabd 2a19 debe 9701 43be 7606 f1be
-0.1601787 -0.0144167375 -0.32780367 -0.021794451 -0.024230717 -0.10410532 0.09055385 -0.80885977
-0.5297915 0.17552106 -0.0906605 -0.40088403 0.18863921 -0.022673968 -0.394645 -0.03521185
-0.5985104 -0.09130555 0.39207372 0.55741876 -0.28965843 -0.2108215 -0.63187706 -0.08593063
-0.3593804 -0.25702575 -0.010391577 -0.52335733 -0.4407243 -0.44427288 -0.21804623 -0.12004611
-0.78506035 -0.3749313 -0.4429822 0.66917515 0.045299467 -0.3496595 -0.0321855 -0.041678134
-0.6340069 -0.4865331 -0.64057076 -0.15573269 -0.5010659 -0.26934198 -0.09502615 -0.054734252
-0.4610293 -0.48314568 -0.24100307 -0.047357097 -0.0073957746 0.47487253 -0.44102302 0.06373893
-0.95292646 -0.5429021 -0.17490633 0.23418655 -0.7134503 -0.04547586 0.34255072 0.55862755
-0.020701654 0.41692722 -0.14939187 0.2830049 -0.1563299 -0.040524997 -0.07350594 -0.023961253
0.1018224 -0.6112419 -0.40097013 -0.01577464 -0.744353 -0.20439984 -0.06777638 -0.53156245
-0.31857938 -0.0027213674 -0.34082684 0.054622065 -0.5909787 -0.24558973 0.31784502 -0.71259093
-0.51065975 -0.5318632 -0.30838028 0.37576166 -0.020084284 0.13669784 0.40332508 -0.2502717
-0.026672691 -0.66377044 0.44556856 -0.13671862 0.19336157 -0.17341278 -0.677543 0.20296024
0.15733145 0.1078071 -0.23716487 -0.39852655 -0.35272777 0.39614365 -0.54464686 0.50482583
-0.06849759 -0.13328283 -0.31476116 -0.2918361 -0.4451402 -0.030968394 -0.4721716 -0.5263242
0.035464972 -0.0240107 -0.6241556 -0.22063874 -0.3311151 -0.25227806 -0.26646233 -0.6272865
0.19256802 0.3629015 -0.65581304 -0.072286546 -0.3406408 -0.18774156 -0.23840278 0.2034307
-0.089970544 -0.39363897 -0.1759802 0.53429425 -0.037673656 -0.03264632 -0.44089702 0.5428415
-0.07947453 0.0016945837 0.042717442 -0.08155259 0.43114862 -0.22935574 -0.37698284 0.22362117
-0.66035515 -0.47065544 -0.13871455 -0.45559725 -0.0061475006 -0.42848718 0.30818045 -0.32333255
0.18720792 0.42037046 -0.29950136 -0.47046044 0.6072956 0.41167364 -0.9202594 -0.22011408
0.24729328 -0.5688645 -0.5709775 -0.026980255 -0.4280011 0.3339282 0.27790618 0.022666117
0.34284338 -0.2058503 -0.25497645 -0.7081693 -0.03553548 -0.47640854 -0.5483585 -0.36128527
-0.14145638 0.05859579 0.12254451 -0.04600635 -0.18012027 0.029936027 -0.11621434 0.33860275
-0.5051258 -0.30381173 0.58002114 -0.8034908 -0.48077974 -0.27104133 -0.23372434 -0.34201798
-0.20382378 -0.03546424 -0.05433218 -0.5338152 -0.51397514 -0.7463116 -0.22483867 -0.8149855
-0.044244096 0.0038794542 -0.12656265 0.4854737 -0.015816152 -0.5442913 0.22612342 -0.050328117
0.5224762 -0.32337263 -0.051288757 -0.16261533 -0.9587333 -0.5683197 -0.15565902 0.12772948
-0.623414 -0.12774469 -0.5516128 -0.0072082165 -0.68567497 -0.45119172 -0.085304216 -0.32801875
0.4154169 -0.47081652 -0.45775402 -0.047149148 -0.025031 -0.75199646 -0.35521507 -0.09476995
-0.022396177 0.29885694 -0.1318812 -0.27301577 -0.062919766 -0.6562018 -0.715142 0.33091366
-0.19714431 -0.46706903 -0.24631102 -0.0947596 -0.11463422 -0.43378574 -0.19043575 -0.47075242

model.2.weight f4 [128, 256]
00000000: 251e 9fbd a943 df3d f94c 253e 8431 96bd
00000010: 44ae 6d3c a8c1 11be 6a9d 3b3e f62e aabd
00000020: 4a45 933c 5531 983c c50d 6f3d 690e cc3d
00000030: 5179 573d 23b0 ff3b 7af4 8bbc 80b3 81bc
00000040: 4dda cdbe 091f 8e3d a1fe 51bc 41a7 213d
00000050: b819 013b 6ce0 df3d 80d6 3abe 619d 42be
00000060: f696 1f3e d660 0abd 4223 113e 93e4 8fbd
00000070: 8eda 623d e6f4 ebbd 0789 183e 2bf5 5ebe
00000080: 1ac5 b83e cc60 403d 0b0c 703d 0065 0d3c
00000090: e450 f73d ff8e a83d eb1a b63d 899f 86bd
000000a0: 97b5 d33d 8b72 a3bd 6677 653e 97c4 ba3d
000000b0: e61d 6e3d a5e1 c3bd ad70 adbd 83d8 dfbc
000000c0: 1bdd 0ebe 8360 4c3e b176 19bd 1f52 d0bb
000000d0: b6b9 053d 4c09 0ebd 6e04 e4bd f9ae b2bd
000000e0: 4daa 36bd 9f40 553e 9285 b5bb 719c c3b9
000000f0: d0c9 aa3e d795 3ebd 3b70 29bd 66ee 26bd
00000100: d9c0 8abd 074c cd3d ce5a 3e3e 534d 39bd
00000110: 91ce 183d cf70 393b afa6 213c 6e40 54be
00000120: f644 93bc eeaf 83be e11b 03be 0788 6b3c
00000130: 7a64 88bc dd34 ea3d dc02 f43d 5f31 aabd
00000140: 0a4a 3ebe 180e 9f3e 99a1 3e3e bc66 453d
00000150: 2add f6bd a211 e0bc b2d5 8b3d dbda ea3d
00000160: cc85 a53c f967 4abd acc1 a33c 6763 5e3d
00000170: 7248 103e 604d 41bc b3ba 313d 61b2 e0bd
00000180: a3bb 3bbd f36a 0abe 0e26 0e3d d285 24bd
00000190: cecd 6d3d 7515 5ebb 2c4d 0e3f 2797 203e
000001a0: 3bb8 4f3d babf c3bc e784 bd3d 67b5 12be
000001b0: e6ed 263d 0df2 dc3a f4a1 2c3d 2da8 68bc
000001c0: abcd 57bc 50f0 763d 0809 a43d dd86 1ebd
000001d0: 0ddb f43a 4525 92bd 1b8d 6ebd ea3d 1d3e
000001e0: 9b64 b5bd df6b cf3d cca9 35bd ee94 e83d
000001f0: 21fc 3e3d ed6c 9a3d 694d e0bd 9fed 7c3f
00000200: 2d3d 2d3a 866d b2bc 2aef a6bc a3a6 92bd
00000210: 5fb1 51bb 1d10 ddbd 8642 583e 526b 273d
00000220: cfb1 70bc 3a67 dc3c 94d3 db3c 03fd 37bd
00000230: a24b be3d e047 813c 846e 90bb 22cc 713b
00000240: 5be2 343e d908 2e3c d2ac bf3d 2076 ab3d
00000250: 5b09 5b3d 8cef 93bc 055b 6ebc 302e 5f3d
00000260: 4240 64be e7a7 1e3d 26c7 913e e84a c63d
00000270: 85dc d339 0248 fcbd 5d3a a43d f98e 1a3e
00000280: 71b9 81bd b20c 23bd f85f 123d 6c76 913b
00000290: 1d7e 11bd 27ca 5cbd 1ae1 f63d 583f bb3d
000002a0: ce1a 2b3d be70 7c3c b231 023d fb1f 9bbd
000002b0: f1a2 4fbd 5194 d63c e806 69bd c255 283d
000002c0: ae6f 5bbd 5611 c63c 9fbb 523d d3f4 d4bd
000002d0: 266c 5bbd 75d2 90bb df9c 333e 43de f43d
000002e0: 59ee 97bd f230 953d 0563 8e3d c9fc 7b3d
000002f0: 431d aa3c ea3f 233d 0d1c 22bc f69b 9bbc
00000300: 8c5d 853e 4a4c 11bc be8d fabc b427 4bbe
00000310: cd0b fabd 0447 1dbe 7f1d 2bbd 62a2 223d
00000320: 5d9c c43b cccd bcbd d7bd 59bc 47ed 243e
00000330: 7112 113e ae5f 783e 6ef8 393d c550 17be
00000340: 42af da3d b47b 9d3e c70d 413e d02e bcbd
00000350: d484 00be d709 da3c f52b 15bb 458f a73c
00000360: 4545 1abb 4e56 98bd e70b 423d 4632 ac3e
00000370: 827c 763c 5486 de3d c6bc 403d 87f0 82bd
00000380: f616 853e f4a1 db3e 3983 383e a751 fbbd
00000390: 1448 e13d 4302 f33b 197f 59be 1241 0fbe
000003a0: eda6 31bc 34e7 533c d44f 853d 6683 523d
000003b0: 9e07 34be 7d0a 603e 14b3 243e e847 46bd
000003c0: 59fc 01bb 701c aebd 3d55 0a3d 2279 963d
000003d0: eb68 a0bd 088d 8fbd 9133 133d 3a93 abbd
000003e0: f4bf 123e 0d98 c0bc 308c 47bc fba7 fdbd
000003f0: e68e 163c 2a26 1d3d 3d06 15bd 013d 82bd
-0.077694215 0.10901577 0.16142644 -0.07333663 0.01450688 -0.1423403 0.18321767 -0.08309738
0.017977376 0.01857821 0.05836274 0.09963686 0.05260593 0.0078029796 -0.017084349 -0.015832663
-0.40205613 0.06939513 -0.012817056 0.039466146 0.0019699167 0.10931477 -0.18245888 -0.19005348
0.15584931 -0.033783756 0.14173606 -0.07026019 0.05538421 -0.1152132 0.14896022 -0.21773212
0.36087877 0.046967313 0.058605235 0.008630037 0.120759755 0.08230399 0.08891853 -0.06573398
0.1033737 -0.07980832 0.22408828 0.09119528 0.058133982 -0.09564523 -0.08468757 -0.02732492
-0.13951533 0.19958691 -0.03746671 -0.006357446 0.03264781 -0.034676835 -0.111336574 -0.0872478
-0.044596005 0.20825432 -0.0055396045 -0.00037309856 0.33357096 -0.046529617 -0.041366797 -0.0407547
-0.06775064 0.10024267 0.18589327 -0.045239758 0.037306372 0.0028296 0.009866401 -0.20727703
-0.01797722 -0.2572016 -0.12803604 0.014375693 -0.016649473 0.11435864 0.11914608 -0.08310198
-0.18582931 0.3106544 0.18616332 0.04819368 -0.120539024 -0.027352158 0.068278685 0.114675246
0.0202054 -0.049415562 0.01998981 0.054294016 0.14090136 -0.011798233 0.04339094 -0.10971523
-0.04583324 -0.1351736 0.03470426 -0.040166683 0.0580576 -0.00338873 0.55586505 0.1568266
0.050712805 -0.023895133 0.09253865 -0.14327012 0.04075422 0.0016856805 0.042146638 -0.0142002525
-0.013171594 0.060287774 0.08009535 -0.038702834 0.0018681005 -0.07136015 -0.058240037 0.1535565
-0.088570796 0.10127997 -0.044351384 0.11356531 0.046627168 0.07540307 -0.10952265 0.9880008
0.0006608542 -0.02178074 -0.020377714 -0.0716069 -0.003199659 -0.10794089 0.21119127 0.040873833
-0.01469083 0.026904691 0.026834287 -0.044919025 0.092917696 0.015781343 -0.0044077057 0.0036895354
0.17664473 0.010622227 0.09359135 0.0837214 0.05347572 -0.01805856 -0.014548068 0.054487407
-0.22290137 0.038734343 0.2847225 0.09682256 0.00040409356 -0.12318422 0.080189444 0.15093602
-0.06334198 -0.03980703 0.035736054 0.004439166 -0.03552066 -0.053903725 0.120546535 0.09142941
0.04177361 0.015407739 0.031785674 -0.07574459 -0.050692502 0.02619377 -0.056891352 0.04109741
-0.053573303 0.024178188 0.05144846 -0.10398259 -0.053569935 -0.0044196197 0.1754031 0.119564556
-0.07418508 0.07284726 0.0695248 0.06152037 0.020765906 0.039855875 -0.009894383 -0.018995266
0.26047933 -0.008868286 -0.030585166 -0.19839364 -0.12209282 -0.15359122 -0.041776177 0.03970564
0.0060000853 -0.0921894 -0.01328989 0.16106139 0.14167191 0.24255249 0.045402937 -0.14776905
0.10677959 0.3075844 0.18852912 -0.09188616 -0.1255067 0.02661602 -0.0022761796 0.020454058
-0.0023539823 -0.07438336 0.047374632 0.33632106 0.015044333 0.10865465 0.04705503 -0.06393533
0.2599408 0.42896998 0.18018807 -0.12271433 0.11000076 0.007416041 -0.2123989 -0.13989666
-0.010843021 0.012933541 0.06509367 0.051394843 -0.1758103 0.21879001 0.16083938 -0.04840842
-0.0019834249 -0.08501518 0.033772696 0.07347323 -0.078325115 -0.070093215 0.03593785 -0.083776906
0.14331037 -0.023510003 -0.012179419 -0.12385555 0.009189343 0.038366474 -0.036382902 -0.06359292

model.2.bias f4 [128]
00000000: b172 4b3c 4892 19be 5ee4 9fbc 6861 cdbd
00000010: fd88 6b3d 0cff 4ebd b176 d9bc c383 413d
00000020: 5d64 81bd 7592 6f3c 7f39 2f3e bed2 5d3d
00000030: c31c acbd b38d 213c b72c 6bbd acb8 2b3d
00000040: df28 babd 58d4 ea3d 6888 193e b3e3 c9bd
00000050: 8cbc edbd 8bd1 80bd fe2c fbbd f8eb 07bd
00000060: 84ac 0dbd dc61 263e 1716 103c def6 56bd
00000070: 28d5 fdbd e275 34bd 623d 2ebd e654 c5bd
00000080: bb96 5b3d f80b c0bd ba92 c33d e15a 74bd
00000090: e5ec ed3d 9be0 c23b 79e0 d33c 0484 c6bd
000000a0: 2496 513e 92a5 a13d b7a9 8cbd 19e9 b9bd
000000b0: 046e b03d c920 1f3e b728 d83d 9121 b93d
000000c0: b787 52be 8d46 c4bd 2eb4 3a3d fd8b 7dbc
000000d0: 8fb3 bdbd 45cd 683c 9e1e 88be 6ff9 f1bd
000000e0: 2882 743d e75e 8fbd 2d08 e2bd 9889 09ba
000000f0: 4881 c8bd 2efe 753d 0795 193e 0b25 243e
00000100: ab00 e5bd 77a2 8cbd 70ca aabc 6af9 2cbd
00000110: 99c7 d8bd 816f b3bd 3a51 8cbd 2925 863d
00000120: f78f 503e 4752 27bd 0580 1d3d 2234 2cbe
00000130: a384 92bc 6662 babc 486b 8dbd 4ed8 363e
00000140: fe7b 03be b236 aa3d aaa3 d63c 003e bd3c
00000150: 99b6 a0bd e396 563d 1d94 d6bd c03a c7bd
00000160: 83fc 953d ee76 103e 5713 df3d 49e8 3a3e
00000170: 2735 06be 6a1f 02bd 5f9b e5bd 9e9e 7fbd
00000180: 627d 903d 8ee9 64bd 8728 233e 3a17 06bb
00000190: 465c f9bd 9324 9bbd f787 05bd 5aaa 5f3d
000001a0: 7739 203e f79e 13be 6f34 dfbd 02e3 85bc
000001b0: f336 87bc 5388 17be a283 793c b373 91bd
000001c0: d798 1fbe a0c8 0abe aaeb 0a3e 1bc8 c93d
000001d0: 9bc9 ec3b 9890 ac3d 1b9a e9bd 43dd 023e
000001e0: e2c5 9bbd 4e5d 33bd 232b 8dbd ee01 42bd
000001f0: 443c 1dbe 365c 053e 3f4f b53d 8e93 013e
0.012417481 -0.14997208 -0.019518074 -0.100283444 0.05750369 -0.0505362 -0.026545854 0.0472448
-0.06317971 0.01462232 0.17111777 0.054156058 -0.08403923 0.009860444 -0.05741569 0.041924164
-0.09089827 0.114662826 0.14993441 -0.09857883 -0.11608228 -0.06289967 -0.12264441 -0.03318402
-0.03458835 0.16248268 0.008794329 -0.052481525 -0.12394172 -0.044057734 -0.042539008 -0.09635334
0.053610545 -0.09377283 0.0954947 -0.05965698 0.1161745 0.005947185 0.025863873 -0.09693149
0.2046743 0.07892908 -0.06868308 -0.09077663 0.08614734 0.1553985 0.10554641 0.090396054
-0.20559584 -0.09583769 0.04558199 -0.01547527 -0.09262764 0.014209096 -0.2658586 -0.11815154
0.05969444 -0.07000523 -0.11036716 -0.00052466383 -0.097902834 0.060056858 0.14998256 0.16029756
-0.11181768 -0.06866925 -0.020848483 -0.042230047 -0.10584945 -0.08761502 -0.0685143 0.065500565
0.20367418 -0.04084995 0.038452167 -0.16816762 -0.017885512 -0.022751998 -0.06905228 0.17855951
-0.12840268 0.083112136 0.026201088 0.023100853 -0.07847328 0.05238999 -0.10477469 -0.097280025
0.073235534 0.14107868 0.10892361 0.18252672 -0.13106214 -0.03176824 -0.11211275 -0.06240713
0.07055165 -0.055886798 0.15933429 -0.0020460621 -0.12175803 -0.07575335 -0.03260037 0.05460582
0.15646921 -0.14416109 -0.10898673 -0.016343597 -0.016505694 -0.14798097 0.015229138 -0.07102146
-0.15585648 -0.13553095 0.13566461 0.0985262 0.0072261817 0.084260166 -0.114063464 0.12779717
-0.076061025 -0.043790154 -0.06892993 -0.04736512 -0.15355021 0.13023457 0.088530056 0.12653944

model.4.weight f4 [64, 128]
00000000: 2281 9b3b 9651 8f3d f035 213b 8c71 6c3d
00000010: 5d5d f8bd 3410 1a3d 4915 9d3d fb69 69bd
00000020: d707 833d 44bc 04be 1f92 eabb 4e40 2cbd
00000030: 3aa3 ed3c 1979 4dbe 98f0 06bc 17aa b1bd
00000040: e0e4 c5bd 5fb5 e9bd ae1a f0bd eb91 3b3d
00000050: 1794 d8be 7f33 68bd 804c 153e c6c7 febc
00000060: 5575 8e3d 5226 10be 518c 12be f34b 4c3c
00000070: 1284 cd3d d528 d23c 44c3 6f3d fe1a 9d3d
00000080: ce1f e1bd 9e2c a6be f96e 61bd b7a1 91be
00000090: c635 d9bd 58c7 bc3d 7e94 513d 3d3c 1abf
000000a0: 86d3 24be 8dca 3fbe dada 363e d90f dfbe
000000b0: 21a9 f9bb 0102 47be fbd7 9cbd d036 c3bd
000000c0: 6c1e adbe f770 a53d 146e 8dbd ae74 bb3d
000000d0: bfa1 0bbd d373 98bd 8c5c a4be b825 b3be
000000e0: 8755 6bbe 23ee 23bc 18cc 203e dc5b e9bd
000000f0: 13fc 3e3c dd33 2bbe f0bd 8fbc a45c 23be
00000100: 14e6 6d3d 8b9c ad3c 89c4 323e ae49 dc3b
00000110: b4e3 993d 9c55 983d 06e1 213c 6796 9abd
00000120: b7e1 3bbe 2180 4c3c d1f7 debc 2820 fbbe
00000130: 1671 0dbd c4e2 283d 4429 163e e278 16be
00000140: 8cad 6a3e 9cbe 95bd 108b 8fbc 9dca 223d
00000150: 5129 0bbf 3471 bcbd 3aa4 0abd eb10 bfbe
00000160: 02b8 77bd 0a4f 09be 36fa 60be a424 cdbd
00000170: ca59 053e bb12 e23d 9b10 033e aaab 123e
00000180: 9ddc 2fbe 02c6 ff3c 4e8a e0bd 69ac 84be
00000190: 3250 193d 17dd c23d f792 c33b ecd4 4f3d
000001a0: 08df 35be 0d97 8f3d 3289 dc3d 2e58 d63d
000001b0: de3e 493d 3181 09bf 7b10 21be 77c1 c53c
000001c0: 07c1 dcbe 1fe6 9e3d 44f1 c9bd ae9f a0bc
000001d0: d6bb 88be ea8e 94bd 907b 3ebd f53d 0cbe
000001e0: eb45 c43d 073a 3c3d 3705 8f3d e727 923d
000001f0: 4ce2 e13d a3e6 273d 9fe6 87bc 48b3 9cbd
00000200: fd3c 1dbc efe8 d83c 5196 b33d 6db4 403e
00000210: 2cf0 1bbe f233 febd 00ad 2e3d a98c 8fb9
00000220: fa17 c93d 888c d9bd ff41 ebbd eb0a e73b
00000230: c34d 0b3e e64a 7fbe 7f88 503d dad0 1fbd
00000240: 179b f5bd 4005 09be 17d9 83bd ecac a63d
00000250: 6d1f 7fbe e1be ca3d 02c3 3cb9 cdbe e7bb
00000260: 2d1b ab3d 33c3 dbbb 963e 48be f997 62bb
00000270: 42fc b73d 30cd 64bc 3801 943d 3dd5 01bd
00000280: 22eb bfbd db9c a1be 95d7 f6bd 1e7e f3bd
00000290: e988 debd 6998 e8bc 898f 23bd f711 f0be
000002a0: d64e aebd f509 0bbe 75d8 b63d b9de fbbe
000002b0: d835 f3bd eb83 27be 2434 7abd d49b c3bd
000002c0: 6b89 98be cea9 873d cd1b 9f3b 4c11 89bc
000002d0: ca92 a63d 730c ba3b 9cf7 b6be ba11 9ebe
000002e0: 5944 e9bd 134d 773d c851 1b3e b05d 61be
000002f0: 5e28 853d 31c1 8cbd 3234 c1bd c444 24be
00000300: 63a0 58bc 10b6 a43d 3b80 943c e141 083e
00000310: ca75 663d 7144 9f3c d35c 323d 2ece 763b
00000320: 1d4b 25be 57c4 913d fde2 aebb 7059 01bf
00000330: 3b67 e43d 9c16 363d 8c76 1a3e 25ce 55be
00000340: 8893 e43d 41ed 5dbc 834f dcbc cec1 aabc
00000350: 1be5 c4be faf9 80bd 5e6a dabd 4279 aabe
00000360: 0605 26be abcb d539 793b e7bd 746e 71bd
00000370: 1502 733d b5f0 bc3d 1652 093e c888 343e
00000380: a28e e8bd 03f0 9d3c 1bcb e1bd c82e cabd
00000390: 0c99 c2bc 7613 cdbc 6c65 0f3e 975f 5a3c
000003a0: fdf4 d2bd ad9a 87bc 0620 423d fd94 033e
000003b0: 9c07 a6bc da08 24bf e861 2dbe 24e7 e53d
000003c0: 5496 c3be 7d9c f83d 72de c6bd 425b 14bc
000003d0: ab9e 2cbe fb0d 5bbe 12a4 57bc 574b 6abd
000003e0: a6f7 833d 7297 b0bd 1ece 843d 936c f63d
000003f0: ce8d c33d c29b 273d d4f4 04be f7cd 4fbd
0.0047456184 0.06997983 0.00245988 0.057725474 -0.12127183 0.03761311 0.076700754 -0.056985836
0.0639798 -0.12962443 -0.0071585323 -0.042053513 0.029008497 -0.20065726 -0.008236073 -0.0867502
-0.09662795 -0.11411547 -0.11723839 0.045793455 -0.42300484 -0.056689736 0.14579964 -0.031101119
0.06955973 -0.14077118 -0.14311339 0.01246928 0.10034956 0.025654236 0.05853583 0.07671164
-0.109923944 -0.32455915 -0.055037472 -0.2844369 -0.106059596 0.09217709 0.051167004 -0.60248166
-0.16096315 -0.1872961 0.17856923 -0.43566778 -0.0076190387 -0.19434358 -0.076583825 -0.09531939
-0.33812273 0.08078187 -0.06905761 0.09153114 -0.0340898 -0.07443967 -0.32101858 -0.34989715
-0.22981845 -0.010005507 0.15702856 -0.11394474 0.011656779 -0.16719003 -0.017546624 -0.15953308
0.058080748 0.02119281 0.17457785 0.0067226505 0.07514134 0.07438204 0.00988031 -0.07548218
-0.18347822 0.01248172 -0.027217777 -0.4904797 -0.034531675 0.041231886 0.14664179 -0.1469455
0.22917765 -0.073117465 -0.017522365 0.03974401 -0.5435992 -0.09201279 -0.033848025 -0.37317595
-0.060478218 -0.13409057 -0.21970448 -0.10016754 0.13022533 0.11038729 0.12799303 0.14323297
-0.17174001 0.031222347 -0.109638795 -0.2591279 0.037429996 0.09514826 0.0059684473 0.050740167
-0.17760861 0.070112325 0.107683554 0.10466038 0.04913222 -0.53712755 -0.15728943 0.024140103
-0.43116018 0.07758736 -0.09860471 -0.019607391 -0.26705807 -0.07253821 -0.046504557 -0.1369551
0.09583648 0.045953777 0.069834165 0.07136517 0.11029491 0.040991437 -0.01658946 -0.07651383
-0.00959706 0.026478259 0.08768905 0.18818827 -0.15228337 -0.124122515 0.042645454 -0.00027379885
0.09819026 -0.10622507 -0.11487197 0.007050862 0.13603882 -0.24930915 0.050911423 -0.039017536
-0.11992472 -0.13380909 -0.06437891 0.08138451 -0.24914332 0.098996885 -0.00018001723 -0.007072306
0.08354793 -0.006706619 -0.19555125 -0.0034575446 0.08983661 -0.013964936 0.07226795 -0.0316975
-0.0937102 -0.31564984 -0.12052838 -0.11889289 -0.10865957 -0.028392987 -0.039931808 -0.46888706
-0.085111305 -0.13578017 0.08928005 -0.4919336 -0.11875504 -0.16358916 -0.06108488 -0.09551206
-0.29792342 0.066241845 0.004855609 -0.01673188 0.081334665 0.0056777536 -0.35735786 -0.308729
-0.113899894 0.060376238 0.15167916 -0.22008395 0.0650184 -0.06872786 -0.094337836 -0.16041857
-0.013221833 0.08042538 0.018127551 0.13306381 0.056264676 0.019441815 0.043545555 0.0037659514
-0.16141935 0.07117527 -0.0053371177 -0.50527096 0.11152502 0.044455156 0.15084285 -0.20879419
0.11160952 -0.013545335 -0.026893383 -0.020844366 -0.38456044 -0.06297679 -0.10664819 -0.33295637
-0.16212854 0.0004077827 -0.112906404 -0.058943227 0.059328157 0.09225599 0.1341022 0.17630303
-0.1135533 0.019279486 -0.110250674 -0.09872204 -0.023754619 -0.025033694 0.14003533 0.013328454
-0.10300634 -0.016553247 0.04739382 0.12849803 -0.0202673 -0.64076006 -0.1693188 0.11225727
-0.3820063 0.12139223 -0.09710397 -0.009054961 -0.16857402 -0.21392052 -0.013161676 -0.057200756
0.064437196 -0.08622636 0.06484626 0.12032428 0.095485315 0.040920027 -0.1298402 -0.050733533

model.4.bias f4 [64]
00000000: 53e8 16bc fbcd d4bc 0031 b53d 7cb1 a93d
00000010: a8be 7b3e ea7d c2bd 73c1 fd3d c388 d6bc
00000020: b9d0 423e f634 5e3e bcf0 d4bc a392 943d
00000030: 3753 f83d 871a a6be 5439 783e 7348 7cbd
00000040: ed7f ef3d 5300 b23d 8d76 23bd 1979 cbbd
00000050: e426 573e 8a32 5d3e 6b4e e83d aef1 0f3e
00000060: f04a bbbd 2204 463e d101 96bd 8917 8c3e
00000070: a4de 16bd e109 6d3e 9778 9b3e 02c9 73ba
00000080: 517e b9bd e87a 50be 3612 19be b986 37bd
00000090: aefa bcbd f424 24be 38ed 963d b137 f5bd
000000a0: 71f3 06be 4326 81bd 9fbe e23d 952a 23bd
000000b0: 3cbb 96bd ad6f 1c3e 71a7 043e 39d0 483e
000000c0: ed59 3f3e 3cad e4bd cf5b 2ebe 4625 63be
000000d0: eaa7 03bd f670 1dbe f445 a8bd c4c6 9bbd
000000e0: 95f2 833e 808a 28be 9b13 c23d f2e7 dfbc
000000f0: de65 d1bd c6b1 0bbe 0183 dc3d 04a3 303e
-0.009210664 -0.025977125 0.08847237 0.082858056 0.24584448 -0.094966725 0.12390413 -0.02618826
0.19024934 0.2169989 -0.025993697 0.07254531 0.12125247 -0.32442114 0.24240619 -0.06159253
0.11694322 0.08691468 -0.03990798 -0.09935207 0.2101093 0.2160131 0.11343082 0.14057037
-0.091451526 0.19337514 -0.07324565 0.27361706 -0.03683342 0.231483 0.3036544 -0.0009299667
-0.09057296 -0.20359385 -0.14948353 -0.044806216 -0.09227501 -0.16029721 0.07369465 -0.11973513
-0.13178803 -0.06306126 0.11071514 -0.03983553 -0.07359931 0.15276976 0.12954499 0.1961068
0.18686648 -0.11165854 -0.1702721 -0.22182187 -0.032142557 -0.15375122 -0.082164675 -0.07606271
0.25771013 -0.16459084 0.09476396 -0.02733228 -0.10224508 -0.13642034 0.107671745 0.17249686

model.6.weight f4 [1, 64]
00000000: 2091 96bf b526 e6be 3592 753d 08e7 463d
00000010: 014e 403e 3e32 f4bf be16 a83d da5c 91bf
00000020: 3d33 4f3d 96e6 e43c 3a9c a9bf 1757 0a3d
00000030: 00f9 e83c 67cf 07bf 34a0 883e fb6b 8abf
00000040: 8596 1440 4675 1140 e648 0ebf 38e3 b3bf
00000050: 51e9 e13c 24b5 fa3d 1ff2 c83d d555 b33f
00000060: d08b aabf 9708 0d3c 970e 6fbf e659 0c3e
00000070: c3b9 1fbe 3807 3c3e 5368 9c3d fcf0 96bf
00000080: a812 afbf ddc4 26be e57c 66bf 2b63 c4bf
00000090: a004 a5bd 4be0 f3be 6db3 533e bb9a 0fbf
000000a0: 964e aabf 92f0 8ebf d194 bc3d b4c1 78bf
000000b0: 8fb2 c9bf b2ac a93e 0a16 9d3f dc48 073e
000000c0: 0187 263e b523 89bf f2f8 59bf 1af8 efbe
000000d0: d392 85bf 34ce b2bf ca4c a9bf 68b2 62bd
000000e0: df97 b33d 694d a4bf f1b4 a13c bf45 b2bf
000000f0: 0b08 a9bd 6e45 acbf c9c0 2a3d a797 f53c
-1.1763039 -0.44951406 0.059953887 0.048560172 0.18779756 -1.9077833 0.08207463 -1.1356461
0.050585974 0.027941983 -1.3250802 0.03377446 0.028439045 -0.53050846 0.26684725 -1.0814203
2.321687 2.2727828 -0.55579984 -1.4053717 0.027577074 0.12241581 0.09811806 1.4010569
-1.3323917 0.008608005 -0.9338164 0.13706169 -0.15598206 0.18362129 0.07637086 -1.1792293
-1.3677568 -0.16286035 -0.90034324 -1.5342764 -0.08057523 -0.4763206 0.20673914 -0.56095475
-1.3305233 -1.1167166 0.09208072 -0.9717057 -1.5757617 0.3313957 1.2272351 0.13211387
0.16262437 -1.0714022 -0.85145485 -0.46868974 -1.0435432 -1.3969178 -1.3226559 -0.055345923
0.087692015 -1.2836124 0.0197396 -1.3927535 -0.08253487 -1.3458688 0.04168776 0.02997954
