guardai/models/manipulated_content/manipulated_content_generator.pt (torch, 185259 bytes, 8 tensors)

model.0.weight f4 [64, 32]
-0.6541234 -0.2803846 -0.17168619 -0.4014826 -0.72473496 0.24676222 -0.1463462 0.25044698
-0.18347317 0.30137634 0.09309519 -0.037397142 0.40347424 -0.16630027 0.17071605 -0.09458238
0.038009852 0.007928622 -0.06563282 0.007783471 0.12540886 0.26142257 0.4742565 -0.24490646
0.118270844 0.019501582 0.2541552 0.057734597 -0.44599918 0.029742228 0.15271223 0.37542868
0.03873564 0.047525186 -0.20900586 0.06432212 -0.004769636 0.031900495 -0.061035223 -0.08238189
-0.03505802 0.11343883 0.044961423 -0.10839291 -0.01006125 0.07645256 0.08962491 0.20053637
-0.046048377 -0.022225242 0.008871139 0.01263502 -0.022680081 -0.0184438 -0.0758892 -0.049565885
0.02707738 0.13169016 0.030693691 -0.017395664 -0.0307295 0.06196995 0.17206961 0.10483455
-0.06185329 0.31652772 -0.1306706 0.3047184 0.100943945 -0.13801338 -0.29759654 0.023237873
0.29217386 0.3988211 0.028685836 0.09193915 0.24405688 0.074033946 -0.02840878 0.6048414
0.61600953 -0.3253574 0.0034681412 0.00050870364 -0.15030214 -0.39932713 0.05853115 0.054498475
-0.29372975 0.6191747 0.6878812 0.41565165 -0.32581437 0.66326606 0.46688867 -0.14751975
-0.010623081 0.00410805 -0.015233056 0.017445622 -0.0004614246 0.009425222 -0.0049683386 -0.017732428
0.0025954633 -0.024549136 -0.028509568 -0.005950359 -0.007379276 -0.024194362 -0.013229767 -0.0050366623
0.021103598 -0.007050669 0.0091956025 0.009204039 0.00020636445 -0.022763984 0.009477662 0.008663916
-0.0009093992 0.0040236954 0.036417138 -0.012235947 -0.008500413 -0.0037832775 0.006904218 -0.02356023
-0.3421085 0.24894169 -0.29877558 0.14267664 -0.23815206 -0.29357266 -0.32983607 -0.3908728
0.48400006 0.86953306 0.056706317 -0.11108317 -0.06818499 0.17985748 0.096202515 0.24350765
0.235401 -0.4041062 0.16704701 0.15335803 -0.14426199 -0.18657097 0.076406285 0.42420307
0.22259949 0.56436586 0.17367369 0.34860614 -0.016461993 0.24024168 -0.036318813 -0.026563922
0.11063504 -0.06931466 -0.15782338 0.4121815 -0.27292514 -0.17653315 -0.103489146 -0.01178042
-0.0099385185 0.201828 0.37474802 0.10434888 0.09187307 -0.072898075 0.095513746 -0.26438937
0.26134452 -0.13462168 -0.16341858 -0.16891778 -0.11551552 -0.08063854 0.051130768 0.14303407
-0.100941725 0.48055026 -0.26225638 0.123899154 -0.28821954 0.1724566 -0.27481362 -0.22019851
0.39907327 -0.13471603 0.47770262 0.25180504 -0.14257641 -0.14518704 0.32790318 -0.28828004
0.4235706 -0.053296015 -0.059071414 0.18526147 -0.43303278 0.09581073 0.007904882 0.15870796
0.28552115 -0.3581607 0.13994285 -0.20280124 0.351984 0.39401332 -0.38963237 0.5068763
-0.19259803 -0.07857994 0.4225857 0.28211984 0.57673013 -0.5486848 0.3510269 0.04454198
-0.5123366 0.2999818 -0.09967819 0.07988643 -0.0549003 0.08318361 0.90987515 0.38818583
0.1287035 -0.58365506 -0.2542341 0.33377266 -0.1631245 -0.05012299 -0.2774289 -0.39695176
0.36456925 -0.51640594 -0.47811666 -0.024014194 0.12952445 -0.32817605 -0.22960256 -0.7871151
0.69832706 0.38916677 -0.10026918 0.35925874 0.13000888 0.20236586 0.28237957 -0.53204286
00000000: a274 27bf 928e 8fbe 81ce 2fbe 218f cdbe
00000010: 3b88 39bf 3caf 7c3e c7db 15be 963a 803e
00000020: 64e0 3bbe 004e 9a3e b1a8 be3d bf2d 19bd
00000030: 2d94 ce3e 9e4a 2abe 30d0 2e3e 68b4 c1bd
00000040: 38b0 1b3d 0de7 013c 806a 86bd 7d0c ff3b
00000050: 2e6b 003e 2ed9 853e bfd1 f23e c2c8 7abe
00000060: fc37 f23d c8c1 9f3c a120 823e 1d7b 6c3d
00000070: 015a e4be f9a5 f33c 9860 1c3e 3038 c03e
00000080: 43a9 1e3d c5a9 423d a205 56be 51bb 833d
00000090: 9b4a 9cbb 18aa 023d 1200 7abd d6b7 a8bd
000000a0: 0099 0fbd 9e52 e83d 7829 383d 1afd ddbd
000000b0: f1d7 24bc 2993 9c3d 448d b73d 6859 4d3e
000000c0: 399d 3cbd b611 b6bc 4158 113c 1d03 4f3c
000000d0: 94cb b9bc 7417 97bc cc6b 9bbd 9905 4bbd
000000e0: 62d1 dd3c c9d9 063e 5671 fb3c 5a81 8ebc
000000f0: 6fbc fbbc 34d4 7d3d 0433 303e 7fb3 d63d
00000100: e059 7dbd ec0f a23e 84ce 05be 0d04 9c3e
00000110: b3bb ce3d 6153 0dbe 935e 98be 5a5d be3c
00000120: d097 953e 4732 cc3e 8ffe ea3c 984a bc3d
00000130: 0cea 793e 1c9f 973d 88b9 e8bc e3d6 1a3f
00000140: cdb2 1d3f 3f95 a6be c149 633b 865a 053a
00000150: cee8 19be 9b74 ccbe 5cbe 6f3d cb39 5f3d
00000160: bf63 96be 3c82 1e3f fb18 303f 4bd0 d43e
00000170: 24d1 a6be cecb 293f 080c ef3e 6b0f 17be
00000180: 6e0c 2ebc d29c 863b 1194 79bc 1fea 8e3c
00000190: 5deb f1b9 3f6c 1a3c 72cd a2bb 9943 91bc
000001a0: a618 2a3b 451b c9bc e68c e9bc 3bfb c2bb
000001b0: dbcd f1bb 4133 c6bc aac1 58bc 960a a5bb
000001c0: 74e1 ac3c 4c09 e7bb 27a9 163c 8acc 163c
000001d0: 8963 5839 897b babc 3248 1b3c 19f3 0d3c
000001e0: bf64 6eba 34d9 833b 232a 153d 4879 48bc
000001f0: 5145 0bbc ddf0 77bb c73c e23b 6201 c1bc
00000200: d828 afbe 92ea 7e3e 1df9 98be d319 123e
00000210: 22de 73be 284f 96be 46e0 a8be 7b20 c8be
00000220: dbce f73e b899 5e3f e244 683d 937f e3bd
00000230: 92a4 8bbd 8f2c 383e d305 c53d 125a 793e
00000240: f60c 713e 02e7 cebe 5f0e 2b3e e309 1d3e
00000250: 6ab9 13be 760c 3fbe e67a 9c3d 2531 d93e
00000260: 1ff1 633e 487a 103f 84d7 313e 817c b23e
00000270: 4ddb 86bc ea01 763e 09c3 14bd 959c d9bc
00000280: a094 e23d d8f4 8dbd 749c 21be 7409 d33e
00000290: d8bc 8bbe 1bc5 34be 1ef2 d3bd aa02 41bc
000002a0: 2bd5 22bc 00ac 4e3e f9de bf3e deb4 d53d
000002b0: f327 bc3d 964b 95bd b69c c33d 0b5e 87be
000002c0: f3ce 853e 44da 09be 3357 27be c8f8 2cbe
000002d0: 6793 ecbd d225 a5bd 7f6e 513d 8677 123e
000002e0: 89ba cebd af0a f63e 7846 86be d7be fd3d
000002f0: 8391 93be 7798 303e 5fb4 8cbe b87b 61be
00000300: 5553 cc3e 00f3 09be 7095 f43e 97ec 803e
00000310: 8dff 11be e9ab 14be ede2 a73e 7199 93be
00000320: 3fde d83e ec4c 5abd def4 71bd 2fb5 3d3e
00000330: 79b6 ddbe 6a38 c43d 7a83 013c 5784 223e
00000340: d42f 923e d760 b7be 2e4d 0f3e 21ab 4fbe
00000350: 3f37 b43e 1dbc c93e e57d c7be a5c2 013f
00000360: 6b38 45be 85ee a0bd 275d d83e 0372 903e
00000370: 96a4 133f 9b76 0cbf ccb9 b33e a771 363d
00000380: 7e28 03bf 3797 993e 1424 ccbd 7f9b a33d
00000390: 23df 60bd 2b5c aa3d 94ed 683f 4bc0 c63e
000003a0: daca 033e 6b6a 15bf f92a 82be 40e4 aa3e
000003b0: 1c0a 27be c44d 4dbd 290b 8ebe 433d cbbe
000003c0: d2a8 ba3e 2e33 04bf b5cb f4be 6ab9 c4bc
000003d0: 0fa2 043e b106 a8be ef1c 6bbe 6080 49bf
000003e0: 90c5 323f de40 c73e ee59 cdbd c3f0 b73e
000003f0: 0c21 053e ff38 4f3e 0e94 903e f633 08bf

model.0.bias f4 [64]
-1.9240468 -2.4145293 -1.11304 -0.6350021 -1.2617427 -1.2203236 -1.9312528 -0.7623166
-0.94627863 -2.005939 -0.8470384 -0.78450066 -0.5346061 -0.5976862 -1.9854685 -1.9335531
-2.3529954 -0.5662343 -1.603669 -0.842833 -0.5077737 -0.719365 -1.4127378 -0.86524653
-1.9390373 -0.3555503 -1.7563456 -0.5885766 -0.78483707 -2.022986 -0.40922385 -0.73702645
-0.329944 -0.35259908 -0.5684162 -0.54808015 -2.0232105 -1.7212771 -0.46418086 -0.37740785
-1.1757169 -1.3004876 -0.8007724 -2.0346622 -0.9560613 -0.9112766 -0.81056386 -0.80791795
-0.6593388 -0.66795146 -1.1789182 -0.8085554 -1.9353702 -0.7234884 -0.88679177 -1.4321262
-1.2329525 -0.55651087 -1.5173256 -0.6558862 -2.0078065 -2.2361095 -0.56848264 -0.48279408
00000000: 2a47 f6bf a687 1ac0 1878 8ebf 7f8f 22bf
00000010: c980 a1bf 9033 9cbf 4b33 f7bf 2e27 43bf
00000020: 513f 72bf 4e61 00c0 82d7 58bf 09d5 48bf
00000030: f2db 08bf f601 19bf d523 febf ab7e f7bf
00000040: 7a97 16c0 bbf4 10bf 0745 cdbf e7c3 57bf
00000050: 75fd 01bf 4e28 38bf 98d4 b4bf cc80 5dbf
00000060: 6032 f8bf b00a b6be efcf e0bf f5ac 16bf
00000070: 15eb 48bf 9a78 01c0 ca85 d1be c4ad 3cbf
00000080: 6cee a8be de87 b4be b983 11bf fb4e 0cbf
00000090: 487c 01c0 cf52 dcbf 1da9 edbe 9a3b c1be
000000a0: e47d 96bf 6176 a6bf 6cff 4cbf e837 02c0
000000b0: 6fc0 74bf 6c49 69bf 1d81 4fbf b6d3 4ebf
000000c0: 6dca 28bf defe 2abf cbe6 96bf 7dfd 4ebf
000000d0: 36ba f7bf 8936 39bf c904 63bf e94f b7bf
000000e0: 63d1 9dbf 7f77 0ebf ba37 c2bf 28e8 27bf
000000f0: e77f 00c0 6b1c 0fc0 1488 11bf c930 f7be

model.2.weight f4 [128, 64]
0.63336986 -0.25465232 0.2612823 -0.07884286 0.17770675 -0.010539186 0.78313124 0.2912992
0.037338078 0.12245346 0.03895727 -0.017441776 0.10618657 -0.13324246 -0.023454564 0.015151267
0.6367582 0.13004701 -0.1913994 -0.1973822 -0.02943206 -0.14443304 0.21894039 -0.02703858
0.046539474 -0.028115312 0.20068744 -0.14434654 -0.09574978 -0.115485914 -0.034003362 -0.22709034
-0.06402426 -0.06605138 -0.0043464582 0.10845508 0.26521567 0.4527087 0.007501947 -0.17298183
0.32207185 0.08742771 -0.003451461 0.29632226 0.18718602 0.47959492 -0.23826186 0.25322607
0.074450664 -0.34634706 -0.34911785 -0.15559603 0.32458222 0.13477121 -0.03607776 0.33132246
-0.018047182 -0.11849434 -0.17976099 -0.083074994 -0.031208308 0.060312882 0.082542025 0.07092207
-0.39844352 0.0024539253 0.12652767 0.14634492 0.1280508 -0.17230375 0.07742762 -1.8787309
0.027332492 -0.121162355 0.37223274 0.028337225 0.005978281 0.19274919 -0.23417135 -0.1595102
-0.108484454 0.14654732 -0.03666151 0.12061485 0.07966463 0.14758883 -0.027894598 0.115405425
0.42991915 0.071057744 0.2232035 0.14515683 -0.07323948 -0.3184754 0.02080008 0.14023454
-0.00833017 -0.037152927 -0.38488734 0.033272523 0.12874326 -0.33541828 0.23746851 0.075838715
0.2947877 -2.5552912 0.05058741 -0.073632486 -0.05084975 0.025665328 0.10686527 0.08095963
0.0719566 0.2735967 0.07630507 0.25515342 0.036209065 0.3982798 0.09364106 -2.0908015
-0.10040571 0.05629012 0.2176115 -0.09683377 0.09986397 0.38744852 0.053555116 -0.10917006
0.030434156 -0.0595084 -0.73754144 0.10447811 -0.7018022 -0.109189086 -0.46277803 0.13876238
0.2106548 -0.4689822 -0.022986704 0.13563056 0.03240921 0.14858033 0.2306213 -0.02755234
0.36717597 -0.08370863 -1.0369849 0.28259465 -0.0104406625 -0.16305281 -0.14030658 -0.15183151
-0.12134544 0.07609369 -0.20884244 0.21032411 -0.0629113 0.36942497 0.002924594 -0.058496118
0.080356576 -0.082702786 0.1571064 -0.1045946 0.47492638 -0.01212654 -0.05347646 0.10636221
-0.059475165 -0.339132 0.35001454 -0.072880164 -0.89325595 -0.19843514 -0.10790871 -0.10824771
0.047714904 0.13287278 0.1296483 0.3525107 -0.2710392 0.37063894 0.1638781 -0.2955165
0.4843493 -0.11695104 0.41297442 -0.08344174 -0.047416165 0.44326967 -0.008408055 0.020060044
0.09856754 0.55398256 -0.22468749 -0.34318432 0.08653773 0.39393154 0.09918567 -0.1759319
0.1498489 0.34485912 0.17361084 0.14238384 0.04080259 0.21721871 0.047297042 0.22309424
-0.03536974 0.0811773 0.07888302 0.2070551 0.046507563 0.04065871 -0.024890626 0.048909456
0.025785482 -0.10343042 -0.19738108 0.24927697 -0.07652426 0.32356736 0.051981155 0.38610688
0.0673841 0.034756295 0.010053768 -0.017490987 0.14458697 -0.13675319 0.23956572 0.090559065
0.068771005 -0.40556386 0.11413985 0.46985394 0.33559236 0.18583953 0.23744826 0.36726263
0.007603116 0.13681328 0.44569823 0.14970133 0.39291435 0.0041536232 0.1792123 0.1565632
0.24852134 0.12618233 0.32910717 0.0522849 0.5753396 0.42816767 0.06415814 0.11431755
00000000: 8724 223f ca61 82be cbc6 853e 5e78 a1bd
00000010: c2f8 353e 8dac 2cbc 4a7b 483f 2b25 953e
00000020: d0ef 183d e1c8 fa3d a991 1f3d 0ee2 8ebc
00000030: 5878 d93d b670 08be c923 c0bc 053d 783c
00000040: 9602 233f 0b2b 053e 34fe 43be 8f1e 4abe
00000050: 811b f1bc 41e6 13be e931 603e 0380 ddbc
00000060: 2da0 3e3d 1552 e6bc 0281 4d3e 94cf 13be
00000070: 7618 c4bd e183 ecbd 1c47 0bbd 5f8a 68be
00000080: 271f 83bd f245 87bd bc6c 8ebb b21d de3d
00000090: 59ca 873e 6fc9 e73e e5d2 f53b 2622 31be
000000a0: 9ae6 a43e 4d0d b33d e831 62bb 8db7 973e
000000b0: b1ad 3f3e 778d f53e ebfa 73be d9a6 813e
000000c0: 9779 983d 6754 b1be 93bf b2be 9154 1fbe
000000d0: a42f a63e 7701 0a3e 46c6 13bd 19a3 a93e
000000e0: afd7 93bc 29ad f2bd 4413 38be 3923 aabd
000000f0: 91a8 ffbc a40a 773d cb0b a93d 973f 913d
00000100: ca00 ccbe 09d2 203b 7890 013e 71db 153e
00000110: c01f 033e 6570 30be 5f92 9e3d 417a f0bf
00000120: 64e8 df3c f823 f8bd 4a95 be3e 7823 e83c
00000130: 75e5 c33b 0b60 453e 9dca 6fbe a456 23be
00000140: 192d debd 8010 163e 612a 16bd eb04 f73d
00000150: 3627 a33d 8721 173e 3683 e4bc ae59 ec3d
00000160: 5d1e dc3e b986 913d 758f 643e fea3 143e
00000170: 95fe 95bd 350f a3be ee64 aa3c a599 0f3e
00000180: 447b 08bc ab2d 18bd f40f c5be c548 083d
00000190: 46d5 033e f2bb abbe f22a 733e 5451 9b3d
000001a0: 6aee 963e e489 23c0 be34 4f3d a1cc 96bd
000001b0: d447 50bd 1840 d23c 2edc da3d 2ace a53d
000001c0: fb5d 933d de14 8c3e d545 9c3d 78a3 823e
000001d0: f54f 143d 54eb cb3e e2c6 bf3d b1cf 05c0
000001e0: 82a1 cdbd 7890 663d 8dd5 5e3e c950 c6bd
000001f0: 7b85 cc3d a75f c63e 9c5c 5b3d 8d94 dfbd
00000200: 0d51 f93c 14bf 73bd 84cf 3cbf 9ff8 d53d
00000210: 4fa9 33bf 879e dfbd 3ef1 ecbe ba17 0e3e
00000220: e4b5 573e 6f1e f0be 9d4e bcbc bde2 0a3e
00000230: 85bf 043d 7125 183e fd27 6c3e 72b5 e1bc
00000240: 7dfe bb3e 6e6f abbd ecbb 84bf 3fb0 903e
00000250: 500f 2bbc 51f7 26be 87ac 0fbe b879 1bbe
00000260: f583 f8bd 02d7 9b3d cbda 55be 345f 573e
00000270: a4d7 80bd 4525 bd3e 8caa 3f3b a099 6fbd
00000280: fd91 a43d 1460 a9bd 80e0 203e b235 d6bd
00000290: 8d29 f33e 65ae 46bc 220a 5bbd 6ed4 d93d
000002a0: 3b9c 73bd b6a2 adbe 1b35 b33e 3242 95bd
000002b0: 6cac 64bf 9532 4bbe 3eff dcbd fab0 ddbd
000002c0: b470 433d cd0f 083e 86c2 043e 487c b43e
000002d0: a6c5 8abe 63c4 bd3e a9cf 273e f04d 97be
000002e0: a2fc f73e 0784 efbd 6271 d33e 81e3 aabd
000002f0: 7437 42bd 3ef4 e23e f0c1 09bc f654 a43c
00000300: c7dd c93d cdd1 0d3f 7a14 66be dbb5 afbe
00000310: b23a b13d 65b1 c93e db21 cb3d 7e27 34be
00000320: fd71 193e 6091 b03e 0ac7 313e 12cd 113e
00000330: 9e20 273d 956e 5e3e 8bba 413d d172 643e
00000340: dcdf 10bd 4940 a63d 6c8d a13d 4106 543e
00000350: b77e 3e3d bf89 263d 6de7 cbbc 4855 483d
00000360: 133c d33c 54d3 d3bd 441e 4abe 7642 7f3e
00000370: c0b8 9cbd 9faa a53e 31ea 543d cdaf c53e
00000380: ad00 8a3d 9e5c 0e3d 8fb8 243c 4249 8fbc
00000390: 9b0e 143e 0709 0cbe b750 753e 0877 b93d
000003a0: d0d7 8c3d 11a6 cfbe 27c2 e93d b290 f03e
000003b0: c3d2 ab3e b84c 3e3e a325 733e d909 bc3e
000003c0: 8f23 f93b c818 0c3e 8f32 e43e 4e4b 193e
000003d0: 122c c93e 1e1b 883b 6e83 373e 1a52 203e
000003e0: 617c 7e3e f135 013e bc80 a83e b128 563d
000003f0: 7549 133f cb38 db3e 5865 833d 521f ea3d

model.2.bias f4 [128]
-0.89948463 0.1743144 -0.0377696 -0.45940718 -0.20242982 -0.31781054 -0.5161246 -0.1312969
0.21647961 -0.027108297 0.1388538 0.20359363 -0.86195385 -0.86614597 -0.49839073 0.2628408
0.050194927 -0.59879357 0.15240467 -0.024365885 -0.1567764 -0.42460904 0.008264733 -0.32400244
0.20489252 -0.06660558 0.44663674 0.5268107 0.22430922 0.09429796 0.07669796 0.18642044
-0.3660807 0.48523065 0.09927247 -0.431241 -0.391565 0.2419943 0.59800565 -0.15085693
0.13729009 -1.0902088 0.41230932 -0.04224649 0.013341836 -0.51201016 -0.018750103 0.041084558
-0.27952492 0.03602176 0.24381213 -0.03407813 -0.4875498 -0.93234795 -0.03606759 -0.28745848
-0.2349962 0.14999673 0.16567335 -0.2885719 0.33702978 -0.068192884 -0.5536421 0.22174016
-0.3502871 0.18883865 -1.2248139 -0.09093506 -0.017038263 0.76679605 -0.28451297 0.036928713
0.06628772 0.03586665 -0.43010727 0.09767767 -0.27862144 -0.3260004 -0.24362971 0.14579582
-0.2116241 -0.05442672 -0.5662206 0.050324723 0.17204201 -0.33318287 -0.035415914 0.020213699
0.13457812 0.24052024 -0.19979422 -0.22576354 0.17591962 -0.44342256 0.4952751 -0.11344307
-1.421116 -0.2934546 -0.2549473 -0.009175457 0.13395268 -0.07881819 0.20957923 -1.7760824
-0.28201747 0.09613046 -0.19859196 0.031913113 -0.5761162 0.06611645 0.014246496 0.19014959
-0.16633172 -0.2829264 -0.9069878 0.14165798 -0.057678565 -0.28398767 0.026905404 0.12959564
-0.030730588 -0.33221337 0.2078407 -0.3481892 -0.24577853 -0.20961136 0.11707631 0.055254877
00000000: a044 66bf 797f 323e 4cb4 1abd 6b37 ebbe
00000010: c349 4fbe 10b8 a2be be20 04bf b272 06be
00000020: d5ac 5d3e 3812 debc b12f 0e3e d97a 503e
00000030: 02a9 5cbf bebb 5dbf 122d ffbe 1293 863e
00000040: 3299 4d3d 894a 19bf f80f 1c3e f79a c7bc
00000050: fe89 20be 5b66 d9be cd68 073c a6e3 a5be
00000060: 58cf 513e 8268 88bd 92ad e43e 11dd 063f
00000070: 51b1 653e 4a1f c13d d213 9d3d 00e5 3e3e
00000080: ee6e bbbe 2770 f83e 5d4f cb3d 9fcb dcbe
00000090: 357b c8be 5bcd 773e e616 193f 3d7a 1abe
000000a0: c695 0c3e f68b 8bbf 351a d33e a80a 2dbd
000000b0: b797 5a3c 1913 03bf d199 99bc 4848 283d
000000c0: e41d 8fbe 8e8b 133d e3a9 793e 8295 0bbd
000000d0: 21a0 f9be 5bae 6ebf 9cbb 13bd c22d 93be
000000e0: d8a2 70be be98 193e 46a6 293e b2bf 93be
000000f0: 2b8f ac3e b6a8 8bbd 7dbb 0dbf da0f 633e
00000100: d558 b3be eb5e 413e b4c6 9cbf 293c babd
00000110: d493 8bbc bf4c 443f afab 91be 9042 173d
00000120: dbc1 873d e9e8 123d 0537 dcbe 3b0b c83d
00000130: 78a7 8ebe 86e9 a6be 117a 79be 804b 153e
00000140: fdb3 58be 8dee 5ebd d5f3 10bf 4c21 4e3d
00000150: c82b 303e f296 aabe 4710 11bd 3397 a53c
00000160: d9ce 093e f04a 763e db96 4cbe 8f2e 67be
00000170: 4624 343e 4808 e3be b394 fd3e d754 e8bd
00000180: 21e7 b5bf ae3f 96be 7488 82be a854 16bc
00000190: e42a 093e 6e6b a1bd f09b 563e ab56 e3bf
000001a0: 9864 90be 0ce0 c43d b15b 4bbe 53b7 023d
000001b0: 5a7c 13bf 1068 873d 236a 693c 93b6 423e
000001c0: dd52 2abe bbdb 90be 5a30 68bf ca0e 113e
000001d0: 5c40 6cbd d566 91be b968 dc3c b8b4 043e
000001e0: b7be fbbc df17 aabe 31d4 543e db45 b2be
000001f0: 5ead 7bbe 5ca4 56be b4c5 ef3d f052 623d

model.4.weight f4 [256, 128]
0.060203135 -0.06496825 0.1826199 -0.4155858 0.5614074 -0.38673607 -0.70903397 -0.429976
0.1150837 -0.03363448 -0.47556543 -0.24936306 0.33743548 0.053095218 0.58120155 -0.8420595
0.072086066 0.096943185 -0.01787153 0.658524 0.4351794 -1.0473905 0.018587613 0.16482513
-0.25818878 -0.1515192 -0.66982526 -0.31696376 0.20086809 0.03256479 -0.49911663 -0.31518254
0.31622997 -0.22411412 0.032990836 -0.6373327 0.06720185 0.04184927 -0.122662045 -0.20694536
0.6833605 -0.63884294 0.55758566 0.15530656 -0.0012092307 -0.083117805 0.52240413 0.2118426
-0.6309916 -0.008126362 -0.6003372 0.25394893 0.00631883 -0.46145928 -0.4404896 0.13250071
-0.743507 0.52241343 -0.045698516 -0.52978265 0.2185822 0.16977635 -0.16531433 -0.054605145
0.37398702 -0.11548487 -0.38322982 0.002067361 0.10388225 -0.14477643 5.92782e-05 0.43238676
0.14249572 -0.14241707 -0.268281 -0.41578797 -0.07284794 -0.5700904 -0.4769779 -0.051774144
0.14366235 0.08157371 0.0922896 0.13944836 -1.076981 0.17204246 -0.37187108 -0.086408325
-1.6099855 0.17074192 -0.029730273 -0.20412576 0.0867038 -0.064298674 -0.39676613 0.025603507
-0.13746515 0.34421945 -0.5508691 -1.0732607 0.24105062 -0.08384248 0.36849442 -0.35269514
-0.043573894 -0.17307527 -0.4473481 -0.14646576 0.16438611 -0.13864994 0.36882922 -0.8408119
-0.41437548 -0.27988958 -0.8960847 -0.17715718 0.12594734 0.1989158 -0.032974236 -0.27229795
-0.5061074 -0.013486168 -0.6221552 0.08809901 -0.18743637 0.3485689 0.19347955 0.23861311
-0.60465765 -1.0681002 -0.4556364 0.030063374 -0.6639839 -0.61628795 -0.29569408 0.12637228
-0.438757 -0.0033565261 -1.3376601 -1.0549479 -1.1170417 -1.0960687 -0.17560431 -1.7533957
-1.3938423 -0.26668912 0.13849506 -0.0037821503 0.51159155 0.04326693 -0.34393358 -0.04130206
-1.1810529 -0.074715264 0.11228671 0.10907622 0.13788301 -1.1216819 0.22633748 -1.4830294
-0.41709706 0.18672742 0.57779694 -1.0101669 0.16021661 -0.584715 -0.80600107 -0.6221156
-0.38677904 -0.28516462 -1.4014282 -0.11151345 -0.19846122 0.13290098 -0.7357759 0.13675831
-0.1334444 -0.41687182 -0.3219311 -0.050906207 0.09470629 -0.25672248 -0.28764334 0.1365694
0.06332347 -1.2631328 -2.3351066 -0.33242196 -1.1320086 -0.65433764 -0.26736373 -1.6577988
0.043243673 -0.17859834 -0.16175546 0.19410343 -0.22124092 -0.23593295 -0.25051925 -0.4932131
-1.1867617 -1.1479121 -0.042739972 0.27644584 -0.014318816 -0.66275203 -1.1673878 -0.9356806
-0.015668705 -0.639675 -0.18044557 0.31663558 -0.94010913 -0.20906715 -0.11855012 -0.076978
-0.44273812 -2.901979 0.26594076 -0.29297796 -0.122229874 -0.18471956 -0.69233865 -0.23519437
-0.11351463 -0.3003965 -0.5272585 0.3158079 -0.03555733 -0.2923811 -1.1733819 -0.11674076
0.21191166 -0.04403984 -0.30144966 -0.8908707 -0.1463587 -1.0801076 0.0028713665 0.09887266
-0.16671841 -0.56134325 -0.51435316 -1.5126827 0.024829239 0.006290987 0.23165597 -0.18366686
-2.3954868 -0.062632896 0.4176012 0.5407208 -0.113390595 -1.9809886 -0.68741626 -1.2394291
00000000: 9097 763d 130e 85bd b600 3b3e a9c7 d4be
00000010: 65b8 0f3f 4502 c6be 4083 35bf d025 dcbe
00000020: 01b1 eb3d 4fc4 09bd 507d f3be 0859 7fbe
00000030: 58c4 ac3e 5f7a 593d a0c9 143f 3691 57bf
00000040: dca1 933d 268a c63d 5167 92bc 0795 283f
00000050: d6cf de3e e410 86bf 0d45 983c ebc7 283e
00000060: 5231 84be d927 1bbe ab79 2bbf 1349 a2be
00000070: 5db0 4d3e a862 053d 378c ffbe 9b5f a1be
00000080: e5e8 a13e 2c7e 65be 6621 073d 3c28 23bf
00000090: 20a1 893d 246a 2b3d 3d36 fbbd 7ce9 53be
000000a0: b7f0 2e3f 368b 23bf efbd 0e3f af08 1f3e
000000b0: 0d7f 9eba ab39 aabd 47bc 053f 44ed 583e
000000c0: aa88 21bf 6f24 05bc b3af 19bf 9805 823e
000000d0: 300e cf3b 6444 ecbe da87 e1be 44ae 073e
000000e0: 7a56 3ebf e3bc 053f 5e2e 3bbd d69f 07bf
000000f0: 03d4 5f3e dad9 2d3e 2948 29be a5a9 5fbd
00000100: 3a7b bf3e 5583 ecbd b336 c4be 907c 073b
00000110: 38c0 d43d 4640 14be 7ca1 7838 cc61 dd3e
00000120: 66ea 113e c8d5 11be 215c 89be 29e2 d4be
00000130: 4d31 95bd 72f1 11bf 7336 f4be 2011 54bd
00000140: 391c 133e 1e10 a73d 5402 bd3d 8dcb 0e3e
00000150: 83da 89bf e62b 303e e365 bebe d9f6 b0bd
00000160: 0114 cebf f8d6 2e3e e78c f3bc 5806 51be
00000170: c391 b13d 06af 83bd ee24 cbbe 72be d13c
00000180: aac3 0cbe 883d b03e c205 0dbf 9b60 89bf
00000190: f9d5 763e 9bb5 abbd 4dab bc3e 7594 b4be
000001a0: 8a7a 32bd a53a 31be cf0a e5be 1ffb 15be
000001b0: d554 283e 40fa 0dbe 2fd7 bc3e 733f 57bf
000001c0: 0629 d4be b04d 8fbe cf65 65bf b168 35be
000001d0: 57f8 003e 95b0 4b3e fe0f 07bd a36a 8bbe
000001e0: 4190 01bf 17f5 5cbc 9045 1fbf 416d b43d
000001f0: 52ef 3fbe 9f77 b23e 811f 463e ff56 743e
00000200: d8ca 1abf 82b7 88bf 2d49 e9be 7747 f63c
00000210: d9fa 29bf 0cc5 1dbf 3765 97be bc67 013e
00000220: c2a4 e0be 2af9 5bbb 7238 abbf 8808 87bf
00000230: 39fb 8ebf fb4b 8cbf 9ed1 33be 456f e0bf
00000240: 6d69 b2bf 7a8b 88be a6d1 0d3e f4dd 77bb
00000250: aaf7 023f aa38 313d 1018 b0be 592c 29bd
00000260: be2c 97bf 5104 99bd 93f6 e53d 5a63 df3d
00000270: 3431 0d3e 4693 8fbf 03c5 673e e8d3 bdbf
00000280: bf8d d5be 7935 3f3e 80ea 133f 264d 81bf
00000290: d30f 243e e2af 15bf 1656 4ebf f842 1fbf
000002a0: e707 c6be 1901 92be 0062 b3bf 2a61 e4bd
000002b0: 6b39 4bbe 3217 083e cf5b 3cbf 5f0a 0c3e
000002c0: a6a5 08be 3970 d5be 27d4 a4be 0783 50bd
000002d0: 5ff5 c13d 2171 83be fd45 93be d9d8 0b3e
000002e0: bcaf 813d 56ae a1bf 6372 15c0 3633 aabe
000002f0: a8e5 90bf ac82 27bf e6e3 88be c032 d4bf
00000300: 4720 313d 7ce2 36be 39a3 25be 0dc3 463e
00000310: fb8c 62be 6898 71be 0f44 80be 6d86 fcbe
00000320: cfe7 97bf c9ee 92bf 1c10 2fbd 4f8a 8d3e
00000330: 7899 6abc 1eaa 29bf f76c 95bf c488 6fbf
00000340: a85b 80bc bec1 23bf b9c6 38be 0f1e a23e
00000350: feaa 70bf b315 56be 68ca f2bd a4a6 9dbd
00000360: 92ae e2be 06ba 39c0 6329 883e 3501 96be
00000370: a853 fabd 2027 3dbe 1b3d 31bf cbd6 70be
00000380: 5c7a e8bd 92cd 99be 6afa 06bf 93b1 a13e
00000390: 90a4 11bd fab2 95be 6131 96bf c815 efbd
000003a0: 5fff 583e 1f63 34bd 9c57 9abe 1a10 64bf
000003b0: 0edf 15be f740 8abf 892d 3c3b c07d ca3d
000003c0: 3bb8 2abe 31b4 0fbf a6ac 03bf 969f c1bf
000003d0: b066 cb3c a024 ce3b 3937 6d3e 2a13 3cbe
000003e0: a84f 19c0 ad45 80bd d3cf d53e ae6c 0a3f
000003f0: 5439 e8bd 0991 fdbf 83fa 2fbf 9da5 9ebf

model.4.bias f4 [256]
-0.5600146 0.16280915 -0.25106546 0.33865267 -0.25358346 -0.45535642 0.4016105 0.49543276
0.30161673 -0.3904244 -0.33721048 0.047014747 -0.78812194 -0.3480288 -0.03994948 -0.29091564
-0.014479078 -0.013011447 -0.017929785 -0.57305276 -0.3766767 -0.05853064 0.54556644 -0.57895344
-0.46713305 0.21104237 -0.09108942 -0.21970408 -0.43230903 -0.12380501 -0.46102205 -0.31560785
0.067528546 -0.2661417 -0.37278652 -0.7769421 -0.29606035 0.017388081 -0.064712934 0.06697231
-0.3671993 0.051884 -0.30305988 0.14971079 -0.30464447 -0.7411217 -0.23597516 -0.5959031
-0.2673062 -0.049901206 0.038705178 -0.5923825 -0.7199681 0.13986552 0.589085 -0.6658011
-0.32680884 -0.16000852 -0.70706666 -0.31556442 -0.28094608 -0.012399833 -0.6731445 0.16060776
-0.3709654 0.2734834 0.06671746 -1.5700301 -0.029247407 -1.1903503 0.114308044 -0.79040396
-0.6836885 -0.10827978 -0.9002967 0.19809715 -0.41482905 0.11389917 -0.47283128 0.08682352
-0.40609515 -0.657087 -0.107120186 -0.16810738 0.3181822 -0.05425592 -0.82809263 -0.095853895
-1.4738286 0.7124866 0.03350966 -0.16189963 -0.235632 -0.43288305 -0.30950278 -0.6249325
-0.043947984 -0.56550014 -0.17911267 -0.14336433 0.6132952 -0.94161063 0.48248407 -0.3442495
-0.3971 -0.023421707 0.85086083 0.049680576 0.07944366 -0.9664418 -0.03737797 0.035834912
-0.3089464 -0.2379463 -0.21357143 0.40069294 -0.47705653 -0.37249973 0.14998613 0.57756716
0.22783661 -0.28441158 -0.018896293 0.17665671 -0.3880183 0.034594428 0.16809909 0.419027
0.010902622 -0.2567429 -0.27176768 -0.40673712 -0.25583977 -0.31094158 -0.44909713 -0.09223639
0.8666344 -0.21128747 -1.1199433 -0.72093207 -0.12892383 0.26281643 0.03449286 0.010707744
-0.26599634 -0.059605736 -0.4250283 0.5795639 -0.632366 0.6745006 0.5992928 -0.68979836
-0.30192506 -0.22671042 -0.910299 -0.40127555 0.64051676 0.07947769 0.34954768 0.48313347
-0.34924656 -0.2669266 -0.15613523 -0.68939203 -0.37739876 0.024407009 0.24772674 0.19954929
-0.17912157 -0.24556887 -0.20824684 -0.55856967 -0.55009377 -0.056402482 0.21838957 -0.1436545
0.11973022 0.08414634 -0.16464436 -0.052915312 0.10520138 0.11587694 -0.19307749 -1.2917064
0.70917606 0.4520635 -0.18869612 0.28019595 -0.82764035 -0.3194623 -0.1862676 0.19183981
-0.19677739 -0.20062706 0.24280237 0.0367328 0.31861863 -0.107955486 -0.37224153 -0.65578836
-0.25944012 -0.09338854 0.4033295 -1.0436778 -0.23096167 -0.12137936 -0.6069712 0.31669995
-0.16350175 -0.03599313 0.16978638 -0.74499875 0.37041244 -0.5584213 0.12829746 0.2107695
-0.19981645 0.47598347 0.17818406 0.19460271 -0.09714976 0.272991 -0.36900222 0.09371404
-0.1870374 -0.22875787 -0.29019773 -0.316948 -0.32755068 0.09000142 -0.28053695 -0.6775842
-0.11045143 0.035995763 -0.29856166 -0.35469398 0.3259404 -1.252479 0.42839554 -0.047849547
0.30093566 -0.48730865 -1.0335197 0.7988572 -0.9692475 -0.36968678 -0.29138952 0.46538526
0.40380058 -0.28645322 -0.3071958 -0.16342843 0.14930399 -0.17645341 -0.5089067 -0.50703186
00000000: 1e5d 0fbf 71b7 263e a78b 80be e263 ad3e
00000010: b1d5 81be 7a24 e9be e49f cd3e 5da9 fd3e
00000020: 826d 9a3e b5e5 c7be daa6 acbe 8992 403d
00000030: 5cc2 49bf d530 b2be 11a2 23bd e5f2 94be
00000040: a839 6dbc f72d 55bc 7ce1 92bc 96b3 12bf
00000050: c5db c0be d3bd 6fbd 3eaa 0b3f 4b36 14bf
00000060: 102c efbe 7e1b 583e 178d babd 1bfa 60be
00000070: 9c57 ddbe 7b8d fdbd 150b ecbe 5a97 a1be
00000080: 684c 8a3d ba43 88be e0dd bebe ade5 46bf
00000090: 3995 97be 7371 8e3c 3788 84bd c728 893d
000000a0: 8c01 bcbe 5184 543d aa2a 9bbe c94d 193e
000000b0: 5cfa 9bbe 27ba 3dbf 79a3 71be 1b8d 18bf
000000c0: 5cdc 88be 3565 4cbd 5289 1e3d 61a6 17bf
000000d0: d44f 38bf e838 0f3e 46ce 163f f171 2abf
000000e0: 7d53 a7be 46d9 23be 5202 35bf a991 a1be
000000f0: 2ad8 8fbe ab28 4bbc 3353 2cbf 5c76 243e
00000100: 2def bdbe 0406 8c3e 2aa3 883d bff6 c8bf
00000110: 4298 efbc 665d 98bf 561a ea3d ea57 4abf
00000120: 3606 2fbf cac1 ddbd d879 66bf fbd9 4a3e
00000130: 7964 d4be f843 e93d f116 f2be 88d0 b13d
00000140: b4eb cfbe db36 28bf d461 dbbd 5724 2cbe
00000150: c7e8 a23e 753b 5ebd e1fd 53bf 0c4f c4bd
00000160: 6aa6 bcbf 8665 363f 6d41 093d 04c9 25be
00000170: 8449 71be d9a2 ddbe 2677 9ebe 94fb 1fbf
00000180: cd02 34bd 9ec4 10bf 5069 37be 19ce 12be
00000190: ea00 1d3f 650d 71bf 2708 f73e 7841 b0be
000001a0: b150 cbbe e1de bfbc 04d2 593f dc7d 4b3d
000001b0: 5cb3 a23d bb68 77bf a419 19bd a1c7 123d
000001c0: 392e 9ebe 32a8 73be 78b2 5abe a027 cd3e
000001d0: c140 f4be 49b8 bebe f795 193e 71db 133f
000001e0: 004e 693e 659e 91be 66cc 9abc 7fe5 343e
000001f0: 56aa c6be e3b2 0d3d 2b22 2c3e b58a d63e
00000200: e9a0 323c ce73 83be 2225 8bbe d93f d0be
00000210: 6efd 82be bc33 9fbe 0ff0 e5be 6fe6 bcbd
00000220: c1db 5d3f be5b 58be 4d5a 8fbf 018f 38bf
00000230: 9c04 04be e08f 863e 6348 0d3d 896f 2f3c
00000240: ac30 88be 2525 74bd 4f9d d9be 4d5e 143f
00000250: bde2 21bf 12ac 2c3f 416b 193f a096 30bf
00000260: ec95 9abe c726 68be 5b09 69bf fd73 cdbe
00000270: e8f8 233f 33c5 a23d eaf7 b23e 455d f73e
00000280: 72d0 b2be 9aaa 88be eae1 1fbe ff7b 30bf
00000290: 693a c1be 35f1 c73c 14ac 7d3e a656 4c3e
000002a0: a56b 37be 6876 7bbe a93e 55be 6cfe 0ebf
000002b0: f2d2 0cbf 4a06 67bd 84a1 5f3e 2a1a 13be
000002c0: 1e35 f53d eb54 ac3d 8898 28be babd 58bd
000002d0: d273 d73d e450 ed3d 1bb6 45be a356 a5bf
000002e0: 908c 353f de74 e73e 8e39 41be d875 8f3e
000002f0: 3de0 53bf 9090 a3be efbc 3ebe a871 443e
00000300: 0380 49be 2e71 4dbe 2fa1 783e 2275 163d
00000310: fb21 a33e c417 ddbd 7196 bebe bfe1 27bf
00000320: 56d5 84be 7e42 bfbd 3481 ce3e 3c97 85bf
00000330: 3781 6cbe be95 f8bd 7762 1bbf 7f26 a23e
00000340: 016d 27be 886d 13bd 7bdc 2d3e 3db8 3ebf
00000350: b3a6 bd3e b3f4 0ebf 6960 033e f6d3 573e
00000360: af9c 4cbe 1bb4 f33e e275 363e ef45 473e
00000370: 74f6 c6bd 7ac5 8b3e dced bcbe 26ed bf3d
00000380: bb86 3fbe 813f 6abe cc94 94be 0247 a2be
00000390: b9b4 a7be aa52 b83d 8aa2 8fbe 2876 2dbf
000003a0: 5c34 e2bd 4b70 133d 13dd 98be 739a b5be
000003b0: a9e1 a63e 3b51 a0bf a956 db3e e3fd 43bd
000003c0: 3d14 9a3e 8580 f9be 604a 84bf e881 4c3f
000003d0: 9b20 78bf 9647 bdbe 0231 95be fa46 ee3e
000003e0: f3be ce3e ffa9 92be c548 9dbe c859 27be
000003f0: 25e3 183e 34b0 34be b647 02bf d7cc 01bf

model.6.weight f4 [8, 256]
0.42850927 -0.050088115 -0.16593562 -0.5689293 0.0022622517 -0.4189797 0.058837626 -0.14954859
-0.26296857 -0.13871822 -0.38182545 -0.14976478 -0.017302208 0.049140647 0.26738524 0.15061244
-0.6708176 0.21218577 0.6572564 0.27093956 -0.18792768 -0.09033028 -0.3190907 -1.7725269
-0.95617706 -0.1350597 -0.45893312 0.022275785 -0.12233268 -0.006998251 0.2042433 -0.35562253
-0.36327118 -0.6514622 -0.051839065 -0.13262255 0.045590598 0.057626266 0.22983672 -0.64454347
0.74123216 -0.33202577 1.468471 0.37706274 0.113588445 0.04515242 0.0017212419 -0.24976152
0.5101235 0.013612436 0.04294681 -0.042570185 -1.0507249 -0.41587368 0.45264015 0.6609098
-0.36617216 0.7529926 -0.5094416 0.032372482 -0.31135875 -0.4010416 -1.8149099 0.0371226
-0.0396143 -0.138536 0.043544512 -0.13805881 -0.5479505 0.18250269 -0.3052736 -0.65201855
0.46712017 -0.013790378 1.0183399 -0.10387894 -0.27374202 0.051092125 -0.16674665 0.3686358
-0.27338424 0.37567854 0.14498736 0.25367808 -0.1257022 -0.114840455 -0.05702152 -0.8343118
0.14771135 -0.41704053 -0.5869403 -0.19487843 0.19906168 0.016128099 -0.26827455 -0.056831907
0.9213432 -0.7205924 1.1019301 0.40516233 0.45307323 -0.16610882 -0.2825889 -0.730594
-0.29910806 0.042382356 -0.12926738 -0.4455731 -0.058740526 0.66867584 -0.25266844 -0.37787262
0.0790972 -0.30421913 0.45773432 -0.05586763 -0.2883753 0.1441682 -0.39831665 0.026566075
-0.05250891 -0.29874763 -0.21686117 0.89770085 -0.061723553 -0.0071334904 0.043674357 0.25385833
0.24447353 -0.22928622 -0.028591223 0.059823666 -0.6936268 -0.1286722 0.36873528 0.3348033
0.19255313 -0.14077385 -0.19488901 -23.671032 -0.945753 -0.24387014 -0.44811153 0.028982088
-0.063105 -0.69278234 0.2117288 -0.51954573 0.49879697 -0.75657064 0.3594884 -0.2621648
0.4696741 0.31110752 -0.22514279 0.1533972 -0.18069644 -0.18960041 0.69542027 0.3756804
-0.078503385 -0.78987134 -0.5379591 0.5062299 -0.10484659 0.09272098 -0.21966828 -0.86077964
-0.24270397 -0.22132368 -0.04711787 0.16778328 0.33761668 -0.3768095 -0.62736344 -0.63974875
-0.4360895 -0.076729365 -0.10356934 0.17006864 -0.26089966 0.1515029 0.99887365 0.045078497
-0.27529496 0.36446258 0.0644244 0.18435477 -0.01305247 -0.16238785 0.05756068 -0.0205329
0.7159896 0.030693145 0.13232726 -0.03117436 -0.23811997 -0.054765355 0.9199099 -0.92809814
-1.8677534 -0.03943054 0.07630889 0.19074048 -0.33550793 -0.07884363 -0.5401745 0.6004721
-0.046860475 0.43823853 0.39265376 -0.12344133 0.46274734 -1.6532359 -0.39612857 -0.13687822
-0.29093307 -0.37074324 19.967215 -0.34031066 -0.03368231 -0.1860868 0.8097984 0.102059774
-0.13297844 -0.3414714 0.1175475 -0.27155727 -0.091816634 -0.24122192 0.048219725 -0.053568106
-0.2441246 -0.35757452 -0.17523971 -0.048029657 -0.29008082 -0.04236519 0.22503881 -0.8440086
-0.43338886 0.16349705 0.09545689 0.21878421 0.15619215 0.017953573 -0.025052253 0.07323429
0.119706914 0.014855295 0.08696023 -0.97604674 0.41653055 -0.069192775 -0.07770073 -0.43425876
00000000: 9165 db3e 3229 4dbd 07eb 29be 5aa5 11bf
00000010: 4942 143b 8284 d6be b9ff 703d 4423 19be
00000020: d1a3 86be 260c 0ebe a07e c3be f05b 19be
00000030: 5cbd 8dbc b447 493d b8e6 883e 263a 1a3e
00000040: b4ba 2bbf 3a47 593e f541 283f 97b8 8a3e
00000050: 1d70 40be 15ff b8bd db5f a3be 29e2 e2bf
00000060: 05c8 74bf 174d 0abe 48f9 eabe b57b b63c
00000070: 8e89 fabd 9651 e5bb 2825 513e 2814 b6be
00000080: aefe b9be 3ac6 26bf 3355 54bd 35ce 07be
00000090: 35bd 3a3d 8509 6c3d 515a 6b3e cd00 25bf
000000a0: 64c1 3d3f 48ff a9be dcf6 bb3f 5e0e c13e
000000b0: 0fa1 e83d bef1 383d 4b9b e13a 7cc1 7fbe
000000c0: 7497 023f b206 5f3c ffe8 2f3d 135e 2ebd
000000d0: 277e 86bf 65ed d4be 73c0 e73e 6231 293f
000000e0: eb7a bbbe 1fc4 403f c46a 02bf 0299 043d
000000f0: 6a6a 9fbe 5355 cdbe f84e e8bf de0d 183d
00000100: 9b42 22bd 62dc 0dbe bb5b 323d 4a5f 0dbe
00000110: 7c46 0cbf fce1 3a3e d24c 9cbe b0ea 26bf
00000120: 602a ef3e 0af1 61bc f658 823f 7bbe d4bd
00000130: ea27 8cbe fa45 513d a2bf 2abe d5bd bc3e
00000140: 05f9 8bbe f058 c03e 9177 143e 18e2 813e
00000150: 14b8 00be 7931 ebbd 668f 69bd 7595 55bf
00000160: a541 173e 5686 d5be b841 16bf 368e 47be
00000170: d3d6 4b3e 131f 843c 485b 89be 93c8 68bd
00000180: 26dd 6b3f be78 38bf 0c0c 8d3f 7071 cf3e
00000190: 37f9 e73e 6e18 2abe 7eaf 90be 3508 3bbf
000001a0: b124 99be 1f99 2d3d ab5e 04be 2822 e4be
000001b0: e899 70bd 572e 2b3f c25d 81be 8578 c1be
000001c0: b6fd a13d 9cc2 9bbe 275c ea3e 75d5 64bd
000001d0: eda5 93be d4a0 133e 29f0 cbbe 19a1 d93c
000001e0: 9513 57bd 73f5 98be db10 5ebe b9cf 653f
000001f0: d6d1 7cbd 0ec0 e9bb e2e3 323d b8f9 813e
00000200: 4557 7a3e 02ca 6abe 2438 eabc a909 753d
00000210: 8791 31bf a5c2 03be dfca bc3e 576b ab3e
00000220: a62c 453e 0527 10be fc90 47be 465e bdc1
00000230: de1c 72bf 18b9 79be e06e e5be d86b ed3c
00000240: 323d 81bd 2f5a 31bf 6fcf 583e f300 05bf
00000250: 5162 ff3e 9dae 41bf dd0e b83e 773a 86be
00000260: 2079 f03e 7c49 9f3e d58b 66be 2814 1d3e
00000270: 7d08 39be 9c26 42be 1007 323f 2e59 c03e
00000280: 62c6 a0bd 0235 4abf b0b7 09bf 4898 013f
00000290: cfb9 d6bd 7fe4 bd3d b9f0 60be 0e5c 5cbf
000002a0: 6487 78be ada2 62be abfe 40bd 61cf 2b3e
000002b0: 18dc ac3e 2ded c0be e49a 20bf 93c6 23bf
000002c0: 1f47 dfbe 4924 9dbd 2a1c d4bd 7926 2e3e
000002d0: a494 85be 9423 1b3e 2fb6 7f3f 3ba4 383d
000002e0: 76f3 8cbe d79a ba3e f1f0 833d 7fc7 3c3e
000002f0: 07da 55bc 0049 26be bfc4 6b3d 9d34 a8bc
00000300: 184b 373f 3170 fb3c cc80 073e 5f61 ffbc
00000310: b9d5 73be a351 60bd 377f 6b3f d797 6dbf
00000320: 8b12 efbf eb81 21bd d647 9c3d 7951 433e
00000330: b2c7 abbe c578 a1bd e048 0abf 8ab8 193f
00000340: c5f0 3fbd cd60 e03e ea09 c93e cfce fcbd
00000350: 38ed ec3e 3c9d d3bf 5dd1 cabe ce29 0cbe
00000360: 2ef5 94be 0fd2 bdbe dbbc 9f41 333d aebe
00000370: 76f6 09bd 8a8d 3ebe f34e 4f3f b704 d13d
00000380: 802b 08be 57d5 aebe bebc f03d 8e09 8bbe
00000390: 5c0a bcbd e102 77be 0c82 453d 3b6a 5bbd
000003a0: cdfb 79be 0214 b7be 0a72 33be bfba 44bd
000003b0: 7985 94be 1f87 2dbd 9370 663e f310 58bf
000003c0: 25e5 ddbe c56b 273e e77e c33d f808 603e
000003d0: d6f0 1f3e 5f13 933c 623a cdbc dcfb 953d
000003e0: e628 f53d a063 733c 3418 b23d 33de 79bf
000003f0: 7e43 d53e f1b4 8dbd 8f21 9fbd 2a57 debe

model.6.bias f4 [8]
0.49515182 -0.7226957 -0.25561503 0.070109524 -0.055926163 -0.0037547473 -0.08655113 -0.0060993074
00000000: 8a84 fd3e 9602 39bf f9df 82be 9595 8f3d
00000010: d512 65bd 3512 76bb b841 b1bd b3dc c7bb
