guardai/models/intrusion/intrusion_generator.pt (torch, 184967 bytes, 8 tensors)

model.0.weight f4 [64, 32]
0	0x3ddae84c	0.10688838
1	0x3dc7d4fe	0.09757422
2	0xbd1d125b	-0.038347583
3	0x3d2862ae	0.041109733
4	0x3da24d79	0.07924933
5	0xbe362bd6	-0.1779016
6	0x3e0ddd4d	0.13853951
7	0x3e4b48ae	0.19851944
8	0x3ce223e8	0.027605012
9	0x3ebc463c	0.36772335
10	0xbd0f5f05	-0.035002727
11	0x3ea80a21	0.32820228
12	0x3d6bab16	0.057536207
13	0x3d91d90e	0.07121478
14	0x3dc0e984	0.094195396
15	0x3d1a719d	0.037706006
16	0xbe0976c5	-0.13424213
17	0xbd8c6256	-0.068546936
18	0x3efaeda9	0.49009445
19	0x3dd41278	0.10355085
20	0x3da9b189	0.08285815
21	0x3cfe7b6e	0.031064715
22	0x3e07f906	0.13278589
23	0xbe0522c0	-0.13001537
24	0x3d168f01	0.036757473
25	0x3e4e3535	0.20137484
26	0xbe0e09e0	-0.13870955
27	0xbcd14fed	-0.025550807
28	0xbe1c9057	-0.15289436
29	0x3e1c99bd	0.15293022
30	0x3e17919d	0.14801641
31	0x3c8d14fd	0.017221922
32	0x3d821de5	0.06353358
33	0xbd36c76a	-0.04462377
34	0xbe18f684	-0.14937788
35	0xbd1fd1d5	-0.03901847
36	0xbd965aa8	-0.0734151
37	0xbd4fb2ea	-0.050707735
38	0x3d68c44b	0.056827825
39	0x3dd603f2	0.10449971
40	0x3db587ae	0.088637695
41	0x3e15ae74	0.1461733
42	0xbd0df5c7	-0.03465822
43	0xbcf1858f	-0.029482631
44	0xbd99bc4b	-0.07506617
45	0xbb911b11	-0.0044282754
46	0xbdbb7692	-0.09153475
47	0x3d5dd39e	0.054156892
48	0xbddd9441	-0.10819293
49	0xbd97f1e8	-0.07419187
50	0x3de2851a	0.11060543
51	0xbaf7c894	-0.0018904381
52	0x3defc9be	0.11708401
53	0xbe04133a	-0.1289796
54	0x3dd462db	0.10370418
55	0xbd5dd96a	-0.05416242
56	0xbdd4f332	-0.10397948
57	0xbcceaa29	-0.025227623
58	0x3c360c0a	0.011111269
59	0xbe486b18	-0.19572103
60	0xbe0b35e4	-0.13594776
61	0x3cc225b0	0.023699611
62	0xbd7f893d	-0.06238674
63	0xba62c73a	-0.0008650903
64	0x3ca0c7fa	0.019626606
65	0x3d949e5e	0.07256769
66	0xbe5857a7	-0.21127187
67	0xbd5c429b	-0.053774457
68	0xbc7e4402	-0.015519144
69	0xbccefd5e	-0.0252673
70	0x3d797c7b	0.06090973
71	0x3e3b7761	0.18307258
72	0x3dba20cd	0.090882875
73	0x3e89f4cb	0.26944575
74	0xbd7dfaa7	-0.06200662
75	0x3e022749	0.12710299
76	0xbdeaecfb	-0.11470982
77	0xbca339d4	-0.019925036
78	0xbd644a5c	-0.055734977
79	0x3db72446	0.089424655
80	0xbd278601	-0.04089928
81	0xbd8913cf	-0.06693231
82	0x3e41265a	0.18862286
83	0xbd385e03	-0.04501153
84	0x3e39788a	0.18112388
85	0xbe7da21d	-0.24768873
86	0x3e31f785	0.17379577
87	0xbd958b65	-0.07301978
88	0xbe04b76e	-0.12960598
89	0xbda9953e	-0.08280419
90	0xbb012d05	-0.0019710672
91	0xbe35407a	-0.17700377
92	0xbe762b3e	-0.24039933
93	0x3bd2aac2	0.0064290473
94	0xbdb347c2	-0.08753921
95	0x3d183df9	0.037168477
96	0x3d4c1db4	0.049833015
97	0x3dbc776e	0.09202467
98	0xbe40951d	-0.18806882
99	0xbd2a425a	-0.041567184
100	0xbc7ce084	-0.015434388
101	0xbc517163	-0.012783381
102	0xbcab6364	-0.020921417
103	0x3de792a9	0.1130727
104	0x3ca3e007	0.020004285
105	0x3e1044f6	0.14088807
106	0xbc93ea07	-0.018055929
107	0x3d1056d1	0.035239045
108	0xbe03331b	-0.12812464
109	0xbdc850ab	-0.09781011
110	0xbdf7a005	-0.12091068
111	0xbd065646	-0.03279712
112	0xbdc57799	-0.09641952
113	0xbd7a2642	-0.06107164
114	0x3dd34866	0.10316543
115	0x3b4d2296	0.0031301132
116	0x3e2b9b13	0.16758375
117	0xbe7f5a08	-0.24936688
118	0x3e2dd20e	0.16974661
119	0xbc76e313	-0.015068787
120	0xbdd3de0e	-0.10345088
121	0xbd1c26a7	-0.0381228
122	0xbd26fab5	-0.040766437
123	0xbe6e7e75	-0.23290427
124	0xbdff3ec9	-0.12463147
125	0xbd1b0288	-0.03784421
126	0xbd659066	-0.056045912
127	0xbb668dcf	-0.003517974
128	0x3e207525	0.15669687
129	0xbc3807f3	-0.011232364
130	0xbd8f1253	-0.06985917
131	0xbab59144	-0.0013852497
132	0xbd04db64	-0.03243579
133	0xbdc727a7	-0.0972436
134	0xbcdf4098	-0.02725248
135	0x3d9f7964	0.07786825
136	0x3e37dcc7	0.17955314
137	0x3d6dfe27	0.058103707
138	0xbdaf938b	-0.085730635
139	0x3cacb784	0.0210836
140	0xbaa62224	-0.001267497
141	0xbd695b2f	-0.056971725
142	0x3d92a55d	0.07160447
143	0x3da04bfe	0.07826994
144	0xbdcea467	-0.10089951
145	0x3d074a4f	0.03302985
146	0x3dd908a2	0.1059735
147	0x3d2f14be	0.04274439
148	0xbcb6c8cf	-0.02231255
149	0xbd5a79f7	-0.05333897
150	0x3dc7408e	0.0972911
151	0xbdbe3853	-0.09288087
152	0x3da0be2b	0.07848772
153	0x3d1ff196	0.039048754
154	0xbd61abd4	-0.05509551
155	0xbd57c9dc	-0.052682742
156	0xbd746609	-0.05966762
157	0xbbc41d3d	-0.005984931
158	0x3b848d28	0.0040451474
159	0x3ceb61eb	0.028733214
160	0x3d2ffd5d	0.042966235
161	0x3d5140a5	0.05108704
162	0xbd7de27a	-0.061983563
163	0x3c0cb48b	0.008587967
164	0xbd841d52	-0.06450905
165	0xbda58f63	-0.080839895
166	0xbd9049c8	-0.07045323
167	0x3ce6c6c2	0.028170947
168	0x3d74db6a	0.059779562
169	0x3d8914ab	0.06693395
170	0x3d7179b8	0.05895397
171	0x3c15c7c8	0.00914187
172	0x3d5336f3	0.051566076
173	0x3d6c80e1	0.057740096
174	0xbdb5718d	-0.08859549
175	0x3d408776	0.047004186
176	0x3cc43dce	0.023955252
177	0x3ccc68a2	0.024952237
178	0x3cec5a34	0.028851606
179	0xbd027c75	-0.031856973
180	0xbd16e61e	-0.03684055
181	0xbcfc9d04	-0.03083659
182	0x3c00ff52	0.007873373
183	0xbdbab6f0	-0.09116924
184	0xbd854478	-0.065072
185	0x3d775711	0.060385767
186	0xba5b70ae	-0.00083709776
187	0x3c769010	0.015048996
188	0xbd6d7d85	-0.057981033
189	0x3d94a3f1	0.07257832
190	0xbc871738	-0.016490564
191	0x3d841d2f	0.06450879
192	0x3e212a72	0.15738848
193	0x3d398e1d	0.045301545
194	0xbe0ead21	-0.13933231
195	0xbd594f66	-0.053054236
196	0x3bb963a7	0.0056576314
197	0xbd95de90	-0.07317841
198	0xbda9f497	-0.08298605
199	0x3de7f804	0.11326602
200	0x3e2f912d	0.17145224
201	0x3e24f426	0.1610876
202	0xbd1b5f7c	-0.037932858
203	0x3de68ece	0.112577066
204	0xbddd12c5	-0.10794596
205	0x3c9813c4	0.018564112
206	0xbc56e025	-0.013114964
207	0x3d1db9ac	0.03850715
208	0xbdf1d171	-0.11807526
209	0xbd305342	-0.04304815
210	0x3e3fc5c3	0.18727784
211	0x3cb6a876	0.022297125
212	0x3de966b0	0.11396539
213	0xbe358487	-0.17726336
214	0x3e22c459	0.15895213
215	0xbd2011bd	-0.039079417
216	0xbb44c694	-0.0030025588
217	0xbd7f73ac	-0.062366173
218	0xbd52839b	-0.05139504
219	0xbe11fb87	-0.14256106
220	0xbe20b972	-0.15695742
221	0x3d2184d5	0.03943332
222	0x3d3b4c6c	0.04572718
223	0xbd81d99e	-0.06340335
224	0x3e06715b	0.13129179
225	0xbe09962d	-0.13436194
226	0xbde044df	-0.10950636
227	0xbd824a5a	-0.06361838
228	0x3c014d9e	0.007892041
229	0xbd8faef9	-0.07015795
230	0xbd63fed6	-0.055662952
231	0x3e0b6f03	0.13616566
232	0x3e31f0e2	0.17377046
233	0x3e221e1d	0.158318
234	0xbd3e57e8	-0.046470553
235	0x3d8ef291	0.069798596
236	0xbd163933	-0.036675643
237	0xba0015fc	-0.00048860884
238	0x3ccd583b	0.025066486
239	0x3d921fc6	0.071349666
240	0xbe352882	-0.17691234
241	0xbb667af5	-0.0035168503
242	0x3e6603d9	0.22462405
243	0x3d015f08	0.03158477
244	0x3d3a7c96	0.04552897
245	0xbdae0ae8	-0.08498174
246	0x3e1dcbb2	0.15409735
247	0x3b048b08	0.002022447
248	0x3d67ce83	0.05659343
249	0xbbe2eb82	-0.0069250474
250	0xbd69f61f	-0.057119485
251	0xbdd92b26	-0.10603933
252	0xbd04bc42	-0.0324061
253	0x3d1251b2	0.035722442
254	0x3d1591b6	0.036515914
255	0xbd9adfe6	-0.075622365

model.0.bias f4 [64]
0	0x3d46e458	0.04855761
1	0xbf197691	-0.5994654
2	0xbec58561	-0.38578323
3	0xbf1ea1c1	-0.61965567
4	0xbf27629b	-0.65384835
5	0xbf062336	-0.5239748
6	0xbf1f1ef7	-0.62156624
7	0xbf1efb48	-0.62102175
8	0xbf2c205f	-0.67236894
9	0xbe10ae5c	-0.14129013
10	0xbe4daa9f	-0.20084618
11	0x3e00ab55	0.12565358
12	0xbe8c41d4	-0.27393973
13	0xbf1c381a	-0.61023104
14	0xbf2bc5f3	-0.6709892
15	0xbed8ea4c	-0.42366254
16	0x3eef927e	0.46791452
17	0x3ee5719d	0.44813243
18	0xbf343250	-0.7038927
19	0xbe59db84	-0.21275145
20	0xbf18cd0f	-0.59687895
21	0xbf159cb1	-0.5844222
22	0xbf07c73d	-0.5303839
23	0x3e571e44	0.21007639
24	0xbf324277	-0.6963267
25	0xbf0ee285	-0.5581439
26	0xbea2b4d1	-0.31778577
27	0xbe36fa44	-0.17868906
28	0x3a744bf0	0.0009319177
29	0x3ee0c7ea	0.43902522
30	0x3dd0f6e4	0.10203341
31	0x3ca3b9d5	0.019986073
32	0xbf0b56db	-0.54429406
33	0xbf24ae62	-0.6432859
34	0xbf20a87f	-0.62757105
35	0xbf18dcd1	-0.5971194
36	0x3ef125cf	0.47099158
37	0xbead36f8	-0.33831
38	0xbf36f900	-0.71473694
39	0xbf2267c5	-0.6343959
40	0x3df82864	0.12117079
41	0xbf1be3f0	-0.6089468
42	0xbee31b36	-0.44356698
43	0xbe4375ec	-0.19087952
44	0xbed93f33	-0.4243103
45	0xbf16147f	-0.58625025
46	0xbf33b6eb	-0.70200986
47	0xbed3d3e2	-0.4137259
48	0xbf1bd06e	-0.60864913
49	0xbf133d5d	-0.5751551
50	0xbeaa9a01	-0.3332062
51	0x3d3ddd06	0.046353363
52	0xbe4eb932	-0.20187834
53	0xbf22c844	-0.6358683
54	0x3ee87b27	0.45406458
55	0xbf20e805	-0.62854034
56	0xbf21ae1e	-0.63156307
57	0xbf10d05d	-0.5656794
58	0xbf14bf30	-0.5810423
59	0xbf26f7df	-0.6522197
60	0xbf22fe5f	-0.6366939
61	0x3e0e4176	0.13892159
62	0xbf1e6b20	-0.6188221
63	0x3e3003fc	0.1718902

model.2.weight f4 [128, 64]
0	0xbf242993	-0.6412594
1	0x3e05d9aa	0.13071314
2	0xbdd709fd	-0.10499952
3	0xbd4b0cf6	-0.049572907
4	0x3d9cc54c	0.07654819
5	0x3d4f2f49	0.050582204
6	0xbd4d3bbe	-0.050105803
7	0xbe29cf0d	-0.1658289
8	0x3e3d446f	0.18483137
9	0xbecb877e	-0.3975181
10	0xbecf9ef4	-0.4055096
11	0xbf3011a7	-0.68776935
12	0xbf02f585	-0.51155883
13	0xbdce18e1	-0.10063339
14	0xbdb7ee55	-0.08981005
15	0x3d86a818	0.0657503
16	0x3df2efa8	0.11862117
17	0x3d9ca9dc	0.076495856
18	0x3e6858f5	0.22690184
19	0xbf162870	-0.5865545
20	0xbe8048b8	-0.2505548
21	0xbe73a562	-0.23793557
22	0xbe325640	-0.17415714
23	0xbe0e3ca4	-0.1389032
24	0x3c9fd4d2	0.01951066
25	0xbd11fe0c	-0.03564267
26	0xbe5855f4	-0.21126539
27	0xbe22b8ab	-0.15890758
28	0xbef4513e	-0.47718233
29	0x3ddd9e33	0.1082119
30	0xbed29162	-0.41126543
31	0xbf30cf1c	-0.69066024
32	0xbe4dd6d8	-0.20101488
33	0xbd4d68f7	-0.05014893
34	0x3d5fc48e	0.05463081
35	0xbdc830cc	-0.09774932
36	0x3d9f74db	0.0778596
37	0xbea4fbc7	-0.3222334
38	0xbd136300	-0.035983086
39	0xbde79b1d	-0.113088824
40	0xbf1b6a9a	-0.60709536
41	0xbc03a7bf	-0.008035599
42	0x3e22d06e	0.15899822
43	0xbe0339b3	-0.1281498
44	0xbe2e1294	-0.16999274
45	0xbebfb6c8	-0.3744414
46	0x3d9e0525	0.07715825
47	0xbe80f1e7	-0.25184557
48	0x3e0649e1	0.1311412
49	0xbdc70e26	-0.097194955
50	0xbe2f2429	-0.17103638
51	0xbf41a010	-0.7563486
52	0xbf04328d	-0.51639634
53	0x3cbfe3ba	0.023424018
54	0xbde4794c	-0.11155948
55	0xbdb120cc	-0.08648834
56	0xbcb1c966	-0.02170248
57	0xbc652c0d	-0.013987553
58	0xbda28f6c	-0.07937512
59	0xbf5041dc	-0.81350493
60	0xbe3c8b8e	-0.18412611
61	0xbd0dac85	-0.034588356
62	0xbb654a7a	-0.0034987018
63	0xbf1be281	-0.6089249
64	0xbeb32e31	-0.3499618
65	0xbe320e91	-0.17388369
66	0xbdef239b	-0.11676713
67	0xbe17f073	-0.14837818
68	0x3c48efcf	0.012264206
69	0x3df27d10	0.1184026
70	0xbdbf43b8	-0.09339088
71	0xbda0e188	-0.07855517
72	0xbe29042e	-0.165055
73	0xbe3db3f7	-0.18525682
74	0xbe151276	-0.14557824
75	0xbe7385c9	-0.23781504
76	0xbe9220c2	-0.28540617
77	0xbd107fd5	-0.03527816
78	0x3d60c15e	0.05487191
79	0x3d19b809	0.037529025
80	0x3d944701	0.072401054
81	0x3c2e4143	0.010635677
82	0xbcfa24d0	-0.030535132
83	0xbe1ef401	-0.15522768
84	0xbcb05eae	-0.021529522
85	0x3ce9e503	0.028551584
86	0xbda2a2e5	-0.07941226
87	0xbe00a866	-0.12564239
88	0xbbeed2ba	-0.007288304
89	0xbd925073	-0.07144251
90	0xbdd4d693	-0.10392489
91	0xbe21cb85	-0.15800293
92	0xbeba3e82	-0.36375815
93	0x3e27b9d9	0.16379489
94	0xbe7fe22f	-0.24988626
95	0xbee0e284	-0.43922818
96	0xbe30335c	-0.17207092
97	0xbcc87dc5	-0.024474034
98	0xbe043740	-0.12911701
99	0xbe12799f	-0.14304207
100	0x3cd76bf4	0.026296593
101	0xbe4de255	-0.2010587
102	0xbe2bfe13	-0.1679614
103	0x3e0b9a73	0.13633136
104	0xbe03c2fa	-0.12867346
105	0xbc36fe6c	-0.011169057
106	0x3bbe3a6f	0.0058053057
107	0xbe363ff7	-0.17797838
108	0xbe25a98c	-0.16177958
109	0xbe157653	-0.14595918
110	0x3dab990e	0.08378802
111	0xbe35ae86	-0.17742357
112	0x3cf79180	0.030220747
113	0x3ddc3dd0	0.10753977
114	0xbdb8d9b9	-0.09025902
115	0xbedf620c	-0.4362949
116	0xbe6835a4	-0.22676712
117	0x3d884cb9	0.06655259
118	0xbd2e4988	-0.042550594
119	0x3d5cdf07	0.053923633
120	0xbec18915	-0.37799898
121	0xbdb13287	-0.086522155
122	0x3d21284c	0.03934507
123	0xbedebfaf	-0.43505618
124	0xbbf7ad15	-0.007558475
125	0xbe1fcc61	-0.15605308
126	0xbdec00fd	-0.11523626
127	0xbe0adb33	-0.1356018
128	0xbe826dd3	-0.25474414
129	0xbe5f2942	-0.21793082
130	0xbc42a271	-0.011879549
131	0xbde856bf	-0.113446705
132	0x3d01bdce	0.031675152
133	0x3b7010b4	0.003663105
134	0xbe5f7d43	-0.21825127
135	0xbe34e2c9	-0.17664637
136	0xbd3022ac	-0.043001816
137	0xbeea314b	-0.45740733
138	0x3d8426fe	0.0645275
139	0xbf231c96	-0.63715494
140	0x3cf94584	0.030428655
141	0xbdce2815	-0.10066239
142	0x3c590db1	0.013247893
143	0xbe422431	-0.18959118
144	0xbd800faa	-0.06252988
145	0xbc8ab0ed	-0.016930068
146	0xbbcfa451	-0.0063367267
147	0x3da54615	0.08070008
148	0x3cd7e4b0	0.026354164
149	0xbdc4b2d2	-0.0960442
150	0xbda9c623	-0.08289745
151	0xbc92ec48	-0.017934933
152	0x3cdc0eba	0.02686249
153	0xbd00c630	-0.031439006
154	0x3d86c603	0.065807365
155	0xbdeb8a34	-0.115009695
156	0xbec8a8b1	-0.391912
157	0xbeb8c187	-0.3608515
158	0xbe80b264	-0.251361
159	0xbe4152d0	-0.18879247
160	0xbe4f710c	-0.20257968
161	0xbd84fa2b	-0.06493028
162	0xbeb60a2c	-0.35554636
163	0xbd89f681	-0.0673647
164	0xbd1983e0	-0.03747928
165	0xbe5fa524	-0.2184034
166	0xbcc7e96d	-0.024403298
167	0x3d0f5f4b	0.035002988
168	0xbf0fc390	-0.5615778
169	0xbcff5898	-0.031170174
170	0xbe26d9cc	-0.1629402
171	0xbda4eee8	-0.0805338
172	0x3ce3f4f2	0.02782676
173	0xbda2104a	-0.07913263
174	0xbd152fde	-0.036422603
175	0xbcd22c6a	-0.025655944
176	0xbd7ab3fd	-0.061206806
177	0x3bbc2873	0.0057421266
178	0xbd85d44f	-0.06534635
179	0xbe1a69de	-0.15079448
180	0x3e1fb647	0.15596877
181	0xbe12658e	-0.14296553
182	0xbe05bde9	-0.13060726
183	0x3d8f1037	0.069855146
184	0xbdc90af9	-0.09816546
185	0xbb5e9a97	-0.0033966654
186	0x3c04a829	0.008096733
187	0xbf31c084	-0.6943438
188	0xbc1ceea9	-0.009578385
189	0xbd2c771a	-0.04210577
190	0xbd4e5f44	-0.05038382
191	0xbeaed1ae	-0.34144348
192	0x3e6b1330	0.22956538
193	0x3e02f8c5	0.1279021
194	0x3cd4e1f4	0.02598665
195	0x3e6544a0	0.2238946
196	0x3c692626	0.014230287
197	0x3cfd4d2f	0.030920593
198	0x3d0d09d4	0.0344332
199	0x3e831abb	0.2560633
200	0xbd1a8dc6	-0.037732862
201	0x3e68c0d5	0.2272981
202	0x3e083bb7	0.1330403
203	0x3eb31e82	0.34984213
204	0x3d1f223a	0.038851
205	0x3e4f4434	0.20240861
206	0x3caa0c2d	0.020757759
207	0xbd035d41	-0.032071356
208	0x3dd15c0a	0.10222633
209	0x3e2edf34	0.17077333
210	0x3da643b9	0.08118386
211	0x3d455c87	0.048183944
212	0x3da27ead	0.07934318
213	0x3e123066	0.14276275
214	0x3c9c14a6	0.019052815
215	0xbe033d5c	-0.12816375
216	0xbcef569c	-0.029216103
217	0xbd155a2d	-0.03646295
218	0x3db0aa34	0.08626214
219	0xbdcd4059	-0.10022039
220	0x3e0bc9f1	0.13651253
221	0x3dbd76c2	0.09251167
222	0x3eab1643	0.33415422
223	0x3ea2c170	0.31788206
224	0x3e177524	0.1479078
225	0x3e0847f1	0.13308693
226	0x3e686bf4	0.22697431
227	0x3dad5365	0.08463172
228	0x3d097bad	0.033565212
229	0xbdb09833	-0.0862278
230	0x3db563f5	0.08856956
231	0xbe15734d	-0.14594765
232	0x3e94bc01	0.29049686
233	0xbd8e7b9e	-0.06957172
234	0x3d6f9081	0.05848742
235	0x3cd08c9b	0.02545767
236	0x3d628037	0.055298056
237	0x3e2e25c0	0.17006588
238	0x3cc80d76	0.024420481
239	0xbcfc04d7	-0.030764027
240	0x3eaec0ed	0.34131566
241	0xbb37d330	-0.0028049462
242	0x3cf7e6ec	0.03026148
243	0x3eacba42	0.33735853
244	0x3e5dd062	0.21661523
245	0x3c1bb8e6	0.009504532
246	0x3deaaff7	0.11459344
247	0x3e228193	0.15869741
248	0x3ea54d0b	0.32285342
249	0xbbbc236d	-0.005741528
250	0x3d10df4b	0.0353692
251	0x3e32395c	0.17404693
252	0x3dfcd4d2	0.1234528
253	0xbc52f07b	-0.012874718
254	0xbdf7bd67	-0.120966725
255	0x3e2813f8	0.16413867

model.2.bias f4 [128]
0	0x3e660997	0.22464596
1	0x3dd9d3fd	0.10636137
2	0x3d1ad2b9	0.037798617
3	0x3e1f1ed2	0.15539101
4	0x3b7afc32	0.0038297293
5	0xbd95cafa	-0.07314105
6	0xbd48a585	-0.048985977
7	0xbe827df6	-0.25486726
8	0xbd8524bd	-0.06501148
9	0x3e3410a3	0.17584471
10	0x3e80038d	0.2500271
11	0xbe1ca4fc	-0.15297312
12	0x3d73af1c	0.05949317
13	0xbdea4ea4	-0.11440781
14	0x3db6d819	0.08927936
15	0x3ea1ed83	0.3162652
16	0xbe96bf4c	-0.29442823
17	0xbe454ebd	-0.19268318
18	0x3e02a5bc	0.12758535
19	0x3e78f7d9	0.24313296
20	0x3e32961c	0.17440075
21	0xbed25793	-0.4108244
22	0x3da183f4	0.07886496
23	0xbdadb879	-0.08482451
24	0xbcfda42d	-0.030962074
25	0xbe2ce211	-0.16883112
26	0x3d998cbb	0.07497545
27	0x3e15fdae	0.14647552
28	0x3eb7562d	0.35807934
29	0xbd458cbf	-0.04822993
30	0x3db53709	0.08848388
31	0x3e8903fb	0.2676085
32	0xbdb67b90	-0.089102864
33	0xbede71bb	-0.43446144
34	0xbe075b5a	-0.13218442
35	0xbd89ac01	-0.0672226
36	0x3d877caa	0.06615575
37	0x3b8e482e	0.0043421006
38	0xbe4b5f4e	-0.19860575
39	0xbcb6d412	-0.02231792
40	0xbd46d0e2	-0.04853905
41	0xbdfc29e1	-0.12312675
42	0xbe1e6dac	-0.15471524
43	0xbdeb6434	-0.114937216
44	0xbdd2625e	-0.10272668
45	0xbd7b275b	-0.06131683
46	0xbde10a22	-0.10988261
47	0x3e978107	0.29590628
48	0x3e63c910	0.22244668
49	0x3e3939cd	0.18088455
50	0x3dad73c2	0.08469345
51	0xbe88e1cd	-0.26734772
52	0x3d9c2b17	0.07625406
53	0x3dba2aaf	0.090901725
54	0xbee4c1df	-0.44679162
55	0xbe6cc838	-0.23123252
56	0xbe934c4a	-0.2876914
57	0x3e0ee93a	0.13956156
58	0xbe2d10c7	-0.16900931
59	0xbeda712f	-0.42664477
60	0xbe93c138	-0.28858352
61	0x3dd2168d	0.102582075
62	0x3c3bd184	0.011463527
63	0x3c6226b4	0.013803173
64	0xbda46412	-0.080268994
65	0xbe4c85fe	-0.19972989
66	0x3df975fb	0.12180706
67	0xbe29a2e1	-0.1656604
68	0x3e18b59c	0.14913028
69	0x3e21eb3f	0.15812396
70	0xbd9e86d1	-0.07740558
71	0x3e552e23	0.20818381
72	0xbf3784a2	-0.71686757
73	0x3ba7405e	0.0051041087
74	0xbf0a6df2	-0.54074013
75	0x3e2b9767	0.16756974
76	0xbe03e14f	-0.12878917
77	0x3b2a6362	0.0025999178
78	0xbe98e33d	-0.2986087
79	0x3e16c285	0.14722641
80	0x3da2c690	0.07948029
81	0x3da1b2e5	0.078954495
82	0xbe3e0dd1	-0.18559958
83	0xbe817b4b	-0.25289378
84	0x3d35e7e6	0.04441061
85	0x3e112526	0.14174327
86	0x3de637d9	0.11241121
87	0xbddc3157	-0.10751598
88	0x3ececee1	0.4039221
89	0x3ea03595	0.3129088
90	0xbcb188da	-0.021671701
91	0x3e49cedf	0.19707821
92	0x3d39769f	0.04527914
93	0x3e5c10df	0.21490811
94	0x3e2be45a	0.16786328
95	0x3de124b6	0.1099333
96	0xbd753fd6	-0.05987533
97	0x3e5a4fd2	0.21319512
98	0x3dbce40a	0.092231825
99	0x3e710f82	0.23541072
100	0xbdf135d3	-0.11777844
101	0x3e3257db	0.17416327
102	0xbdbec2fb	-0.09314533
103	0xbe42059a	-0.1894745
104	0x3ebcf077	0.3690221
105	0xbd12917e	-0.035783283
106	0xbdc22bf6	-0.09481041
107	0xbdc818c4	-0.09770349
108	0x3cb01f2f	0.021499244
109	0x3dbb9b22	0.091604486
110	0xbec26e63	-0.37974843
111	0x3e2b0d41	0.16704275
112	0xbec4061b	-0.38285908
113	0x3d29c373	0.04144616
114	0xbdacce90	-0.08437836
115	0xbb698b48	-0.0035635997
116	0xbead2672	-0.33818394
117	0x3e9c243a	0.3049639
118	0xbd0eb40d	-0.03483968
119	0x3e642541	0.22279836
120	0xbcd168c9	-0.02556266
121	0x3c81cabc	0.015843742
122	0xbe8e670f	-0.27813002
123	0xbe551c04	-0.20811468
124	0xbf08ed77	-0.5348734
125	0xbeaec418	-0.34133983
126	0x3dc2f758	0.09519833
127	0x3ec4f206	0.384659

model.4.weight f4 [256, 128]
0	0x3e9f0e41	0.31065562
1	0x3e0a943b	0.13533108
2	0x3dd478a7	0.10374575
3	0xbe13b1a3	-0.14423232
4	0x3d2fd0f5	0.042923886
5	0x3eb88049	0.36035374
6	0xbbcf4a92	-0.006326028
7	0xbd886e09	-0.066616125
8	0x3c3aa7c8	0.011392541
9	0xbd902826	-0.07038908
10	0x3f1ad032	0.6047393
11	0x3be29ab6	0.0069154156
12	0x3eb80616	0.35942143
13	0x3d82bc92	0.06383623
14	0x3d38b49d	0.04509412
15	0xbd35af79	-0.044356797
16	0xbe03eacd	-0.12882538
17	0xbdc019e0	-0.09379935
18	0x3e5a79f8	0.2133559
19	0x3de082e5	0.10962466
20	0xbe3068f6	-0.1722754
21	0xbea21a60	-0.31660748
22	0xbf004b10	-0.50114536
23	0xbe327100	-0.17425919
24	0x3de4be64	0.11169127
25	0xbcc1c292	-0.023652349
26	0x3dcb44bd	0.0992522
27	0x3c47b8e7	0.01219008
28	0xbe3b7cd2	-0.18309334
29	0xbd5b5ca7	-0.053555157
30	0xbe1c36c7	-0.15255271
31	0x3e29ec0f	0.16593955
32	0xbde8b8d5	-0.11363379
33	0xbeaa8000	-0.3330078
34	0xbd524267	-0.051332857
35	0x3c8839fc	0.016629212
36	0xbd9deb18	-0.07710856
37	0x3aa9b10d	0.0012946442
38	0x3e0869a3	0.13321547
39	0xbe2da855	-0.16958745
40	0xbcb7ffd2	-0.022460852
41	0xbd64ad11	-0.05582911
42	0x3d7fb170	0.062425077
43	0xbe30c97a	-0.17264357
44	0xbe671c0f	-0.22569297
45	0x3e36d485	0.17854507
46	0x3c650329	0.013977804
47	0x3ead214f	0.33814475
48	0xbd1c7a7f	-0.03820276
49	0x393b4f97	0.00017863359
50	0xbe945ed2	-0.28978592
51	0x3d23fd67	0.040036585
52	0x3e3a32db	0.18183462
53	0xbe2e21ad	-0.17005034
54	0xbdd9ad4c	-0.10628757
55	0xbdcd8a0f	-0.10036098
56	0xbd08d8ff	-0.03341007
57	0x3e8c08a2	0.27350336
58	0xbdf2d8df	-0.11857771
59	0x3db17f7e	0.08666895
60	0xbec78f36	-0.3897645
61	0x3c1816c8	0.009282775
62	0x3dd51f17	0.104063205
63	0x3e74c434	0.2390297
64	0xbddc7513	-0.10764518
65	0xbf0bec09	-0.54657036
66	0xbd3c303c	-0.045944437
67	0xbe401281	-0.18757059
68	0x3dec8d5c	0.115504
69	0xbdb5b1e2	-0.08871819
70	0x3e2be6f7	0.16787325
71	0x3dc650a2	0.09683348
72	0x3edd0fe9	0.431762
73	0xbda7978a	-0.08183201
74	0x3de70a62	0.11281277
75	0xbec5cd36	-0.38633126
76	0xbdb8ed32	-0.090296164
77	0x3da2e1ae	0.07953201
78	0xbc823d04	-0.015898235
79	0xbd983caa	-0.07433446
80	0xbe9810fa	-0.29700452
81	0x3dc1943c	0.094521016
82	0x3d53462a	0.051580586
83	0xbe754d67	-0.23955308
84	0x3d7c3b60	0.061580062
85	0x3cee4e35	0.029090026
86	0xbf004bd3	-0.501157
87	0xbde9c707	-0.114149146
88	0x3d565c26	0.052333973
89	0xbe0b5166	-0.1360527
90	0xbe7028de	-0.2345309
91	0xbd892889	-0.066971846
92	0x3c263db8	0.010146551
93	0xbf37d12f	-0.71803564
94	0xbd555001	-0.05207825
95	0xbeb57e08	-0.35447717
96	0xbda985c6	-0.082774684
97	0xbe840493	-0.2578474
98	0xbea5b166	-0.32361907
99	0xbf037aa0	-0.51358986
100	0x3e0cb284	0.13739973
101	0xbcdf7151	-0.027275713
102	0xbd6b0b62	-0.057383902
103	0xbd80afa0	-0.06283498
104	0x3d4bb65c	0.04973446
105	0xbde05f22	-0.10955645
106	0x3d68f6ed	0.05687611
107	0x3e521636	0.20516285
108	0x3e26229d	0.16224141
109	0x3e1aa9fd	0.15103908
110	0xbdceaa19	-0.10091037
111	0xbd99d1dc	-0.075107306
112	0x3df4822f	0.11938893
113	0xbdea3919	-0.11436672
114	0xbc35a688	-0.011087067
115	0xbe9d6a41	-0.30745128
116	0xbe0c224a	-0.13684955
117	0x3e8cb8d3	0.2748476
118	0xbe9f6eba	-0.31139165
119	0xbf2ceb84	-0.6754687
120	0xbc4d589f	-0.012533336
121	0xbe662a0e	-0.2247698
122	0xbe7663f9	-0.24061574
123	0x3d4b81cd	0.049684335
124	0xbedd89b4	-0.43269122
125	0xbe8a36a0	-0.269948
126	0x3f2febb8	0.68719053
127	0x3d295b10	0.04134661
128	0xbd9f410d	-0.07776079
129	0x3dfb89d9	0.12282152
130	0x3e0e6778	0.13906658
131	0xbd0639bb	-0.0327699
132	0x3ded6cbc	0.11593005
133	0x3e94f465	0.29092708
134	0x3e1cfa99	0.1532997
135	0x3d9b52f3	0.07584181
136	0x3da54423	0.08069637
137	0xbe3b0df1	-0.18267037
138	0xbd0fe7db	-0.035133224
139	0xbdda31cf	-0.106540315
140	0xbe512293	-0.20423345
141	0x3d570173	0.052491616
142	0xbf089687	-0.53354686
143	0x3ed2a0e6	0.4113838
144	0x3d441e20	0.047880292
145	0x3d0e91f6	0.034807168
146	0xbe819abe	-0.2531337
147	0x3e5edae4	0.21763188
148	0xbe179be4	-0.14805561
149	0x3d3cde5b	0.046110492
150	0x3d905385	0.0704718
151	0x3e09b862	0.13449243
152	0xbd01ffbe	-0.031738035
153	0x3e88f5d0	0.2675004
154	0xbec2a9c9	-0.3802016
155	0x3e309c0e	0.1724703
156	0xbea0093d	-0.31257048
157	0x3dcf72b6	0.10129301
158	0x3e66f535	0.22554477
159	0x3e908259	0.28224447
160	0x3dd588de	0.10426496
161	0x3d4cb7b5	0.049979884
162	0x3e3cad4b	0.18425481
163	0xbd8762a5	-0.06610612
164	0xbc106864	-0.008813951
165	0x3e14245d	0.14466996
166	0x3d8f57be	0.06999157
167	0xbe95eb9c	-0.29281318
168	0xbe3d42bd	-0.1848249
169	0x3cc99e10	0.024611503
170	0xbdc495c9	-0.09598882
171	0x3d8b090e	0.067888364
172	0x3df5e281	0.12006093
173	0xbca306c8	-0.019900694
174	0xbcfa1d30	-0.030531496
175	0x3ca28052	0.019836579
176	0xbe9fd4ca	-0.31217033
177	0x3e918820	0.28424168
178	0xbe9c16af	-0.30486056
179	0xbcc8d8e6	-0.024517488
180	0x3d00bd1b	0.031430345
181	0xbe954cb2	-0.29160076
182	0x3e6ddd85	0.23229034
183	0x3ca6187b	0.020275345
184	0x3ed50e7f	0.41612622
185	0x3efccde4	0.49375832
186	0x3e2d382f	0.16915964
187	0x3dca90b8	0.09890884
188	0x3d837951	0.06419624
189	0xbdb7ca35	-0.08974115
190	0x3e31270b	0.1730005
191	0xbe99208a	-0.29907638
192	0x3df879ad	0.12132583
193	0xbeecea0e	-0.4627232
194	0x3d322453	0.043491673
195	0xbe47384c	-0.1945507
196	0x3e9cfe98	0.3066299
197	0x3e9a6381	0.3015404
198	0xbe91a8e1	-0.28449157
199	0x3ec6706a	0.3875764
200	0xbe3cc21d	-0.18433423
201	0xbd9c4500	-0.07630348
202	0xbd486347	-0.048922803
203	0x3e3c3ac2	0.1838179
204	0x3e9cfd6a	0.3066209
205	0x3d9ba412	0.07599653
206	0xbe8e5f06	-0.27806872
207	0xbdc358c6	-0.095384166
208	0xbdb135fd	-0.086528756
209	0x3de74667	0.11292725
210	0x3d12ba48	0.035822183
211	0xb9bba3c9	-0.0003578945
212	0xbe371202	-0.17877963
213	0x3e1c4134	0.15259248
214	0x3ea45216	0.32093877
215	0x3d58cb94	0.052928522
216	0x3e97673b	0.29570946
217	0xbe4b441c	-0.198502
218	0xbda4b0e5	-0.080415525
219	0xbd8559f6	-0.06511299
220	0x3e045389	0.12922491
221	0x3e985adc	0.2975682
222	0x3d8dc099	0.06921501
223	0x3d6ca6dc	0.057776317
224	0xbcb24e85	-0.021765957
225	0xbe23ea8e	-0.16007444
226	0xbe72fcfa	-0.23729315
227	0x3e27d9e0	0.16391706
228	0x3e9eb3c1	0.30996516
229	0xbd9a3d0d	-0.07531176
230	0x3dc78cdd	0.097436644
231	0xbd08a5da	-0.033361293
232	0x3ed4e983	0.41584405
233	0xbd2d82a4	-0.042360917
234	0xbd80cd53	-0.062891625
235	0xbe094584	-0.13405424
236	0xbf91c571	-1.1388379
237	0x3e40ca64	0.18827206
238	0xbbd30b9c	-0.006440593
239	0xbe3e05f1	-0.18556954
240	0xbbd719ab	-0.006564339
241	0x3e4131d4	0.18866664
242	0x3ca26dde	0.01982778
243	0x3e006697	0.12539135
244	0x3d8cfa69	0.068836994
245	0xbe228d40	-0.15874195
246	0x3d22e478	0.039768666
247	0xbdd56931	-0.10420454
248	0x3e455cac	0.19273633
249	0x3e19c1a9	0.15015282
250	0x3c95f81b	0.018306782
251	0xbdbdc5a5	-0.09266213
252	0xbdf4bb1d	-0.119497515
253	0xbe5a3268	-0.21308291
254	0xbe651761	-0.223722
255	0xbe89ea40	-0.2693653

model.4.bias f4 [256]
0	0x3e08c334	0.13355714
1	0xbb94ba0e	-0.004538781
2	0xbd0f9055	-0.035049755
3	0xbea07165	-0.31336513
4	0x3bfd20e2	0.007724867
5	0x3d2b7cb1	0.041866962
6	0x3d08452b	0.03326909
7	0xbf1aaec8	-0.60422945
8	0xbe0ec564	-0.13942486
9	0xbdec378b	-0.115340315
10	0xbd8023eb	-0.06256851
11	0x3de227dc	0.11042759
12	0xbe6a6997	-0.22891842
13	0x3d200164	0.039063826
14	0x3d0fbe8e	0.035093836
15	0xbe0e3df7	-0.13890825
16	0x3da2f4bf	0.07956838
17	0x3c83cadc	0.016087942
18	0xbdcabc16	-0.09899156
19	0x3dc718b2	0.09721507
20	0xbdf10c9b	-0.117699824
21	0x3da81c89	0.08208568
22	0xbb81f69e	-0.0039661666
23	0x3e140ef8	0.14458835
24	0x3e10b8c3	0.14132981
25	0x3db22695	0.08698765
26	0x3cecc9f0	0.028904885
27	0xbe1c9e57	-0.15294777
28	0x3dd0ccfb	0.10195347
29	0xbe26bcbd	-0.16282935
30	0xbdde51a4	-0.108554155
31	0xbe27ce23	-0.16387229
32	0x3e2ba3e4	0.16761738
33	0xbe05a4f1	-0.13051201
34	0xbeea733e	-0.45791048
35	0xbd3870e9	-0.045029555
36	0xbde259ec	-0.110523075
37	0x3e5b5e2a	0.2142264
38	0x3e7439d1	0.2385018
39	0x3d23bcc6	0.03997495
40	0xbd950c7b	-0.07277771
41	0xbceba845	-0.02876676
42	0xbe48e9bd	-0.19620414
43	0x3c3c1cd4	0.011481483
44	0xbdc9f199	-0.09860534
45	0xbc7affae	-0.015319748
46	0x3dc5d828	0.09660369
47	0xbdd0da62	-0.10197903
48	0xbb764c17	-0.0037581974
49	0xbe8f07e8	-0.2793572
50	0x3d92e70c	0.07172975
51	0xbdbe3e3e	-0.092892155
52	0x3db5721b	0.088596545
53	0xbd381208	-0.04493907
54	0x3e988579	0.29789332
55	0x3c345e29	0.011008778
56	0x3d3e671b	0.046485048
57	0xbeaea477	-0.34109852
58	0x3cf642ac	0.030061089
59	0xbe757b9e	-0.23972937
60	0x3e1e2f31	0.1544769
61	0xbd266423	-0.04062284
62	0xbf0b89ae	-0.5450696
63	0x3e957fa2	0.2919894
64	0x3c82a7ef	0.015949218
65	0x3de6d021	0.11270166
66	0xbdccb908	-0.099962294
67	0xbe318731	-0.17336728
68	0xbd5a541d	-0.053302873
69	0x3ded72eb	0.115941845
70	0x3e14ec2f	0.14543222
71	0x3c8aaba6	0.016927551
72	0xbe85cbd2	-0.26132065
73	0xbe76b6a5	-0.24093111
74	0xbe295e50	-0.16539884
75	0xbd87dd33	-0.06633987
76	0xbca88d65	-0.020575235
77	0xbcec117b	-0.02881693
78	0x39e3111f	0.0004330957
79	0xbdba2115	-0.09088341
80	0xbe682cfb	-0.22673409
81	0xbd825d16	-0.06365411
82	0x3dd07b0d	0.1017972
83	0xbe79c905	-0.24393089
84	0xbdb34525	-0.08753423
85	0xbdf356c1	-0.11881781
86	0x3d8b3ed0	0.0679909
87	0xbe244a5b	-0.1604399
88	0xbe46e418	-0.19422948
89	0xbd9896b7	-0.074506216
90	0xbd05f5e7	-0.032705214
91	0xbddf3aa8	-0.1089986
92	0xbd896ae8	-0.06709844
93	0x3d0ca69b	0.034338575
94	0x3e2d967e	0.1695194
95	0xbd588a7d	-0.052866448
96	0x3e1db54d	0.15401192
97	0xbd83b3a4	-0.06430748
98	0x3e2a577b	0.16634934
99	0x3d253ba0	0.040340066
100	0x3dfd3a46	0.123646304
101	0x3df3ed09	0.11910445
102	0x3d9589ae	0.07301651
103	0xbe48e287	-0.19617663
104	0x3d42e7cd	0.047584344
105	0x3c66a970	0.014078483
106	0xbe8f9740	-0.28045082
107	0xbe9caa00	-0.3059845
108	0xbcb05b36	-0.021527868
109	0x3c8f5590	0.017496854
110	0xbc8a9561	-0.016916933
111	0xbe60c1f4	-0.21948987
112	0x3d91a219	0.07110996
113	0xbe9bb4c3	-0.30411348
114	0x3c1da3fc	0.009621616
115	0xbe3207f1	-0.17385842
116	0x3d3a4f4f	0.04548579
117	0xbe952d53	-0.29136142
118	0xbdbca067	-0.09210282
119	0x3d3d8eb1	0.04627866
120	0xbe5b19e8	-0.21396601
121	0xbe3ea7cd	-0.18618698
122	0xbe557dac	-0.20848721
123	0x3b0b7fc4	0.002128587
124	0x3e8727a4	0.2639743
125	0x3e13688d	0.14395352
126	0x3e64d1c8	0.2234565
127	0xbe8cdeca	-0.27513725
128	0x3db8f16f	0.09030425
129	0x3e256013	0.1614993
130	0xbcc4d67d	-0.024028057
131	0xbd49f2a6	-0.049303673
132	0xbd816d79	-0.063197084
133	0xbe4ea9ad	-0.20181914
134	0x3d08f716	0.033438765
135	0xbd5d9c3f	-0.054104086
136	0xbdb85b07	-0.09001737
137	0xbc1ddd86	-0.009635335
138	0x3e0e27f6	0.13882431
139	0x3d901ef4	0.07037154
140	0xbcbbc012	-0.022918735
141	0x3bf7e3cd	0.0075649978
142	0xbccab490	-0.024744302
143	0xbe082578	-0.13295543
144	0x3dcc3ee4	0.09972933
145	0x3da612e5	0.081090726
146	0xbe8bc19c	-0.2729615
147	0xbe1b7b7c	-0.15183824
148	0xbd4b0e13	-0.04957397
149	0x3d520ea0	0.05128348
150	0xbe0183a0	-0.12647867
151	0x3e1d6883	0.153719
152	0xbe5cfcb1	-0.21580769
153	0x3c89a4a5	0.016802141
154	0x3d223b13	0.03960712
155	0x3d64b724	0.05583872
156	0x3e10f48f	0.14155792
157	0xbc95b0c2	-0.018272761
158	0xbe411bd1	-0.18858267
159	0x3c12b6ae	0.008954687
160	0x3e9f459c	0.31107795
161	0x3e6ebf0d	0.23315068
162	0x3e043210	0.12909722
163	0xbcc3b981	-0.023892166
164	0xbe621311	-0.22077586
165	0xbdb2d6fd	-0.08732412
166	0xbe1b3119	-0.15155448
167	0xbe3ddb2f	-0.18540643
168	0x3d03c963	0.03217448
169	0x3dd33152	0.103121415
170	0x3e0e22bd	0.13880439
171	0xbd0be464	-0.034153357
172	0xbd131cf8	-0.0359163
173	0xbd7b6fff	-0.061386105
174	0xbd274ef0	-0.040846765
175	0x3da637dc	0.08116123
176	0x3b0c1e8d	0.0021380514
177	0xbe585731	-0.21127011
178	0xbd6667b3	-0.05625124
179	0x3dda5d13	0.10662284
180	0x3e6caa1d	0.23111768
181	0xbd9adec1	-0.07562018
182	0xbd8f4fb7	-0.06997626
183	0x3e442867	0.19156037
184	0xbd9a5d3b	-0.075373136
185	0xbd724594	-0.059148386
186	0x3e0a2f85	0.1349469
187	0xbc63feb1	-0.013915704
188	0x3e7fa2b2	0.24964407
189	0xbcb7ebdb	-0.022451332
190	0xbd9980a0	-0.074952364
191	0x3d27ff48	0.04101494
192	0x3c825b35	0.015912632
193	0xbcbffeab	-0.023436865
194	0xbe0d1dcc	-0.13780898
195	0xbe6de71d	-0.23232694
196	0x3e902dbb	0.2815989
197	0x3e57229e	0.21009299
198	0xbd8e4d4b	-0.06948336
199	0x3e2aeb36	0.16691288
200	0xbd7fc4e3	-0.062443625
201	0x3e99484c	0.2993797
202	0x3dbe593a	0.09294362
203	0xbeb853b4	-0.3600136
204	0x3e79aea9	0.24383034
205	0xbe9ce403	-0.3064271
206	0x3e13fc83	0.14451794
207	0x3d2843f8	0.041080445
208	0x3e879779	0.26482752
209	0xbef07745	-0.46965995
210	0xbe2dacff	-0.16960524
211	0xbe4ebed3	-0.20189981
212	0xbdef357c	-0.11680123
213	0xbe55aa2c	-0.20865697
214	0xbdddf6ed	-0.10838113
215	0xbe3e520d	-0.18585987
216	0xbe1ad535	-0.15120395
217	0xbdceb8b7	-0.10093825
218	0xbd92943a	-0.07157178
219	0x3e2c9157	0.16852318
220	0x3dbd4734	0.092420965
221	0x3d933c4b	0.07189234
222	0xbe8ceab0	-0.27522802
223	0x3eab5328	0.3346188
224	0xbdb9a0f2	-0.09063901
225	0x3d376032	0.044769473
226	0xbdea1bfe	-0.1143112
227	0xbd43a10b	-0.047761004
228	0xbe0274f8	-0.12739933
229	0x3d02b719	0.031912897
230	0x3d476098	0.048676103
231	0x3d49fc91	0.04931313
232	0xbe8463fe	-0.25857538
233	0xbdd18a7f	-0.10231494
234	0xbd8c512a	-0.06851418
235	0xbc835113	-0.01602987
236	0xbe217db5	-0.1577061
237	0x3e0e8924	0.13919502
238	0x3e046023	0.12927298
239	0xbea67847	-0.3251364
240	0xbd3c94ad	-0.046040226
241	0xbcdb67c3	-0.026782876
242	0xbcf0ae31	-0.029379936
243	0x3d2b8260	0.041872382
244	0xbd8d13cd	-0.06888542
245	0xbe80b1a8	-0.2513554
246	0xbd6e306a	-0.05815164
247	0xbe106fea	-0.14105192
248	0x3d0ab0f1	0.03386015
249	0x3dccbf73	0.099974535
250	0xbda6999d	-0.08134768
251	0x3e3e8312	0.18604687
252	0xbe36d170	-0.17853332
253	0x3e2d95a2	0.16951612
254	0xbc43c975	-0.011949887
255	0xbd04a07b	-0.03237961

model.6.weight f4 [8, 256]
0	0x3e4dd321	0.2010007
1	0xbe739f71	-0.23791291
2	0xbe2db121	-0.169621
3	0x3dbe6976	0.09297459
4	0xbf194342	-0.5986825
5	0x3d87405b	0.06604072
6	0x3ea50c1c	0.322358
7	0x40bd3a00	5.91333
8	0xbd500282	-0.05078364
9	0xbe17eb55	-0.14835866
10	0x3f29a373	0.6626503
11	0x3eb31f2e	0.34984726
12	0xbf08cd16	-0.53437936
13	0x3ef9d728	0.48796964
14	0xbe51dfbb	-0.20495503
15	0x3e10668b	0.14101617
16	0xbdaa3448	-0.08310753
17	0xbd83b8d1	-0.06431735
18	0x3d6b58d2	0.057457753
19	0xbe13b036	-0.14422688
20	0x3f0da1a2	0.5532476
21	0x3e64334d	0.22285195
22	0xbdf657da	-0.12028475
23	0xbe873804	-0.26409924
24	0xbe094818	-0.13406408
25	0x3e2969e7	0.16544305
26	0xbe8801e2	-0.26563936
27	0x3e420dd4	0.18950588
28	0xbd076908	-0.03305915
29	0xbe2ffd9e	-0.17186591
30	0xbe3fbdda	-0.18724766
31	0x3c4d085e	0.012514202
32	0xbe829469	-0.25503853
33	0x3e97303c	0.29528987
34	0xbd26f443	-0.04076029
35	0x3e92e10a	0.28687316
36	0x3d82a156	0.06378429
37	0xbeaf96c5	-0.34294716
38	0x3f0300f0	0.51173306
39	0x3e092998	0.13394773
40	0x3eb50208	0.35353112
41	0x3dabad6b	0.08382686
42	0xbcf3df05	-0.02976943
43	0xbf4985ee	-0.78719985
44	0xbec371b3	-0.38172683
45	0x3e30157f	0.171957
46	0x3ead8c3a	0.33896047
47	0x3f1d7fed	0.61523324
48	0xbdffd3fb	-0.12491604
49	0x3dbeb354	0.09311548
50	0xbb789cad	-0.0037935183
51	0x3e4f99a7	0.20273457
52	0x3e59d926	0.21274242
53	0x3f1c73b0	0.61114025
54	0xbe4fc19d	-0.20288701
55	0x3edb6c0c	0.4285587
56	0xbdc01db2	-0.09380664
57	0xbe1192ab	-0.14216106
58	0x3e93dae0	0.28877926
59	0xbd14863f	-0.03626084
60	0xbe66345f	-0.22480915
61	0x3d459181	0.048234466
62	0xc09e1688	-4.9402504
63	0xbe4f5292	-0.20246342
64	0x3e5c1a6b	0.21494453
65	0x3f1c8b5e	0.6115016
66	0x3d672f4f	0.0564416
67	0xbd8935f1	-0.06699742
68	0xbc1b9d4d	-0.009497953
69	0x3ea131d2	0.31483322
70	0xbe9332a1	-0.28749564
71	0xbe2943d0	-0.16529775
72	0x3cb71297	0.022347732
73	0x3e403751	0.18771102
74	0x3ef57fcb	0.4794906
75	0xbd18d5d8	-0.037313312
76	0x3e52613a	0.20544901
77	0xbee85a1d	-0.4538125
78	0xbdd62267	-0.104557805
79	0x3f55025a	0.83206713
80	0x3d1cc6a6	0.038275383
81	0x3edb6cc9	0.42856434
82	0x3eb21e07	0.34788534
83	0x3f0d0d18	0.55098104
84	0x3cb885c1	0.022524716
85	0x3e8db569	0.27677467
86	0x3c9bebb1	0.019033285
87	0xbdc8e40d	-0.09809122
88	0xbc02ae49	-0.007976123
89	0xbdb99fbe	-0.090636715
90	0xbd5a08c5	-0.05323102
91	0xbe55ab3a	-0.20866099
92	0x3e7c5247	0.24640761
93	0x3e473ac7	0.19456016
94	0xbe8df0d1	-0.2772279
95	0xbe878a2f	-0.26472613
96	0xbd90d6df	-0.070722334
97	0x3c9e8c9b	0.019354155
98	0xbeb6144d	-0.35562363
99	0x3f02e4d7	0.5113043
100	0x3f0752ba	0.52860606
101	0xbe8708be	-0.26373857
102	0x3e4736bc	0.19454473
103	0xbdefba82	-0.117054954
104	0x3e02b76b	0.12765281
105	0xbebec68d	-0.37260857
106	0xbe8673d4	-0.26260245
107	0x3ebd3221	0.36952308
108	0xbe553850	-0.20822263
109	0x3eba2f07	0.36364004
110	0x3e904fcd	0.28185883
111	0x3eae9300	0.34096527
112	0xbe1e01f4	-0.15430433
113	0xbd40870c	-0.04700379
114	0x3d2bdfca	0.04196147
115	0xbe872ca3	-0.26401243
116	0xbe1d7121	-0.15375187
117	0x3e710ee3	0.23540835
118	0xbd761ce3	-0.060086142
119	0x3eaaf309	0.33388546
120	0xbf1e48d9	-0.61829907
121	0xbef0e656	-0.47050732
122	0xbe3311e7	-0.17487298
123	0xbe0b1d6e	-0.13585445
124	0x3e8d9156	0.27649945
125	0xbde788c4	-0.11305383
126	0xbefae03b	-0.489992
127	0xbe3deadb	-0.18546622
128	0x3dc71e1f	0.09722542
129	0xbc6eccf8	-0.014575236
130	0x3eac567d	0.33659735
131	0xbea964e9	-0.330848
132	0xbe57c6c8	-0.21071923
133	0xbdbfe181	-0.09369183
134	0x3e030077	0.12793146
135	0x3f1054c3	0.56379336
136	0xbc8874fe	-0.016657349
137	0x3f1b43c7	0.60650295
138	0xbe946dbe	-0.28989977
139	0xbe4762ea	-0.19471326
140	0xbf2762bb	-0.65385026
141	0xbeb27d4a	-0.34861213
142	0x3e952511	0.29129842
143	0xbe081df4	-0.13292676
144	0xbd99f5e7	-0.07517605
145	0xbd8c218a	-0.068423346
146	0xbd499bd3	-0.04922087
147	0x3e587b59	0.21140803
148	0xbe9bd7b6	-0.30438012
149	0xbce3c40c	-0.027803443
150	0xbe1895df	-0.14900921
151	0x3efb4d2d	0.49082318
152	0xbd974b2a	-0.07387383
153	0x3d638565	0.055547137
154	0xbd0ba486	-0.03409245
155	0x3e9dea22	0.30842692
156	0xbe4ee87d	-0.20205875
157	0xbe49bf6f	-0.19701932
158	0xbcb7ff3f	-0.022460578
159	0x3ea863d6	0.3288867
160	0xbebdeb4a	-0.37093574
161	0x3be21d37	0.0069004553
162	0x3ef165ff	0.4714813
163	0x3c9d41f4	0.019196488
164	0xbca42cae	-0.020040836
165	0x3ef96e2d	0.4871687
166	0xbdd10213	-0.10205474
167	0xbd8a25cc	-0.067454904
168	0xbdb0da6f	-0.08635413
169	0xbdc9d5d0	-0.098552346
170	0xbe1efff6	-0.15527329
171	0x3eca4098	0.39502406
172	0xbd7ee28f	-0.06222778
173	0xbd8eeb28	-0.06978446
174	0x3ea6fa8f	0.32613036
175	0x3d971e9c	0.07378885
176	0xbe5067ce	-0.20352098
177	0x3e5b7249	0.21430315
178	0x3edf9b13	0.43673
179	0xbd90002a	-0.07031281
180	0xbf08ea70	-0.53482723
181	0x3becaece	0.007222987
182	0xbe2b4fdd	-0.16729684
183	0xbea84a85	-0.32869354
184	0x3ebc3900	0.36762238
185	0x3e8a854b	0.2705482
186	0x3eac534e	0.33657306
187	0x3eb6d878	0.35712028
188	0xbeb8371f	-0.35979554
189	0xbde96e86	-0.11398034
190	0xbe051702	-0.12997058
191	0xbe577367	-0.21040116
192	0xbe5d8baf	-0.21635316
193	0x3e4315a4	0.19051224
194	0x3ed8fa8a	0.42378646
195	0xbe50ed9f	-0.20403145
196	0xbe71eaea	-0.23624769
197	0x3f1c127d	0.6096571
198	0x3d1776d9	0.036978576
199	0xbe38f923	-0.18063788
200	0x3e68c10e	0.22729895
201	0xbedec87a	-0.43512326
202	0x3f100e58	0.56271887
203	0xbf033330	-0.5124998
204	0xbe727dce	-0.23680803
205	0xbcf4bbf9	-0.029874789
206	0x3f0d080f	0.5509042
207	0x3e1585b0	0.14601779
208	0x3ea390ea	0.31946498
209	0x3bbaa1c1	0.005695552
210	0xbeedce89	-0.46446636
211	0xbd40534d	-0.04695444
212	0x3eb2f019	0.34948805
213	0xbd859515	-0.06522576
214	0xbef9a3c7	-0.48757765
215	0xbd85beae	-0.0653051
216	0x3dc00ff2	0.09378041
217	0x3f16d051	0.58911616
218	0x3e75d50e	0.24007055
219	0x3f151c5a	0.58246386
220	0xbee1a08d	-0.44067803
221	0x3f30e25b	0.6909539
222	0xbe85830d	-0.26076546
223	0x3d453bf7	0.04815289
224	0x3eda8e95	0.42686906
225	0xbe30f7cd	-0.17282028
226	0x3ccf1210	0.025277168
227	0x3f709d93	0.9399044
228	0x3e2742b6	0.16334042
229	0x3e55dd1f	0.20885132
230	0x3e78fc96	0.24315104
231	0x3ecc020d	0.39845315
232	0x3d5173d0	0.051135838
233	0x3ed85612	0.42253166
234	0xbe47e6f1	-0.19521691
235	0x3c1e0727	0.00964526
236	0xbe0af142	-0.13568595
237	0x3e89fa4f	0.26948783
238	0xbe91f3aa	-0.28506213
239	0xc060d95a	-3.513266
240	0x3c41ff4e	0.011840655
241	0x3e86f744	0.26360524
242	0x3f3447c8	0.7042203
243	0xbd3b70b9	-0.045761798
244	0xbdd17ce4	-0.10228899
245	0x3cd1d879	0.025615918
246	0x3ea2be80	0.31785965
247	0xbec8b287	-0.39198706
248	0xbdb4be1f	-0.08825325
249	0xbd8c43fc	-0.068489045
250	0xbec9aa04	-0.39387524
251	0x3bbe7ba5	0.0058130794
252	0x3e6385dd	0.22219034
253	0x3f05bd1c	0.52241683
254	0x3d186809	0.03720859
255	0xbd9c26a1	-0.076245554

model.6.bias f4 [8]
0	0x3da11bad	0.07866607
1	0xbd82bbfc	-0.063835114
2	0xbbaa01da	-0.005188209
3	0x3bd5ebb8	0.006528344
4	0xbcd92c0c	-0.026510261
5	0x3deccb2b	0.11562189
6	0x3d1b7000	0.03794861
7	0x3d264c86	0.040600322
