guardai/models/intrusion/intrusion_discriminator.pt (torch, 177135 bytes, 7 tensors)

model.0.weight f4 [256, 8]
0	0x3e93fa24	0.2890178
1	0xbe8d438a	-0.2759059
2	0xbeb5aac5	-0.3548185
3	0xbdc7ded9	-0.09759302
4	0xbc29fdd6	-0.010375461
5	0xbd11deb4	-0.035612777
6	0xbc89c63a	-0.016818155
7	0x3b97aad9	0.004628521
8	0xbe5e7fd5	-0.21728452
9	0xbec7af87	-0.39001104
10	0xbd754c09	-0.059886966
11	0xbe2e6c2c	-0.17033452
12	0x3e12649a	0.14296189
13	0xbe77d690	-0.24202943
14	0x3d886aa1	0.06660963
15	0x3db231cf	0.087009065
16	0x3efa6d9c	0.4891175
17	0x3d4b3896	0.04961451
18	0x3ee34493	0.44388255
19	0xbd42efce	-0.047591977
20	0x3e0397fb	0.12850945
21	0x3c533a4a	0.012892315
22	0xbd88887a	-0.06666656
23	0xbdc5c92d	-0.09657512
24	0x3e1fa606	0.15590677
25	0xbb5e6534	-0.0033934833
26	0x3f211f9a	0.62938845
27	0xbc8f03e8	-0.017457917
28	0xbce684ff	-0.02813959
29	0xbd4d5f0c	-0.050139472
30	0x3c42d5ae	0.0118917655
31	0x3b4f2a75	0.0031611
32	0xbf25495f	-0.6456508
33	0x3efb599a	0.49091798
34	0xbd124106	-0.035706542
35	0xbe1342a5	-0.14380892
36	0x3aade2a1	0.0013266393
37	0xbd1a313c	-0.03764461
38	0xbd7a99ce	-0.061181836
39	0xbc386685	-0.011254911
40	0x3e8f8636	0.28032082
41	0xbf36a981	-0.7135239
42	0x3dcfa899	0.10139579
43	0x3c9a0d51	0.018805178
44	0x3dbe9b90	0.09307015
45	0xbe3e3499	-0.18574752
46	0x3d4b62aa	0.04965464
47	0xbdf47c85	-0.11937813
48	0xbb422d5d	-0.002962909
49	0xbed17695	-0.40910783
50	0xbec91fd1	-0.39282086
51	0x3d1ec88c	0.038765475
52	0xbcecdf57	-0.02891509
53	0xbc9d77a0	-0.01922208
54	0x3be12ac1	0.0068715517
55	0x3d0d7642	0.034536608
56	0xbec8d9e4	-0.39228737
57	0xbde9519e	-0.1139252
58	0xbd75fa0f	-0.060052928
59	0x3eaa1a39	0.3322313
60	0x3e8ed522	0.27896982
61	0xbe10874e	-0.14114115
62	0xbd1bdde5	-0.038053412
63	0x3e806050	0.2507348
64	0xbf0c1f97	-0.547357
65	0xbe197a1a	-0.14987984
66	0xbeb8b1e5	-0.36073223
67	0x3b26fd20	0.0025480464
68	0x3d395775	0.04524942
69	0xbeae5e94	-0.34056532
70	0xbdbc5942	-0.09196712
71	0x3dde581c	0.10856649
72	0xbe293981	-0.16525842
73	0xbef38df9	-0.47569254
74	0x3e987c70	0.29782438
75	0x3e1c9afe	0.152935
76	0x3e2a82d6	0.16651472
77	0x3e0bd941	0.13657095
78	0x3ca46022	0.020065371
79	0xbc9756df	-0.01847404
80	0xbd2ff94d	-0.04296236
81	0xbe0e8b12	-0.13920239
82	0xbcf279e2	-0.029599134
83	0xbe35adbc	-0.17742056
84	0x3c2bfbc3	0.010497036
85	0xbe4ec8ea	-0.2019383
86	0xbdb579d7	-0.0886113
87	0x3e9c073a	0.30474263
88	0x3ea0b379	0.31386927
89	0xbcf6bb7b	-0.030118695
90	0x3ed4d0eb	0.41565642
91	0xbdb9454a	-0.09046419
92	0x3b1ceae8	0.0023943726
93	0x3d49ef67	0.049300577
94	0xbcb185f9	-0.021670328
95	0x3c97f326	0.01854856
96	0xbe906018	-0.28198314
97	0x3de7431c	0.11292097
98	0xbe1819e3	-0.14853625
99	0x3ee99b76	0.4562642
100	0xbe698769	-0.22805561
101	0xbe197fa4	-0.14990097
102	0x3cdac3bd	0.026704663
103	0x3cdc9962	0.026928607
104	0xbe349122	-0.17633489
105	0xbd4633f9	-0.04838941
106	0xbd64f948	-0.055901796
107	0xbe036465	-0.12831266
108	0x3e29a434	0.16566545
109	0xbdf32152	-0.1187159
110	0xbe6dd451	-0.23225524
111	0xbd703a4c	-0.058649346
112	0xbeeea744	-0.4661199
113	0x3e8d7b83	0.27633294
114	0xbccf5f88	-0.025314108
115	0x3d4a6cd1	0.04942018
116	0x3d383ac6	0.044977926
117	0xbe590ac7	-0.21195517
118	0xbd7992f0	-0.060931146
119	0x3d389981	0.045068268
120	0x3ef6eabf	0.48225972
121	0xbefcb259	-0.49354818
122	0xbb803fbf	-0.003913849
123	0xbcdf4a73	-0.02725718
124	0xbc83943e	-0.016061898
125	0xbcde9c45	-0.027174124
126	0xbc8851bd	-0.016640538
127	0xbad594bc	-0.0016294937
128	0x3d911a11	0.0708505
129	0x3e49f0d8	0.19720781
130	0xbe5726a9	-0.21010841
131	0xbdfc7276	-0.12326519
132	0x3dc8a755	0.09797541
133	0xbe6b55a4	-0.22981888
134	0x3e4723e7	0.1944729
135	0x3e023c47	0.12718306
136	0x3ea43bf3	0.32076988
137	0xbcf7b4dc	-0.030237608
138	0x3f0d3b1b	0.5516831
139	0x3c150c60	0.009097189
140	0xbd220985	-0.03955986
141	0x3cac772e	0.021052923
142	0x3da9c126	0.08288793
143	0xbd8b295a	-0.067949966
144	0x3eead49b	0.4586533
145	0x3edf5b8c	0.43624532
146	0xbc7b1011	-0.015323655
147	0xbc4756b6	-0.01216667
148	0xbd987038	-0.07443279
149	0xbcf48172	-0.02984688
150	0x3d07fbf9	0.033199284
151	0xbe0f4907	-0.13992701
152	0xbef99592	-0.48746926
153	0xbd8bd503	-0.06827738
154	0xbee0d767	-0.4391434
155	0x3c9e63e4	0.019334741
156	0x3e62a1be	0.22132012
157	0x3e01f00e	0.1268923
158	0xbd8c3cec	-0.068475574
159	0xbd47c469	-0.048771296
160	0x3e4e4816	0.20144686
161	0xbe9ad133	-0.3023773
162	0xbe24fbe5	-0.16111715
163	0x3ea36240	0.31910896
164	0x3e469484	0.19392592
165	0xbdc70b57	-0.0971896
166	0x3e379e89	0.1793157
167	0xbd83b3ce	-0.064307794
168	0xbe3f4f13	-0.18682508
169	0x3d97a040	0.07403612
170	0x3c745293	0.014912265
171	0x3e95b723	0.29241285
172	0x3d2bb405	0.041919727
173	0x3d667474	0.056263402
174	0x3e66f397	0.2255386
175	0xbd790973	-0.060800027
176	0x3ddf0642	0.108898655
177	0x3eb1593a	0.34638387
178	0x3e7cbcfe	0.2468147
179	0xbd5fce58	-0.054640144
180	0x3ea062a6	0.31325263
181	0x3d0bb502	0.03410817
182	0x3dc8b87c	0.098008126
183	0xbe03244d	-0.12806816
184	0x3ef3b6d2	0.47600418
185	0x3e831784	0.25603878
186	0x3e4ff5a0	0.20308542
187	0x3eb1f2ed	0.3475565
188	0x3d658ccb	0.056042474
189	0x3c80c64f	0.01571956
190	0xbe3ec992	-0.1863158
191	0xbced016e	-0.028931346
192	0xbe5b4b60	-0.21415472
193	0x3d1308eb	0.035897177
194	0x3da7983b	0.081833325
195	0xbd803a2a	-0.06261094
196	0xbe721838	-0.23642051
197	0x3e0ceea4	0.13762909
198	0x3e387996	0.18015131
199	0x3eb19bbc	0.34689128
200	0x3e93f403	0.28897104
201	0x3eb957d3	0.36199817
202	0xbe624ad5	-0.22098859
203	0xbe8d3139	-0.27576616
204	0x3b81b763	0.003958629
205	0x3e16fb12	0.14744213
206	0xbcf87ae2	-0.030332033
207	0x3e7cad47	0.24675475
208	0x3e9ba501	0.30399325
209	0x3e9e435c	0.30910766
210	0xbcb955c7	-0.02262391
211	0x3e4eb4e6	0.20186195
212	0x3e2838b7	0.16427885
213	0x3e371538	0.17879188
214	0xbe16ae19	-0.1471485
215	0x3e34472b	0.17605273
216	0x3dfeaa85	0.12434868
217	0xbe0dc634	-0.1384514
218	0xbcfc0423	-0.030763691
219	0x3e5137e1	0.20431472
220	0x3ed6d950	0.4196267
221	0x3e00025d	0.12500902
222	0xbbf8c733	-0.007592106
223	0x3daaa8bc	0.08332965
224	0xbf013de5	-0.5048507
225	0x3d265384	0.04060699
226	0x3e67ff0b	0.22655885
227	0x3de80cb3	0.11330547
228	0xbe952388	-0.2912867
229	0x3db446ec	0.0880259
230	0xbe1725c9	-0.14760508
231	0xbe55f290	-0.20893312
232	0xbf21d14c	-0.63209987
233	0x3d9c8393	0.07642283
234	0x3ecb8f4c	0.39757764
235	0x3e259ed6	0.16173872
236	0x3d79bdb5	0.060971934
237	0x3c895f0c	0.016768955
238	0xbcc3e8bf	-0.023914693
239	0x3c95233a	0.018205274
240	0x3ee6f8a4	0.45111573
241	0x3ed9f3e9	0.425689
242	0xbd165186	-0.03669884
243	0xbd919326	-0.071081445
244	0xbe541969	-0.20712818
245	0xbb482323	-0.0030538521
246	0xbcb4562e	-0.02201375
247	0xbdc919fd	-0.0981941
248	0x3e93230a	0.2873767
249	0x3ed8f114	0.42371428
250	0x3ec1e2e8	0.37868428
251	0xbe1784f9	-0.14796819
252	0x3c018274	0.007904638
253	0x3e308fe0	0.17242384
254	0xbdc0f50f	-0.09421741
255	0x3e26f68e	0.1630499

model.0.bias f4 [256]
0	0xbe8ec41b	-0.27883992
1	0x3e9b3820	0.30316257
2	0xbdf2a908	-0.118486464
3	0xbee72354	-0.4514414
4	0xbdef6549	-0.116892405
5	0xbe99cd9c	-0.3003968
6	0x3b773c97	0.0037725323
7	0xbe95390b	-0.29145083
8	0xbea8c1e9	-0.32960442
9	0xbe8771c5	-0.26453987
10	0x3e93e953	0.2888895
11	0x3dcdfc7f	0.100579254
12	0xbea09da8	-0.31370282
13	0x3eafae17	0.34312508
14	0xbd1bd74d	-0.038047124
15	0x3c73e038	0.014885001
16	0x3f12b24b	0.57303303
17	0xbe365b54	-0.17808276
18	0xbd59a70d	-0.053137828
19	0xbb9a81b7	-0.0047151702
20	0xbcb79369	-0.022409158
21	0x3ee504ed	0.4473032
22	0x3ed1bdf9	0.4096525
23	0xbe2b7f27	-0.16747724
24	0xbeafd942	-0.34345442
25	0x3e89660a	0.26835662
26	0x3e8ce3a9	0.2751744
27	0x3e97ea06	0.29670733
28	0xbe836198	-0.25660396
29	0xbe9953d0	-0.29946756
30	0x3df9e700	0.12202263
31	0x3e137af1	0.14402367
32	0xbe5210ab	-0.20514171
33	0xbe6f5a82	-0.2337437
34	0xbd37a011	-0.044830386
35	0x3e2b6ac8	0.16739953
36	0xbe19968b	-0.14998834
37	0x3ef0e7bf	0.47051808
38	0xbe6e0b29	-0.23246445
39	0xbe3c3683	-0.1838017
40	0xbe21e225	-0.15808924
41	0x3e8befb7	0.27331325
42	0x3eb55d7d	0.35422888
43	0x3d4c748e	0.049915843
44	0x3c241824	0.010015521
45	0x3ea54c65	0.32284847
46	0x3ea32cdc	0.31870162
47	0xbe10f9c3	-0.14157777
48	0x3d99f203	0.07516863
49	0x3efafa05	0.49018875
50	0xbe767bbb	-0.24070637
51	0xbe3f6322	-0.1869016
52	0xbb2ae987	-0.0026079135
53	0x3e109dd2	0.14122704
54	0x3e90286a	0.28155833
55	0x3f215791	0.6302424
56	0xbd627ae9	-0.055292998
57	0xbea4f7c4	-0.3222028
58	0x3e917c1a	0.28414994
59	0xbee0f52d	-0.43937054
60	0x3f00babd	0.5028494
61	0x3ee39d7f	0.44456097
62	0x373c1e30	1.1212702e-05
63	0x3ed7ac69	0.42123726
64	0x3bb814f9	0.0056177345
65	0xbe4f4cc3	-0.20244126
66	0x3ebfecb4	0.37485278
67	0x3df21e47	0.11822181
68	0x3ea7f915	0.32807222
69	0xbe7c5e3e	-0.24645326
70	0x3f0f092e	0.5587338
71	0xbba57ef9	-0.0050505367
72	0xbe167142	-0.14691642
73	0x3e018ced	0.12651415
74	0xbea5c2a6	-0.32375067
75	0x3ee0a6f3	0.43877372
76	0x3e8ebcb0	0.27878332
77	0xbe55df04	-0.20885855
78	0x3e59267f	0.21206091
79	0x3f00ad05	0.50264007
80	0xbd54958d	-0.051900435
81	0xbed7d71e	-0.4215631
82	0xbefd1de1	-0.49436858
83	0x3f0598d0	0.521863
84	0x3e9abe9f	0.30223557
85	0x3e90ef98	0.28307796
86	0xbe2d636b	-0.16932456
87	0x3ec2110a	0.37903625
88	0x3e2e495d	0.17020173
89	0x3ee01751	0.4376779
90	0xbe54fd32	-0.20799711
91	0xbd07836f	-0.03308433
92	0x3f073d72	0.52828133
93	0x3eccabfc	0.39974964
94	0x3ed99237	0.42494366
95	0xbcebb9ff	-0.028775213
96	0x3d267655	0.040640194
97	0xbd2ce74e	-0.042212777
98	0xbe803fff	-0.25048825
99	0xbe674b14	-0.22587234
100	0x3f0c34bd	0.5476797
101	0x3ed40f85	0.4141809
102	0xbdafe96a	-0.08589442
103	0xbde17d32	-0.11010207
104	0x3def84fc	0.11695287
105	0x3e8d22e9	0.27565697
106	0xbe44a4d6	-0.19203505
107	0x3ebfa71b	0.3743218
108	0x3eb25443	0.34829912
109	0xbe335ab1	-0.17515065
110	0xbeacb97f	-0.33735272
111	0xbe90f0ac	-0.28308618
112	0x3ea5e9d6	0.32404965
113	0x3eec7f1f	0.46190736
114	0xbe891c23	-0.2677928
115	0x3e906435	0.28201452
116	0x3f0c925b	0.5491082
117	0xbce74a14	-0.028233565
118	0xbe5580ff	-0.2084999
119	0x3e95f937	0.29291698
120	0xbd258182	-0.04040671
121	0xbe007724	-0.12545449
122	0xbdae824f	-0.08520948
123	0xbd9f3221	-0.07773233
124	0x3ed0a9eb	0.40754637
125	0x3e50439f	0.20338295
126	0xbe013ebf	-0.12621592
127	0x3f095816	0.53650033
128	0x3ef5ff4f	0.48046347
129	0x3c5a73e0	0.013333291
130	0x3ebb5363	0.36587057
131	0xbdcd8585	-0.100352325
132	0x3eb57371	0.35439637
133	0x3ec46979	0.3836172
134	0xbdd1e53b	-0.102488
135	0xbe8c07a1	-0.2734957
136	0xbe58ef14	-0.21184951
137	0xbdd7c50e	-0.10535632
138	0x3ef7e624	0.4841777
139	0x3f2e5b8d	0.68108445
140	0xbe8e7b75	-0.27828565
141	0xbe856be5	-0.2605888
142	0xbf00493f	-0.50111765
143	0x3c1df51b	0.009640957
144	0xbd719d10	-0.058987677
145	0x3ee2fc53	0.44333133
146	0x3e980cad	0.2969717
147	0x3e14da4e	0.14536402
148	0xbcb1ea42	-0.021718148
149	0xbe90b5f6	-0.28263825
150	0x3e86045a	0.26175195
151	0xbb788b90	-0.0037924983
152	0xbdcfb862	-0.1014259
153	0x3efa3a16	0.4887244
154	0x3e355edc	0.17711967
155	0x3eb724b2	0.35770184
156	0x3ee72d88	0.45151925
157	0xbe22113b	-0.15826885
158	0xbe8aea52	-0.27131897
159	0x3b723be2	0.0036961962
160	0xbe7beba2	-0.24601606
161	0xbe17a451	-0.14808775
162	0xbe644ae9	-0.22294201
163	0x3ea49433	0.32144317
164	0x3cce9444	0.025217183
165	0x3c85a468	0.016313747
166	0x3e12a717	0.14321552
167	0xbe330d14	-0.17485458
168	0x3dfd41dc	0.12366077
169	0xbe8b6a2a	-0.27229434
170	0xbddb61bd	-0.107120015
171	0x3ebbc326	0.36672324
172	0xbde66e49	-0.11251504
173	0x3dd154f8	0.10221285
174	0x3dbc01e5	0.09180049
175	0x3c672133	0.014107036
176	0x3e1d7184	0.15375334
177	0x3eca89d4	0.3955828
178	0xbec8d276	-0.3922307
179	0xbe024a52	-0.12723663
180	0x3e8bc6ea	0.27300197
181	0x3eb2ef54	0.34948218
182	0x3ec4b6f2	0.38420826
183	0x3e080477	0.13282953
184	0x3e143204	0.14472204
185	0xbe5e79ed	-0.21726198
186	0x3efd0e40	0.49424934
187	0x3efebf0e	0.49755138
188	0xbe9749f3	-0.29548606
189	0x3ed8c3d3	0.42336902
190	0xbe80e4f2	-0.2517467
191	0xbe699412	-0.2281039
192	0x3ec8b361	0.39199355
193	0x3ee2161f	0.44157502
194	0xbe8fc73c	-0.2808169
195	0x3ee83b92	0.4535795
196	0xbd32b49c	-0.043629274
197	0x3e9de812	0.30841118
198	0xbe514d0d	-0.20439549
199	0x3f01805e	0.505865
200	0x3eba1017	0.363404
201	0xbe2ab19e	-0.16669318
202	0xbea688f8	-0.32526374
203	0xbe931b5c	-0.2873181
204	0x3ea0ac9c	0.3138169
205	0xbec8f27e	-0.39247507
206	0x3e8f0600	0.27934265
207	0xbf070f1a	-0.5275742
208	0x3d145603	0.03621484
209	0x3e6957bf	0.22787379
210	0xbe450fe4	-0.19244343
211	0x3d173bc1	0.03692222
212	0x3f071a79	0.5277477
213	0xbd29235f	-0.041293498
214	0x3f003064	0.5007384
215	0xbf065669	-0.524756
216	0xbe2f6f60	-0.1713233
217	0x3f04735e	0.51738536
218	0x3de1642c	0.110054344
219	0xbf312dbc	-0.6921041
220	0xbe8a7b52	-0.2704721
221	0xbe0d5a44	-0.13803965
222	0xbe5dea50	-0.21671414
223	0x3ea9fb60	0.33199596
224	0x3f246bfe	0.64227283
225	0xbd874335	-0.066046156
226	0x3eefe5cd	0.46855012
227	0xbe80f8f7	-0.25189945
228	0xbe915af3	-0.283897
229	0x3ece41db	0.4028462
230	0x3d8978d3	0.067124985
231	0xbeb245b6	-0.3481881
232	0xbe003902	-0.12521747
233	0x3e894204	0.26808178
234	0x3ec1a6be	0.37822527
235	0xbe1c7664	-0.15279537
236	0xbe1e3910	-0.15451455
237	0x3efbfa30	0.49214315
238	0xbecf336f	-0.40468928
239	0x3e020e79	0.12700833
240	0xbd396d6c	-0.04527037
241	0xbd87f620	-0.066387415
242	0x3df90898	0.12159842
243	0xbdb66654	-0.08906236
244	0xbd26d8ea	-0.04073421
245	0xbde795b9	-0.11307854
246	0xbe996dd3	-0.29966602
247	0xbc9932ec	-0.01870104
248	0xbdf3c3ab	-0.11902555
249	0xbd839ea3	-0.06426742
250	0x3e96f6cb	0.29485163
251	0x3ed3d00e	0.4136967
252	0xbd03be9e	-0.03216421
253	0x3ea9524d	0.33070603
254	0xbe05daad	-0.130717
255	0x3e649adb	0.22324698

model.2.weight f4 [128, 256]
0	0xbc94e3ba	-0.018174995
1	0x3d5e3abc	0.054255232
2	0xbceabf2d	-0.028655613
3	0x3cb49506	0.022043716
4	0xbdf045e0	-0.117320776
5	0x3ce4e4df	0.027941165
6	0x3bc61e4b	0.0060460917
7	0xbe09adf9	-0.13445272
8	0xbde8c46b	-0.11365589
9	0x3d319854	0.043358162
10	0x3d497d42	0.04919172
11	0xbcb36297	-0.021897597
12	0xbd8f6090	-0.0700084
13	0xbcc3e7ce	-0.023914244
14	0xbda87692	-0.082257405
15	0xbc23cb1d	-0.009997156
16	0x3cf98b5b	0.030461958
17	0x3b321cc4	0.002717779
18	0x3c0f5aec	0.008749705
19	0xbdfb92e7	-0.12283879
20	0x3ca53c28	0.020170286
21	0x3d94b613	0.072612904
22	0x3d1a5b73	0.03768487
23	0xbd809fd5	-0.062804855
24	0xbd081270	-0.03322071
25	0xbc9a6583	-0.018847233
26	0x3ce62c3e	0.028097268
27	0xbb29da1e	-0.0025917361
28	0xbceedd00	-0.029158115
29	0xbe21f991	-0.15817858
30	0x3d6c2131	0.05764884
31	0x3d3f3f54	0.046691254
32	0xb95b8155	-0.00020933647
33	0xbcfa78d2	-0.03057519
34	0xbd57ab0c	-0.052653357
35	0xbca9da6f	-0.02073404
36	0xbcc2e0ec	-0.023788892
37	0x3cd3ecd9	0.025869774
38	0xbb3a8df4	-0.0028465958
39	0x3ce1ef83	0.027580028
40	0xbd824807	-0.063613944
41	0x3d6a596f	0.057214197
42	0x3d914ef8	0.0709514
43	0xbcef05f2	-0.02917764
44	0xbca597c8	-0.020213977
45	0xbd93eb1c	-0.07222578
46	0x3da24af1	0.0792445
47	0xbd7a477e	-0.061103337
48	0xbcd46dd7	-0.025931282
49	0x3d31b500	0.043385506
50	0x3d26954e	0.04066973
51	0x3cbc7307	0.023004068
52	0x3ca67cfa	0.020323265
53	0xbc2019e6	-0.0097718
54	0x3cf1cd02	0.0295167
55	0x3d9074cd	0.07053528
56	0xbd246095	-0.04013117
57	0xbd300bd4	-0.04298003
58	0x3d0f1e5e	0.03494107
59	0xbd828d17	-0.06374567
60	0xbccb6a5a	-0.024830986
61	0x3d5a64c8	0.05331877
62	0x3caca05f	0.021072565
63	0x3c69eddc	0.0142779015
64	0x3d7a064c	0.06104116
65	0x3c949c24	0.01814086
66	0x3cbc3db9	0.02297865
67	0xbd3508d3	-0.04419787
68	0x3d49ff97	0.049316015
69	0xbe08b312	-0.1334956
70	0x3bc2ac88	0.0059409775
71	0xbc514791	-0.01277341
72	0xbc9c81d6	-0.01910488
73	0x3d84e85c	0.064896315
74	0xbd3b9dcf	-0.045804795
75	0x3d3917a6	0.04518857
76	0x3d16fb89	0.036860976
77	0x3b8fabd3	0.0043844967
78	0xbd41093a	-0.04712794
79	0x3d21dd1b	0.039517503
80	0x3d03c4b9	0.03217003
81	0xbd4815ab	-0.04884879
82	0xbd81139c	-0.06302568
83	0xbc2ea99e	-0.010660557
84	0x3cd59b26	0.026074957
85	0x3daa3c4e	0.083122835
86	0x3d3de3a8	0.046359688
87	0xbd017d04	-0.031613365
88	0xbdcc79b9	-0.09984154
89	0xbc361811	-0.011114136
90	0x3d8cb62e	0.068706855
91	0x3d1c7abe	0.038202994
92	0x3dc5f98d	0.09666739
93	0x3d0ed033	0.034866523
94	0x3c11306f	0.008861645
95	0x3d00ed26	0.031476162
96	0xbd848e7e	-0.06472491
97	0xbd1d2eda	-0.03837476
98	0xbdb9aa51	-0.090656884
99	0xbd11b929	-0.035576973
100	0x3c45f02e	0.012081189
101	0xbceb95d2	-0.028757963
102	0x3d80fdd1	0.06298412
103	0x3cd05331	0.025430294
104	0x3d3f2dcc	0.046674535
105	0xbaaae66c	-0.0013038642
106	0xbdf9c026	-0.121948525
107	0xbc927cf9	-0.017881857
108	0x3c95b585	0.018275032
109	0xbd9fd55c	-0.07804367
110	0xbc6f2d12	-0.014598148
111	0x3d28802e	0.041137867
112	0x3da9bb8d	0.082877256
113	0x3c95c225	0.018281052
114	0x3db19206	0.0867043
115	0x3c71ecf8	0.01476597
116	0x3d79d450	0.060993493
117	0x3a469078	0.0007574628
118	0x3c4b40b4	0.012405563
119	0x3c65133e	0.0139816385
120	0xbd19d732	-0.037558742
121	0x3c93660f	0.017993001
122	0xbbae16da	-0.0053127827
123	0xbc34c7d4	-0.011033971
124	0x3d3293f4	0.04359813
125	0xbd14d3d0	-0.036334813
126	0x3bf3caa1	0.0074399267
127	0x3d90ceac	0.070706695
128	0xbdc15d49	-0.09441621
129	0x3de9d9d8	0.114185035
130	0x3d26a6e3	0.0406865
131	0x3ceb964e	0.028758194
132	0x3cab6fb9	0.020927297
133	0xbb8f424a	-0.004371916
134	0xbc982bbf	-0.018575547
135	0xbbf35e45	-0.0074270093
136	0xbe3d2eef	-0.18474935
137	0xbcbeefac	-0.023307644
138	0x3d47e493	0.04880197
139	0x3c4e24ec	0.012582045
140	0xbd1116be	-0.03542208
141	0x3d2d7b92	0.042354174
142	0xbdd2c4e3	-0.102914594
143	0xbcb33dc4	-0.021880038
144	0xbe329fcb	-0.17443769
145	0x3db66742	0.089064136
146	0x3dafb485	0.08579353
147	0x3c10fc4b	0.008849214
148	0xbd71cbbb	-0.059032183
149	0x3ce24193	0.027619159
150	0x3db15df9	0.08660502
151	0x3d112090	0.035431445
152	0xbd2e4dbf	-0.042554613
153	0xbc22529c	-0.009907391
154	0xbcfcbf33	-0.03085289
155	0x3da5d179	0.08096594
156	0x3ce8a3f0	0.028398484
157	0xbc38d5c8	-0.011281438
158	0xbd08c820	-0.03339398
159	0x3d821fd1	0.06353725
160	0xbe12f8c8	-0.14352715
161	0xbe28b70b	-0.16476075
162	0xbca0f9d1	-0.019650372
163	0x3ca9f351	0.020745905
164	0xbd2276bc	-0.039664015
165	0x3d21feb3	0.03954954
166	0x3b5a9b5d	0.0033356764
167	0x3abe3772	0.0014512374
168	0x3c97d85b	0.018535784
169	0xbe29c997	-0.16580807
170	0xbd0dbb20	-0.034602284
171	0xbb81856f	-0.003952674
172	0x3d162a95	0.036661703
173	0x3dabbda0	0.083857775
174	0xbd28af38	-0.041182727
175	0x3c93464a	0.017977852
176	0xbc6c5e44	-0.014426772
177	0x3c430760	0.011903614
178	0x3a909cf7	0.0011033107
179	0x3da2176b	0.07914623
180	0xbd28c0e9	-0.0411996
181	0x3d211c43	0.039333593
182	0x3d7a20c7	0.061066415
183	0x3d158bce	0.03651028
184	0x398e5727	0.00027149284
185	0xbb81c9a5	-0.0039608055
186	0x3d053d5a	0.032529213
187	0xbc4f3983	-0.012647989
188	0xbca37280	-0.019952059
189	0x3d950373	0.072760485
190	0xbce7e3e2	-0.028306905
191	0xbdbc3f73	-0.091917895
192	0xbd3e9ad8	-0.04653439
193	0x3dd3a58d	0.10334311
194	0xbd0fb1a5	-0.035081524
195	0x3d3dae97	0.04630908
196	0xb889b17b	-6.5657274e-05
197	0x3d40a4ca	0.047032155
198	0x3b90d41a	0.0044198157
199	0x3caca153	0.02107302
200	0x3ddc022f	0.10742604
201	0x3c44a9d9	0.012003385
202	0xbd2ca83d	-0.042152632
203	0xbcb095bb	-0.021555772
204	0x3d5d4aec	0.05402653
205	0xbdb020d8	-0.086000144
206	0xbd84de47	-0.064877085
207	0xbde7ad9d	-0.11312411
208	0x3d7df5c5	0.062001962
209	0x3decf111	0.11569417
210	0xbdacc942	-0.084368244
211	0xbd0644ff	-0.032780644
212	0x3bcbb1e0	0.0062162727
213	0x3c40403d	0.011734066
214	0xbcd22fe7	-0.025657607
215	0x3d0c2f7a	0.034224965
216	0x3c54a1e0	0.012978047
217	0x3c6f5934	0.01460867
218	0x3d3c4d46	0.04597213
219	0xbdbbe1ce	-0.09173928
220	0xb813c42c	-3.523023e-05
221	0xbd04dfdd	-0.032440055
222	0x3d265667	0.040609743
223	0x3d60635d	0.05478226
224	0xbc0d698a	-0.0086311195
225	0x3cfb6144	0.030686028
226	0x3c4b11c4	0.012394372
227	0xbd9b914e	-0.07596074
228	0xbbb04a2c	-0.0053799357
229	0xbd71001c	-0.058837995
230	0xbdb36a75	-0.087605394
231	0x3b853382	0.004064978
232	0x3ce3f9a4	0.027828999
233	0xbd1fd9c1	-0.039026026
234	0x3d8ed6c9	0.06974561
235	0xbd86f35f	-0.06589388
236	0xbd081177	-0.03321978
237	0x3d5efa77	0.05443808
238	0xbcbeb0d4	-0.023277678
239	0x3d3cae00	0.046064377
240	0x3d27554a	0.040852822
241	0xbdf38a9b	-0.11891671
242	0x3d7576d5	0.05992778
243	0xbd8d1fd7	-0.068908386
244	0xbd0a8665	-0.033819575
245	0xbbb61471	-0.005556636
246	0xbc04ead4	-0.008112628
247	0xbe1d2b3b	-0.15348522
248	0x3a331409	0.00068312936
249	0xbddea625	-0.10871533
250	0x3da2704b	0.079315744
251	0x3d1701ce	0.036866955
252	0x3bb7ad7a	0.005605397
253	0xbd0daa46	-0.034586214
254	0xbc968fb0	-0.018379062
255	0x3c1101e9	0.008850553

model.2.bias f4 [128]
0	0x3d128a77	0.03577658
1	0x3dd42918	0.103594005
2	0x3c97f830	0.018550962
3	0x3d54c4ab	0.05194537
4	0xbdbd4f89	-0.09243686
5	0xbd8f3575	-0.06992618
6	0x3d74d258	0.059770912
7	0xbcc5cb08	-0.024144664
8	0x3bf161fa	0.007366416
9	0x3e63fcff	0.22264479
10	0xbd2fdb5a	-0.0429338
11	0x3de30e5c	0.11086723
12	0x3df79bd1	0.120902665
13	0x3e3ab4c5	0.1823302
14	0x3c885335	0.016641239
15	0x3d8118e3	0.06303575
16	0xbd1600a6	-0.036621712
17	0x3e2d0030	0.16894603
18	0x3d9664fd	0.07343481
19	0x3de51388	0.11185366
20	0xbb36a8a0	-0.0027871504
21	0x3d18a672	0.03726811
22	0x3e03c5a3	0.12868361
23	0x3d83ca79	0.06435103
24	0xbd9c202a	-0.07623322
25	0x3bb9fb6c	0.005675724
26	0x3d90825e	0.070561156
27	0xbb885267	-0.0041602137
28	0x3c948726	0.01813085
29	0x3d9262a2	0.07147719
30	0x3da8ce2b	0.082424484
31	0x3b0af6f6	0.002120433
32	0x3cf7b979	0.030239807
33	0xbdc14fcf	-0.094390504
34	0xbd9851bd	-0.07437465
35	0x3bd1eda1	0.0064065014
36	0xbd914d66	-0.07094841
37	0x3d3d659a	0.046239473
38	0x3d53a882	0.051674373
39	0xbd975b4f	-0.073904626
40	0x3d8bb610	0.06821835
41	0xbcd2e73a	-0.025745023
42	0xbd4fbd6e	-0.050717764
43	0x3d19bbac	0.037532493
44	0xbc5ba3ec	-0.013405781
45	0x3de140ba	0.10998674
46	0xbd61229a	-0.05496464
47	0xbd878787	-0.06617647
48	0xbd95f42d	-0.073219635
49	0x3d6c9ccd	0.057766724
50	0x3d429168	0.04750195
51	0x3dd19ea4	0.102353364
52	0x3d94e9fc	0.072711915
53	0x3d7d2126	0.06179919
54	0xbd110662	-0.035406478
55	0xbdcc84a7	-0.09986239
56	0x3dbfd224	0.09366253
57	0x3dab4ec6	0.08364634
58	0xbcc2a376	-0.023759585
59	0x3d9653d2	0.07340206
60	0x3c12db95	0.008963485
61	0xba8dca42	-0.0010817724
62	0x3c334fa9	0.010944285
63	0x3ddb105c	0.1069648
64	0x3dbbe3cf	0.091743104
65	0xbdac0355	-0.08399073
66	0x3ca5bf6c	0.020232879
67	0x3d8aaa32	0.067707434
68	0x3e67d03d	0.2263803
69	0x3d24d4d3	0.040242027
70	0x3c2f3eac	0.0106960945
71	0x3d1b35d6	0.03789314
72	0x3dcedb52	0.10100426
73	0x3d1eb28e	0.0387445
74	0x3d62777c	0.05528973
75	0x3d3f7c2a	0.04674927
76	0x3d998c2e	0.0749744
77	0x3e02c0e7	0.12768899
78	0x3d0e71c2	0.034776457
79	0xbdc8213f	-0.09771966
80	0xbcde91ee	-0.027169194
81	0xbd58e4ae	-0.05295246
82	0x3d9ff48d	0.07810316
83	0x3d3020cf	0.04300004
84	0xbb00fb60	-0.0019681081
85	0x3d8d61c7	0.06903415
86	0x3d5091b0	0.05092019
87	0x3d46259a	0.048375703
88	0x3caa6cf5	0.020803908
89	0xbde8bcda	-0.113641456
90	0xbc5f5630	-0.013631389
91	0x3e267fe1	0.1625972
92	0xbe55647f	-0.20839117
93	0xbdf5bea9	-0.11999256
94	0x3dcdcf72	0.10049333
95	0x3d21f072	0.039535947
96	0x3db96c2b	0.090538345
97	0x3da2b310	0.0794431
98	0x3beb0cde	0.0071731647
99	0x3ddc3988	0.10753161
100	0xbb58384a	-0.0032992535
101	0xbd494002	-0.04913331
102	0xbdf52148	-0.119692385
103	0x3da104e4	0.07862261
104	0x3cb49686	0.022044431
105	0x3e0b3b69	0.13596882
106	0x3e096588	0.13417637
107	0xbd8428cb	-0.06453093
108	0x3b6d0b16	0.0036169938
109	0x3df7ecbf	0.121057026
110	0xbd67b98f	-0.056573447
111	0xbd46b86f	-0.048515733
112	0x3cb70a7e	0.02234387
113	0x3df900e7	0.12158375
114	0xbc9d90c9	-0.019234078
115	0xbce210bd	-0.027595872
116	0xbd6bb901	-0.05754948
117	0x3d1f0343	0.03882147
118	0x3d0b81a9	0.0340592
119	0xbcb2a5b5	-0.02180753
120	0x3d7b2ecc	0.061323926
121	0xbb020eba	-0.0019845203
122	0x3c1665a2	0.009179505
123	0xbd8f88bb	-0.07008501
124	0x3d66d889	0.056358848
125	0xbe019f07	-0.1265832
126	0xbc245bbf	-0.01003164
127	0xbd955dcc	-0.07293281

model.4.weight f4 [64, 128]
0	0x3dc7e19d	0.09759829
1	0xbd3a1160	-0.045426726
2	0x3c833dbf	0.016020654
3	0x3c506a92	0.012720721
4	0xbe0a32d2	-0.13495949
5	0x3d58a204	0.052888885
6	0x3ddf8807	0.10914617
7	0xbd4aa807	-0.04947665
8	0x3b8eadae	0.0043542003
9	0x3e2c271b	0.16811793
10	0xbd60f473	-0.054920625
11	0x3de6deea	0.11272986
12	0x3da2445f	0.07923197
13	0x3d84099a	0.06447144
14	0xbdf04109	-0.117311545
15	0x3ca2fd7b	0.01989626
16	0xbb36096c	-0.0027776612
17	0x3dfaddf1	0.12249363
18	0x3dde82c6	0.10864787
19	0x3e10d20e	0.1414263
20	0xbe2b1f2f	-0.16711114
21	0x3c63e218	0.013908885
22	0xbacf28ce	-0.0015805007
23	0x3d2801d6	0.041017376
24	0xbd2429b0	-0.04007882
25	0xbd836b4c	-0.0641695
26	0x3c2fc186	0.010727292
27	0x3ce63d22	0.028105322
28	0xbdc63ff1	-0.096801646
29	0x3a86df38	0.0010289913
30	0x3d8a8987	0.067645125
31	0x3e07f89a	0.13278428
32	0x3e38b544	0.18037897
33	0x3cc70907	0.024296297
34	0xbe46a93c	-0.19400495
35	0x3ab1c148	0.0013561631
36	0x3d18ce00	0.037305832
37	0x3ccdf7be	0.025142547
38	0xbcdd0052	-0.026977692
39	0xbdaa117f	-0.08304118
40	0xbd5cc85e	-0.053902023
41	0xbe146a82	-0.14493755
42	0x3cc5cb5b	0.024144819
43	0xbd1892f3	-0.037249517
44	0xbb4ed087	-0.0031557397
45	0x3dac1ee0	0.084043264
46	0xbdb61310	-0.08890355
47	0xbb5277ee	-0.003211494
48	0xbd844eef	-0.06460368
49	0x3d80456c	0.06263241
50	0x3ddd4f63	0.108061574
51	0x3dc12346	0.09430556
52	0x3e1007ef	0.14065526
53	0x3d382cd3	0.044964623
54	0x3d2a4ef3	0.041579198
55	0x3e82b940	0.2553196
56	0xbd0c44f5	-0.03424545
57	0xbdb277c3	-0.08714249
58	0xbb4f076c	-0.0031590117
59	0x3dcc5258	0.09976643
60	0xbb41ce2d	-0.0029572353
61	0x3cbbd2d8	0.022927687
62	0x3deff674	0.11716929
63	0xbe041442	-0.12898353
64	0x3dea8adc	0.114522666
65	0x3d97a1e9	0.07403929
66	0xbdffa79c	-0.12483141
67	0xbd932081	-0.07183934
68	0x3e0cc7d8	0.1374811
69	0xbd73f8b8	-0.05956337
70	0x3d8f9617	0.07011049
71	0x3d1a1d02	0.03762532
72	0x3e415d96	0.18883356
73	0xbba24256	-0.0049517555
74	0xbc0a81ca	-0.008453796
75	0x3a9fab45	0.001218178
76	0x3cdc187e	0.026867148
77	0x3d10dab5	0.035364825
78	0xbc07fa39	-0.008299404
79	0xbc48f613	-0.0122657
80	0x3dec0c88	0.11525828
81	0xbce1fece	-0.02758732
82	0x3df55238	0.119785726
83	0x39c70d31	0.00037966066
84	0x3cb865c0	0.022509456
85	0x3de526fb	0.111890756
86	0xbda85e88	-0.082211554
87	0xbd529ad4	-0.051417187
88	0x3d4d6462	0.05014456
89	0xbd19711f	-0.037461396
90	0x3d1837bd	0.03716253
91	0x3da01e30	0.07818258
92	0xbdd7a14f	-0.10528814
93	0x3b90a315	0.004413972
94	0x3dabc634	0.083874136
95	0x3d927c52	0.071526185
96	0xbdf5c473	-0.1200036
97	0x3db0802c	0.08618197
98	0xbd5deb6c	-0.054179594
99	0x3e10bcc1	0.14134504
100	0xbcf1e1fc	-0.029526703
101	0xbe1038d8	-0.14084184
102	0x3ec37f84	0.38183224
103	0x3d16c28e	0.036806636
104	0xbd9c9e11	-0.07647336
105	0x3e781f67	0.24230729
106	0x3e7239dd	0.23654886
107	0xbd5d0708	-0.053961784
108	0xbdfac7d9	-0.12245149
109	0xbe1116a8	-0.14168799
110	0xbc44564f	-0.011983468
111	0x3dbbd526	0.09171514
112	0xbdaa3b08	-0.083120406
113	0xbcbd0882	-0.023075346
114	0x3e952126	0.29126853
115	0xbdd007fc	-0.10157773
116	0xbad64407	-0.0016347178
117	0xbd45ff59	-0.04833922
118	0xbde10c33	-0.10988655
119	0xbd8c2a9c	-0.068440646
120	0xbde3a016	-0.11114518
121	0xbc8ad0c4	-0.01694525
122	0xbdd6e48c	-0.104928106
123	0x3c66fd62	0.014098497
124	0x3c1b6e53	0.009486753
125	0x3e12c828	0.14334166
126	0xbe10edb1	-0.14153172
127	0xbcdccb1c	-0.026952319
128	0x3b64c7f1	0.0034909213
129	0xbe1ca6a2	-0.1529794
130	0x3ca3d41d	0.019998604
131	0xbc6f5f4c	-0.014610123
132	0xbe225177	-0.15851389
133	0xbddc17d5	-0.10746733
134	0xbd924a9d	-0.071431376
135	0xbce11918	-0.027477786
136	0xbd8688b4	-0.06569043
137	0xbd138223	-0.03601278
138	0xbd1724a4	-0.036900178
139	0xbd72377f	-0.059134956
140	0x3d18ef85	0.0373378
141	0xbe21616a	-0.15759817
142	0xbd263369	-0.040576372
143	0xbd854632	-0.06507529
144	0xbe0173a3	-0.12641768
145	0x3e09cdf5	0.13457473
146	0x3d58d06e	0.05293315
147	0xbd6792dd	-0.056536544
148	0xbe135601	-0.14388277
149	0xbd9fde29	-0.078060456
150	0xbe1a034c	-0.1504032
151	0x3cad2bab	0.021138987
152	0xbd9e8610	-0.07740414
153	0xbd51ad12	-0.051190443
154	0xbcfb63aa	-0.030687172
155	0xbc7b1b46	-0.015326327
156	0xbd5c57f2	-0.05379481
157	0xbd6207d1	-0.055183236
158	0xbe052a58	-0.13004434
159	0x3d7a325c	0.061083183
160	0x3dbe00a5	0.09277467
161	0xbe25b1b1	-0.16181065
162	0xbe322063	-0.17395167
163	0xbdeeae38	-0.11654323
164	0xbd3753cb	-0.044757646
165	0xbdd34afa	-0.10317035
166	0xbe08e388	-0.13368046
167	0xbcf36375	-0.02971051
168	0x3c986a74	0.018605448
169	0xbe1b4038	-0.15161216
170	0x3d08156a	0.033223547
171	0xbe20ef5c	-0.15716308
172	0xbc63c91d	-0.01390293
173	0xbda83f45	-0.08215193
174	0xbddb0d99	-0.10695953
175	0xbd11efc4	-0.03562905
176	0xbdd32113	-0.10309043
177	0xbd69c51a	-0.057072736
178	0x3d840076	0.064454004
179	0xbd071f86	-0.032989047
180	0x3ce48204	0.027894028
181	0xbd7dcee2	-0.061964877
182	0xbca157ee	-0.019695248
183	0x3deb9e14	0.115047604
184	0xbab8fdb9	-0.0014113701
185	0xbd0a0c2e	-0.03370302
186	0xbda6635e	-0.081244215
187	0xbd679157	-0.05653509
188	0xbd3e20be	-0.046417944
189	0xbdd5c809	-0.10438544
190	0x3c702b49	0.0146587575
191	0xbcccee39	-0.025015937
192	0xbd38cc1d	-0.045116533
193	0xbbb5c35b	-0.00554697
194	0xbe28c9d7	-0.16483246
195	0xbd37434f	-0.044741925
196	0xbe186d55	-0.14885457
197	0xbdfc041f	-0.123054735
198	0xbd9f81f9	-0.07788462
199	0xbd7dbbd3	-0.0619467
200	0xbcfe4d44	-0.031042702
201	0xbd41bfd2	-0.047302075
202	0x3cc58e55	0.02411572
203	0x3d743c58	0.05962786
204	0xbd80bb7a	-0.06285758
205	0xbccf4a5f	-0.025304018
206	0xbddfd0d3	-0.10928502
207	0xbdb6c509	-0.089243
208	0x3cf23071	0.029564114
209	0xbcd22bfd	-0.02565574
210	0xbd97abf0	-0.07405841
211	0x3c21834d	0.009857965
212	0xbd16dd43	-0.036832105
213	0xbd4ed790	-0.050498545
214	0xbe1fd346	-0.15607938
215	0xbde2631f	-0.11054062
216	0xbe1bef59	-0.15228023
217	0x3e0e8085	0.13916214
218	0xbe2023d9	-0.15638675
219	0xbbf8552b	-0.007578512
220	0xbe227556	-0.15865073
221	0xbddb875a	-0.10719176
222	0xbc29279c	-0.010324385
223	0xbca7f558	-0.020502731
224	0xbe6a2f3e	-0.22869584
225	0x3cec720d	0.028862977
226	0xbdad1086	-0.08450417
227	0xbda5db35	-0.08098451
228	0xbcf8560b	-0.030314466
229	0xbdcebc02	-0.100944534
230	0x3deb9393	0.11502757
231	0xbc238e8e	-0.009982718
232	0xbdccb6e3	-0.099958204
233	0x3dee26c1	0.116284855
234	0x3e0ecbfc	0.13945001
235	0xbd283be9	-0.04107276
236	0xbe128528	-0.14308608
237	0xbe730696	-0.23732981
238	0xbd51f6cf	-0.051260766
239	0x3d814636	0.0631222
240	0xbe0421b1	-0.12903477
241	0xbe93c11f	-0.28858277
242	0x3df6f1e4	0.12057856
243	0xbdc7134c	-0.097204775
244	0xbddaa641	-0.10676242
245	0xbe03dac9	-0.12876429
246	0xbd5320d5	-0.051544983
247	0xbdce2154	-0.100649506
248	0xbd9c1254	-0.07620683
249	0xbd54e2d8	-0.051974148
250	0xbe387eaa	-0.18017069
251	0x3cf873b0	0.030328602
252	0xbd924429	-0.07141907
253	0x3e286374	0.16444188
254	0xbe17b79f	-0.1481614
255	0xbe256e35	-0.16155322

model.4.bias f4 [64]
0	0x3cf29b85	0.029615173
1	0xbd906e4d	-0.07052288
2	0x3de14398	0.109992206
3	0x3b17ee43	0.0023182787
4	0xbd6dfa45	-0.058100004
5	0x3d6d46f7	0.057929005
6	0x3d5acbe6	0.05341711
7	0x3b7336b8	0.0037111472
8	0x3dac4909	0.08412368
9	0xbc8f70a5	-0.017509768
10	0x3e0088ec	0.12552232
11	0xbd51f2d2	-0.051256962
12	0x3d888f53	0.06667962
13	0x3baec316	0.0053333146
14	0x3d129498	0.03578624
15	0xbc1e6a88	-0.009668954
16	0x3d026a9a	0.031839944
17	0x3d871752	0.06596245
18	0xbd437579	-0.047719453
19	0x3b9675b7	0.0045916694
20	0x3dedac2b	0.11605104
21	0x3cb6f793	0.02233485
22	0x3da8609a	0.0822155
23	0x3be66495	0.0070310333
24	0x3d413f7d	0.047179688
25	0x3d675e8b	0.056486648
26	0x3d11a40c	0.035556838
27	0xbd803257	-0.062596016
28	0x3d88ac39	0.06673474
29	0xbb20c80c	-0.00245333
30	0xbd220ad6	-0.039561115
31	0xbbd9292b	-0.006627222
32	0x3c96ad58	0.018393204
33	0xbd6cd4e5	-0.05782022
34	0xbd5e06b3	-0.054205608
35	0x3d47b055	0.048752148
36	0x3be45504	0.0069681425
37	0x3d63108a	0.055435695
38	0x3d27c9fe	0.04096412
39	0x3dd5b982	0.104357734
40	0x3db69dbb	0.089168034
41	0xbcb6f94d	-0.022335673
42	0xbc43d465	-0.011952494
43	0x3de61d9f	0.112361185
44	0xbad3452e	-0.001611864
45	0x3cd2ca36	0.025731187
46	0x3dab5534	0.083658606
47	0x3dcbdc04	0.09954074
48	0x3dab0ceb	0.08352073
49	0x3d57ed10	0.052716315
50	0x3e0d9f7e	0.13830373
51	0x3d71e74f	0.059058484
52	0xbda9a0ff	-0.08282661
53	0x3e00c0a1	0.12573482
54	0x3d81acc4	0.063317806
55	0x3d585c3c	0.052822337
56	0x3d2f009a	0.042725183
57	0x3cd7d320	0.02634579
58	0x3d7e754b	0.062123578
59	0x3d0a4196	0.033753954
60	0x3ce33cdd	0.027738983
61	0x3d9188a6	0.07106142
62	0x3e0c3ba8	0.13694632
63	0x3dd95ae0	0.10613036

model.6.weight f4 [1, 64]
0	0x3e7a5088	0.24444783
1	0x3e366779	0.17812909
2	0xbe9ca475	-0.3059422
3	0x3efa1bd0	0.48849344
4	0x3e439930	0.19101405
5	0xbeaf69a4	-0.34260285
6	0x3e2b39a5	0.16721208
7	0xbeebf36c	-0.46084154
8	0x3e8ffc1d	0.28122035
9	0x3e06dabf	0.13169383
10	0x3ec36301	0.3816147
11	0xbea00802	-0.3125611
12	0x3ea04243	0.31300554
13	0x3e62e992	0.22159413
14	0xbe83fdd7	-0.25779602
15	0x3e1c2151	0.15247084
16	0x3fa58c66	1.2933471
17	0xbe859967	-0.260936
18	0xbe983bdc	-0.2973317
19	0xbec4709b	-0.3836716
20	0xbebb4925	-0.36579242
21	0x3e80e7f1	0.25176957
22	0x3e42139c	0.18952793
23	0x3e86b4a0	0.2630968
24	0xbe644712	-0.22292736
25	0x3e9c52fa	0.30532056
26	0x3ea6e21e	0.3259439
27	0xbe64fec7	-0.22362815
28	0xbeaab948	-0.33344483
29	0x3e85a17e	0.2609977
30	0x3e9759c0	0.2956066
31	0xbe83bca5	-0.25729862
32	0xbe42a525	-0.1900831
33	0xbe9fe4b3	-0.3122917
34	0x3f650584	0.8946154
35	0xbea3ec8f	-0.32016417
36	0x3e90519b	0.2818726
37	0xbeb6d498	-0.3570907
38	0x3e909316	0.28237218
39	0xbe5a1879	-0.21298398
40	0xbed0c1a6	-0.40772742
41	0x3e7d66a0	0.2474618
42	0x3e14eebc	0.14544195
43	0xbed7e0ea	-0.42163783
44	0x3e8f2ec4	0.27965367
45	0x3def1540	0.11673975
46	0xbea0cf08	-0.31407952
47	0xbe693d71	-0.22777344
48	0x3e924777	0.28570148
49	0xbeb413c8	-0.35171342
50	0xbe91c3c3	-0.28469667
51	0x3ef5ffed	0.48046818
52	0x3e90db67	0.2829239
53	0xbe8c9fa0	-0.27465534
54	0xbee13255	-0.43983713
55	0x3e8afe46	0.2714712
56	0xbe79da45	-0.2439967
57	0x3e67b766	0.22628555
58	0x3fd77aec	1.6834388
59	0xbeaa977e	-0.33318704
60	0x3e73721e	0.23774001
61	0x3ea497ac	0.32146966
62	0xbf14e0f3	-0.58155745
63	0x3e9181b2	0.28419262
